LSTM_for_PDE/codes/model/lstm_pinn.pth (torch, 211681 bytes, 13 tensors)

lstm.weight_ih_l0 f4 [200, 2]
0	0xbf017233	-0.5056488
1	0xbe698d22	-0.22807744
2	0xbed18a9d	-0.40926066
3	0xbec294b7	-0.38004085
4	0xbf317a4b	-0.6932723
5	0xbe919954	-0.28437293
6	0x3e35397d	0.17697711
7	0x3eb96a78	0.36214042
8	0x3ea9a788	0.3313563
9	0xbea27712	-0.31731468
10	0xbeed6a95	-0.46370378
11	0xbe96590f	-0.2936482
12	0xbef5d20d	-0.4801182
13	0xbeb87ce8	-0.36032796
14	0xbebcc752	-0.3687082
15	0xbdc8f15c	-0.09811661
16	0x3e7928a9	0.24331917
17	0xbe3aced9	-0.18242969
18	0xbf339184	-0.70143914
19	0xbe8dd4f8	-0.27701545
20	0xbec71fee	-0.38891548
21	0xbce01d0b	-0.027357599
22	0xbf04f55c	-0.5193689
23	0xbe28d945	-0.16489132
24	0x3e712afd	0.23551555
25	0xbe41a67e	-0.18911168
26	0x3ea2ff76	0.31835526
27	0xbd8c6d9c	-0.06856844
28	0x3ec10ed4	0.37706625
29	0xbe85dfc1	-0.26147273
30	0x3d0f047c	0.034916386
31	0x3e4cb900	0.19992447
32	0x3eb09a38	0.3449266
33	0xbc77f3a3	-0.015133771
34	0xbede80b0	-0.43457556
35	0xbec49492	-0.383946
36	0xbeca1759	-0.39470938
37	0xbe47fadd	-0.1952929
38	0x3e6f134f	0.2334721
39	0xbe969474	-0.29410136
40	0x3e029a68	0.12754214
41	0x3d1d42c3	0.038393747
42	0xbf1be86b	-0.60901517
43	0xbe5f1b7e	-0.21787831
44	0x3d160cdf	0.03663337
45	0x3d02c458	0.03192553
46	0xbf227731	-0.6346312
47	0xbdd35078	-0.103180826
48	0x3e6ff49e	0.23433158
49	0xbe34bdd6	-0.17650542
50	0xbecba57e	-0.39774698
51	0xbe224d4a	-0.15849796
52	0xbeeb7afe	-0.45992273
53	0xbe6d6e66	-0.23186645
54	0x3e6f4f75	0.23370154
55	0x3d575741	0.052573446
56	0x3ebcc26c	0.36867082
57	0xbe983e29	-0.29734924
58	0x3ea54955	0.3228251
59	0xbdf508ec	-0.11964592
60	0x3f181531	0.59407336
61	0xbd8fbb48	-0.07018143
62	0xbece57fb	-0.403015
63	0xbe192611	-0.14955927
64	0x3e5a919c	0.21344608
65	0xbe97ce57	-0.29649612
66	0xbec73cab	-0.38913473
67	0xbe5f425c	-0.21802658
68	0xbf08dbac	-0.5346019
69	0xbe842961	-0.2581282
70	0xbf09b01d	-0.5378435
71	0xbdabed3f	-0.083948605
72	0x3eaa110b	0.33216128
73	0xbd149ab5	-0.036280353
74	0xbecf0c1d	-0.4043893
75	0x3b4288e0	0.0029683635
76	0x3e6eb186	0.23309907
77	0x3e2ae457	0.16688667
78	0x3e1c0f38	0.1524018
79	0xbccaea34	-0.02476988
80	0xbe9dbe19	-0.30809096
81	0xbe5e76b7	-0.21724974
82	0x3dfe624a	0.12421091
83	0x3e99fb29	0.30074432
84	0xbeb13854	-0.34613287
85	0xbea53b13	-0.32271633
86	0x3df7e711	0.12104619
87	0x3e551753	0.20809679
88	0xbf2fcd67	-0.68672794
89	0xbe85f592	-0.26163918
90	0x3ee0c898	0.4390304
91	0xbd909790	-0.07060158
92	0x3e1df476	0.15425286
93	0xbda76219	-0.081730075
94	0x3e72d041	0.23712255
95	0x3c97882e	0.018497553
96	0x3dfa875d	0.1223285
97	0xbe9cd268	-0.30629277
98	0x3e9acb30	0.30233145
99	0x3ec11bf9	0.37716654
100	0xbdf7ba1f	-0.12096047
101	0x3ceca950	0.028889328
102	0xbda591b7	-0.080844335
103	0x3d00a3f8	0.031406373
104	0x3e1073a9	0.14106621
105	0x3cc94710	0.024570018
106	0xbe079c3b	-0.13243191
107	0x3d55781c	0.0521165
108	0x3d7dedcc	0.06199436
109	0x3d1d2500	0.038365364
110	0x3dceb172	0.10092439
111	0xbce96f94	-0.028495587
112	0x3dcdbf5c	0.100462645
113	0xbdf63b6f	-0.12023055
114	0x3d87a66c	0.06623539
115	0xbb646d00	-0.0034855008
116	0xbc8fc168	-0.017548278
117	0xbd3c3ed4	-0.045958355
118	0x3dedf066	0.11618118
119	0xbd97704a	-0.07394464
120	0x3e054a35	0.13016589
121	0xbdc2378b	-0.0948325
122	0xbac37c80	-0.0014914423
123	0xbdac61ce	-0.08417092
124	0x3cd4add8	0.025961801
125	0x3c8b02c8	0.0169691
126	0xbd3caf82	-0.046065815
127	0xbcb2c718	-0.02182345
128	0xbd1570e2	-0.036484607
129	0xbd93d22c	-0.072178215
130	0x3d8dd030	0.06924474
131	0xbdcb0142	-0.09912349
132	0xbd4518bc	-0.04811929
133	0xbc86b330	-0.016442865
134	0x3d60a7a0	0.05484736
135	0x3e0ca1c9	0.13733591
136	0xbd59ac82	-0.053143032
137	0x3d9d9c6a	0.07695849
138	0x3c54b500	0.012982607
139	0x3db4fd00	0.088373184
140	0xbd466644	-0.04843737
141	0x3df6d2c2	0.120519176
142	0xbdb0e21f	-0.08636879
143	0x3dc3ff30	0.095701575
144	0x3b8f1b20	0.004367247
145	0x3d17450c	0.036931083
146	0xbdf09973	-0.11748018
147	0xbb9185a0	-0.004440978
148	0x3ddabd46	0.10680632
149	0xbde6d92b	-0.1127189
150	0x3e0f8945	0.14017208
151	0x3df2c12e	0.11853252
152	0x3e0b9aa7	0.13633214
153	0xbdb52c68	-0.088463604
154	0x3d907b34	0.07054749
155	0x3e03d045	0.12872417
156	0xbd077446	-0.03306987
157	0x3d81b2f4	0.06332961
158	0x3d612ce0	0.054974437
159	0xbdaa09ec	-0.08302674
160	0x3cd70d48	0.02625145
161	0xbd29fab8	-0.04149887
162	0xbdcadb25	-0.0990508
163	0xbd4396b6	-0.04775115
164	0x3dacb12c	0.0843223
165	0xbdb697df	-0.08915686
166	0xbdfd1c9e	-0.12358974
167	0xbd88d736	-0.06681673
168	0xbdaf164a	-0.08549173
169	0xbbc71c60	-0.0060763806
170	0xbe0af24e	-0.13568994
171	0xbddbbee2	-0.107297674
172	0xbd4dc1e0	-0.05023372
173	0xbcc3bd94	-0.023894109
174	0xbde28e1a	-0.1106226
175	0x3b45f540	0.0030205995
176	0x3de985fe	0.1140251
177	0x3c8484e0	0.016176641
178	0x3def8292	0.11694826
179	0xbd987b93	-0.07445445
180	0xbc8d46f4	-0.017245747
181	0x3da7d0f6	0.08194153
182	0x3ab05a00	0.0013454556
183	0x3d4b85e4	0.049688235
184	0x3cb003d0	0.021486193
185	0xbc9a6f84	-0.018852003
186	0x3e0f8fc1	0.14019682
187	0xbe09cbbd	-0.13456626
188	0xbe0b48e3	-0.13602023
189	0xbd09cfe4	-0.033645526
190	0x3dcf7026	0.101288125
191	0xbded5f91	-0.115904935
192	0x3de2692a	0.11055215
193	0xbd01c2fa	-0.031680085
194	0x3de7698a	0.11299427
195	0xbd9e4994	-0.07728878
196	0xbe0fd284	-0.14045149
197	0x3d980be2	0.074241415
198	0xbda50704	-0.08057979
199	0xbd89048e	-0.06690322
200	0xbebbbbb2	-0.36666638
201	0xbe9e3a87	-0.30904028
202	0xbe8395be	-0.25700182
203	0xbef54aed	-0.47908726
204	0x3ee48a2b	0.44636664
205	0x3e946a98	0.28987575
206	0xbe85cb9d	-0.26131907
207	0x3f8f8d39	1.1214973
208	0xbe92f77d	-0.28704444
209	0x3ecc365c	0.39885223
210	0xbee09678	-0.438648
211	0xbe942bf1	-0.28939775
212	0xbe8ab3cc	-0.270903
213	0xbefeed7e	-0.49790567
214	0xbec33a74	-0.38130534
215	0x3c54b181	0.012981773
216	0xbe887aa6	-0.26656073
217	0x3eed8cdc	0.4639653
218	0x3efcf278	0.4940374
219	0x3ecb5416	0.3971259
220	0x3e8d42a7	0.27589914
221	0x3da5999e	0.08085941
222	0xbe9d9a6b	-0.30781874
223	0xbe693386	-0.22773561
224	0xbea2a3d0	-0.31765604
225	0x3e8f45c0	0.27982903
226	0xbeadf4b3	-0.33975753
227	0x3de8f553	0.11374917
228	0xbed9c13f	-0.42530248
229	0x3ecfb9c8	0.40571427
230	0x3ee59087	0.44836828
231	0xbf2213bd	-0.6331137
232	0x3e946f32	0.28991085
233	0xbdfe874f	-0.12428152
234	0x3e8c72cb	0.2743133
235	0x3e599b45	0.21250637
236	0xbe998f36	-0.29992074
237	0xbe461dd4	-0.19347316
238	0x3e96bd82	0.29441458
239	0xbf293cae	-0.66108215
240	0xbed39dca	-0.4133132
241	0x3efcab1a	0.4934929
242	0xbf1d4aa2	-0.61442006
243	0xbef12f5f	-0.47106454
244	0xbefa107d	-0.48840705
245	0xbe6acdb4	-0.22930032
246	0xbed93c6d	-0.42428914
247	0xbf1f7364	-0.6228545
248	0xbe97b251	-0.29628232
249	0x3ec31575	0.38102308
250	0xbe794034	-0.24340898
251	0xbe2fb91e	-0.1716046
252	0xbec9fa49	-0.39448765
253	0xbf0cf608	-0.55062914
254	0x3ece5bf0	0.40304518
255	0xbee398b5	-0.44452444

lstm.weight_hh_l0 f4 [200, 50]
0	0xbd65749e	-0.056019418
1	0x3d5a5174	0.053300336
2	0xbd14a220	-0.036287427
3	0x3da1bb6a	0.078970745
4	0x3df1bbf6	0.11803429
5	0x3dc5cd6a	0.0965832
6	0xbe03ba56	-0.1286405
7	0x3e065167	0.1311699
8	0x3d4e368c	0.05034499
9	0x3d89d77a	0.06730552
10	0x3de97d5a	0.11400862
11	0x3da20c56	0.07912509
12	0xbd2862e4	-0.041109934
13	0x3d3c8870	0.046028554
14	0x3cc3f268	0.0239193
15	0xbb421340	-0.0029613525
16	0x3cc9ee48	0.024649754
17	0xbd6b7498	-0.05748424
18	0x3d81f520	0.06345582
19	0x3de147ca	0.11000021
20	0x3cb41cc8	0.02198638
21	0x3e05e23d	0.13074584
22	0x3dc6ee2e	0.09713398
23	0xbdbad9dc	-0.09123585
24	0xbda23524	-0.07920292
25	0x3d00b358	0.031421036
26	0xbc77f900	-0.01513505
27	0x3d22c864	0.03974189
28	0x3d209144	0.039201036
29	0xbb1ef540	-0.0024255067
30	0xbdcdd4b2	-0.10050334
31	0xbe0bb50d	-0.13643284
32	0x3ddb3644	0.1070371
33	0x3dde86ca	0.10865553
34	0xbe0234b0	-0.12715411
35	0xbd2241e4	-0.03961362
36	0xbe04cc1d	-0.12968488
37	0xbdc4e9be	-0.09614895
38	0x3c5c77a0	0.013456255
39	0xbdc9d3ec	-0.09854874
40	0x3df9b50e	0.121927366
41	0xbdc4a602	-0.09601976
42	0x3d1455a8	0.0362145
43	0xbde27700	-0.11057854
44	0xbd1c89f8	-0.038217515
45	0xbbb3ea20	-0.0054905564
46	0x3df04a5a	0.117329314
47	0xbda37ef4	-0.07983199
48	0x3e0a8aef	0.13529561
49	0x3da2670e	0.07929812
50	0xbda79698	-0.0818302
51	0x3d628e14	0.055311278
52	0xbda43926	-0.08018713
53	0xbd22971e	-0.039694898
54	0x3cca7410	0.024713546
55	0x3dafc260	0.08581996
56	0xbd28c064	-0.041199103
57	0x3d85e97a	0.06538673
58	0x3d6c6a20	0.057718396
59	0xbd461164	-0.04835643
60	0xbe05e58d	-0.13075848
61	0x3d26f12c	0.040757343
62	0x3dfae0de	0.12249921
63	0x3d30db20	0.043177724
64	0xbce41e0c	-0.027846359
65	0x3dd5f7cc	0.10447654
66	0x3defb582	0.11704542
67	0x3ca08b18	0.019597575
68	0x3d234260	0.039858222
69	0xbc155f80	-0.009117007
70	0x3d614a88	0.05500272
71	0x3d0d0d80	0.034436703
72	0xbe0e323a	-0.13886347
73	0x3d3b8704	0.045783058
74	0x3d6028a8	0.054726273
75	0xbdbac6be	-0.09119938
76	0x3d6a474c	0.0571969
77	0xbddb1ccc	-0.10698852
78	0xbd7b1654	-0.06130059
79	0x3c93d200	0.018044472
80	0xbdb9d442	-0.09073688
81	0x3e088499	0.13331832
82	0xbd02d5de	-0.03194224
83	0x3d65eb98	0.056132883
84	0xbd945813	-0.07243361
85	0x3af96f80	0.0019030422
86	0x3d5a88d8	0.05335316
87	0xbd64240e	-0.055698447
88	0x3e02ce45	0.12773998
89	0x3da9f678	0.08298963
90	0x3cf22198	0.029557034
91	0xbd6391a6	-0.055558823
92	0xbe078e8c	-0.13237971
93	0x3d1d7c28	0.038448483
94	0xbd7f2042	-0.062286623
95	0x3de0b4f6	0.109720156
96	0xbdbdcdaf	-0.09267747
97	0x3dec34fe	0.11533545
98	0x3d56b1e8	0.05241576
99	0x3e0ceadd	0.13761468
100	0x3dae6478	0.08515257
101	0xbdf77f87	-0.12084871
102	0xbdeacc7b	-0.11464783
103	0xbc821130	-0.015877336
104	0x3dfabe92	0.1224338
105	0x3cb339c8	0.021878138
106	0xbd82059f	-0.063487284
107	0x3dd25150	0.102694154
108	0xbd2d9dc4	-0.042386785
109	0xbbfc65a0	-0.0077025443
110	0xbe0e51d3	-0.13898401
111	0x3dd773be	0.10520123
112	0x3d648190	0.055787623
113	0xbc6643d0	-0.014054254
114	0xbcb8ea78	-0.02257274
115	0x3df225ca	0.11823614
116	0xbcc778e4	-0.024349637
117	0x3dc14c4e	0.09438382
118	0xbda4c51d	-0.08045409
119	0xbbaf1560	-0.0053431243
120	0xbda9cb92	-0.08290781
121	0xbca364e0	-0.019945562
122	0x3d762a6c	0.06009905
123	0xbc006910	-0.007837549
124	0xbcb5d380	-0.022195578
125	0xbd4ffbc8	-0.050777227
126	0xbcc4dcd0	-0.024031073
127	0x3ba0e500	0.0049101114
128	0xbd997c6c	-0.07494435
129	0xbd20d480	-0.039265156
130	0xbd8702d5	-0.06592337
131	0x3d6186b4	0.055060104
132	0xbc837f90	-0.016052037
133	0x3c999bd0	0.018751055
134	0x3dd1202c	0.102112144
135	0x3cfc2c58	0.030782863
136	0x3e05f501	0.13081743
137	0xbd6197d2	-0.055076428
138	0xbdfafdfa	-0.122554734
139	0xbd2e13da	-0.0424994
140	0xbdfd62ec	-0.123723835
141	0xbde7e430	-0.1132282
142	0x3dd7428e	0.10510741
143	0xbdffa8cc	-0.12483367
144	0x3dfea4be	0.12433766
145	0xbd0c0582	-0.03418494
146	0xbd92825a	-0.07153769
147	0xbde6a539	-0.112619825
148	0xbcaaa8d8	-0.020832464
149	0xbdb672f1	-0.08908642
150	0xbd1fdeb4	-0.039030746
151	0x3d8a5ab2	0.0675558
152	0x3cfde5b8	0.030993327
153	0x3dc278d4	0.094957024
154	0xbd62412c	-0.055237934
155	0xbd6f4ef0	-0.05842489
156	0x3dd79bd6	0.1052777
157	0xbdc22280	-0.094792366
158	0xbd77fd88	-0.06054452
159	0x3d3a7f10	0.045531332
160	0xbe0b72d1	-0.13618018
161	0x3dbb2eb0	0.09139764
162	0x3d89787e	0.06712435
163	0xbda03d56	-0.07824199
164	0xbe00a308	-0.12562191
165	0x3e10481f	0.14090012
166	0xbb8b4180	-0.0042497516
167	0xbb96f460	-0.0046067685
168	0x3d417f08	0.047240287
169	0xbe07568e	-0.13216612
170	0xbafea480	-0.0019427687
171	0x3ded8796	0.115981266
172	0xbdee6372	-0.116400614
173	0xbd288296	-0.04114016
174	0x3da74e5c	0.08169243
175	0xbd42c618	-0.0475522
176	0x3e0f0771	0.13967682
177	0xbd36c7ee	-0.04462426
178	0x3d1a8bac	0.037730858
179	0xbdf21cdd	-0.118219115
180	0x3d892c2a	0.06697877
181	0xbe0bda34	-0.13657457
182	0xbd8ef807	-0.06980901
183	0xbc2da6e0	-0.010598868
184	0x3d703a04	0.058649078
185	0x3b908000	0.00440979
186	0x3dbe6c7e	0.09298037
187	0xbaf93380	-0.001901254
188	0xbd9ccd1f	-0.07656311
189	0x3e092c2d	0.13395758
190	0x3c6e5c80	0.014548421
191	0x3d7ee660	0.06223142
192	0xbdfe293f	-0.12410211
193	0x3dc5a1aa	0.096499756
194	0xbdfad5fd	-0.12247846
195	0x3dbe6528	0.09296638
196	0xbdf88b64	-0.12135962
197	0xbe0e6de6	-0.1390911
198	0xbd1786d6	-0.036993824
199	0x3c18aad0	0.009318069
200	0x3e00437d	0.12525745
201	0x3dd9c63a	0.10633512
202	0xbde3f555	-0.11130778
203	0x3d9fb10a	0.077974394
204	0x3db74d0e	0.08950244
205	0x3da42940	0.0801568
206	0xbdb9f418	-0.0907976
207	0x3d8a7ab6	0.067616865
208	0xbdaf5cce	-0.08562623
209	0x3e098ed7	0.13433395
210	0x3cf18628	0.029482916
211	0x3da71b54	0.08159509
212	0xbdf3d4bf	-0.119058125
213	0x3e06d1fb	0.13166039
214	0x3caa7b50	0.020810753
215	0xbdd28d6b	-0.102808796
216	0xbcc159a8	-0.023602322
217	0xbd826fef	-0.06369006
218	0xbddb9151	-0.10721076
219	0xbcbbe528	-0.022936419
220	0xbdf3f1da	-0.11911364
221	0xbdb5849f	-0.08863186
222	0xbc6e7c20	-0.014555961
223	0xbbce2900	-0.0062915087
224	0x3cbebc08	0.02328302
225	0x3e08e539	0.13368692
226	0xbc274900	-0.010210276
227	0xbdac9940	-0.084276676
228	0x3e072a19	0.13199653
229	0x3de56b0a	0.11202057
230	0xbdcd3764	-0.100203305
231	0xbdf47052	-0.11935486
232	0x3de81546	0.113321826
233	0xbd894bd9	-0.0670392
234	0xbd3adb7a	-0.045619465
235	0x3cfea520	0.031084597
236	0xbb62e080	-0.0034618676
237	0xbb9efcc0	-0.0048519075
238	0x3d8a74ba	0.06760545
239	0xbd8b41c1	-0.06799651
240	0xbdbe661c	-0.092968196
241	0x3dbac34a	0.0911928
242	0x3ca47e38	0.020079717
243	0x3df5c98e	0.12001334
244	0x3ddb6952	0.10713448
245	0x3cc43310	0.02395013
246	0xbd8681e4	-0.065677434
247	0x3cf6c190	0.030121595
248	0xbdc42150	-0.09576666
249	0xbd078214	-0.033083037
250	0xbd0eda4a	-0.034876145
251	0xbe0a2f79	-0.13494672
252	0x3e06c31d	0.13160367
253	0x3d39ef64	0.045394316
254	0x3dfeefaa	0.12448056
255	0x3e05d141	0.13068105

lstm.bias_ih_l0 f4 [200]
0	0x3ea8cdde	0.32969564
1	0x3f0198c0	0.50623703
2	0x3e86ae90	0.26305056
3	0x3f7d551d	0.98958
4	0x3ed4cfa3	0.41564664
5	0x3ec0df86	0.37670535
6	0x3ef5f9ce	0.48042148
7	0x3ebcd567	0.36881563
8	0x3ec3e936	0.38263863
9	0x3e97d417	0.29654
10	0x3ed069f5	0.4070584
11	0x3e8c5bf6	0.2741391
12	0x3f059360	0.52178
13	0x3e748d22	0.23881963
14	0x3ec7ce99	0.3902481
15	0x3f23f795	0.64049655
16	0x3e90515f	0.2818708
17	0x3e9820a4	0.29712403
18	0x3eb24228	0.34816098
19	0x3f24e106	0.6440586
20	0x3f04cedc	0.5187814
21	0x3ecfbe84	0.4057504
22	0x3f102745	0.5630992
23	0x3ed6377f	0.41839215
24	0x3e60440b	0.21900956
25	0x3f086744	0.5328257
26	0x3f041e94	0.5160916
27	0x3ebedc19	0.37277296
28	0x3f041372	0.5159217
29	0x3ef1b7b5	0.4721047
30	0x3ef82416	0.4846503
31	0x3ed92460	0.42410564
32	0x3f3223c0	0.695858
33	0x3f2fcbcf	0.6867036
34	0x3eb750a0	0.358037
35	0x3ef412c0	0.47670555
36	0x3f01fd84	0.5077746
37	0x3f33941a	0.7014786
38	0x3f80e60d	1.0070206
39	0x3f46584e	0.7747849
40	0x3f0c1dd5	0.5473302
41	0x3f07fd62	0.53121006
42	0x3edf4b16	0.43611974
43	0x3f070e88	0.5275655
44	0x3f0e6b84	0.55632806
45	0x3e70a63d	0.23500915
46	0x3efb9b88	0.49142098
47	0x3e9431c6	0.28944224
48	0x3f2b98a2	0.67029774
49	0x3f076543	0.5288889
50	0xbd759f08	-0.059966117
51	0x3df213c6	0.11820178
52	0xbdae441c	-0.085090846
53	0xbde35d76	-0.11101811
54	0xbd5f0302	-0.054446228
55	0x3d3b50c0	0.045731306
56	0x3e0a2fc1	0.13494779
57	0xbd6e6b9a	-0.058208086
58	0x3d8a3f90	0.06750405
59	0x3c246100	0.010032892
60	0xbbb95c20	-0.005656734
61	0x3db1c096	0.08679311
62	0xbd471f7e	-0.048614018
63	0x3dcdae50	0.10043013
64	0xbd87c649	-0.06629617
65	0xbbf37700	-0.0074299574
66	0x3df4e6ea	0.11958106
67	0x3e0e8f9b	0.13921969
68	0x3deaefaa	0.114714935
69	0xbd850e24	-0.06496838
70	0x3d3155b4	0.043294623
71	0xbc607f60	-0.013702244
72	0xbd7d1cde	-0.061795108
73	0x3cf79590	0.030222684
74	0x3d83b732	0.06431426
75	0xbd5dc976	-0.054147206
76	0xbcdbd1b8	-0.0268334
77	0x3dafd104	0.085847884
78	0xbd9c55db	-0.07633563
79	0x3dcef500	0.10105324
80	0x3c0081d0	0.00784345
81	0xbd795386	-0.06087067
82	0x3de0ce46	0.109768435
83	0x3e05ca27	0.13065396
84	0xbc09ac00	-0.008402824
85	0xbcf26b04	-0.029592045
86	0x3e061a7f	0.13096045
87	0xbd8d5783	-0.06901457
88	0xbe0ae203	-0.13562779
89	0xbd2b3e18	-0.041807264
90	0xbe10b7c3	-0.141326
91	0x3d1ea6ac	0.03873317
92	0xbdf89907	-0.12138563
93	0x3dc6e9a2	0.09712531
94	0xbc8783dc	-0.016542368
95	0xbc79a360	-0.015236706
96	0xbdb5d4a6	-0.0887845
97	0xbd0fba56	-0.035089813
98	0xbd021bb8	-0.031764716
99	0xbd8e94a0	-0.06961942
100	0x3e26216e	0.1622369
101	0x3e588dc3	0.21147828
102	0x3d653108	0.055954963
103	0xbe06568e	-0.13118955
104	0xbe5bb4c3	-0.21455674
105	0x3cbb9dfd	0.022902483
106	0x3deaa4cf	0.11457216
107	0x3eede157	0.46460983
108	0xbe8b13f0	-0.2716365
109	0x3ceb6c56	0.028738182
110	0xbeb495ca	-0.3527053
111	0x3e17e2b1	0.1483257
112	0xbea007ed	-0.31256047
113	0xbe5e2b7f	-0.2169628
114	0x3de1c6ef	0.11024272
115	0x3c797d97	0.015227697
116	0x3e82c0d0	0.2553773
117	0xbe9198de	-0.2843694
118	0x3ee8aab0	0.45442724
119	0x3daedacf	0.08537828
120	0x3d9b15f3	0.07572546
121	0xbe06498e	-0.13113996
122	0x3e9289b6	0.2862069
123	0x3d54a60f	0.05191618
124	0xbe72e417	-0.23719822
125	0x3efac5fe	0.4897918
126	0xbd62a664	-0.055334464
127	0xbd47e164	-0.048798934
128	0xbef1a552	-0.47196442
129	0xbeb35166	-0.3502304
130	0x3e94955f	0.2902021
131	0x3e80b260	0.2513609
132	0xbe7b63b2	-0.2454975
133	0xbc063767	-0.00819192
134	0x3d3d110a	0.046158828
135	0x3f0851ba	0.53249705
136	0x3ef51651	0.4786859
137	0xbc9bb2ee	-0.019006219
138	0x3e3d04a9	0.18458809
139	0x3e14c48f	0.14528106
140	0xbeff466f	-0.49858424
141	0xbe0dfe2c	-0.1386649
142	0xbeed179e	-0.4630708
143	0xbde2b39f	-0.11069416
144	0xbe194fc9	-0.14971842
145	0x3ec93034	0.3929459
146	0x3e217c99	0.15770186
147	0x3ea9d817	0.33172676
148	0xbe837b34	-0.25679934
149	0x3ee494c8	0.4464476
150	0x3eac094c	0.33600843
151	0x3f0cea05	0.55044585
152	0x3e3ec380	0.18629265
153	0x3f807419	1.003543
154	0x3ef545dc	0.4790486
155	0x3eb052f2	0.34438282
156	0x3ef079f2	0.46968037
157	0x3eb2852b	0.34867224
158	0x3f10e750	0.56602955
159	0x3ebe1ebc	0.37132823
160	0x3f1e035f	0.61723894
161	0x3e3a67f8	0.18203723
162	0x3ea5e2fa	0.32399732
163	0x3ee51299	0.4474075
164	0x3ef669cc	0.48127592
165	0x3f2eaa9b	0.68229073
166	0x3eb724b6	0.35770196
167	0x3ed2d5a8	0.41178632
168	0x3f0a747d	0.54083997
169	0x3efa5577	0.4889333
170	0x3ef70ac9	0.48250416
171	0x3eb6a214	0.3567053
172	0x3ea07cf2	0.31345326
173	0x3ef07efb	0.46971878
174	0x3ed76286	0.42067355
175	0x3f0d5eea	0.5522295
176	0x3ee6a23d	0.45045653
177	0x3ed02f1a	0.40660936
178	0x3ec9d44a	0.39419776
179	0x3f088e65	0.53342277
180	0x3ebf5bc1	0.3737469
181	0x3eb0a47f	0.345005
182	0x3eed2806	0.46319598
183	0x3f0fc226	0.5615562
184	0x3ed27758	0.41106677
185	0x3ed644bd	0.41849318
186	0x3ebdd639	0.370775
187	0x3f1f6cfd	0.6227568
188	0x3f8fe77e	1.1242521
189	0x3f4ec0a2	0.80762684
190	0x3ea67a22	0.32515055
191	0x3f308838	0.68957853
192	0x3ec50e1f	0.38487336
193	0x3f199e7b	0.60007447
194	0x3ecf9f38	0.40551162
195	0x3e3c3170	0.18378234
196	0x3ec7ca88	0.39021707
197	0x3ec8d7cf	0.3922715
198	0x3f394df9	0.723846
199	0x3f29f2bb	0.66386

lstm.bias_hh_l0 f4 [200]
0	0x3e3e8fce	0.18609545
1	0x3ef3544b	0.47525248
2	0x3e329384	0.17439085
3	0x3f6acc07	0.9171757
4	0x3e9704c9	0.29495838
5	0x3ebb704b	0.3660911
6	0x3ef88b0d	0.48543587
7	0x3e98193e	0.29706758
8	0x3ee34de1	0.44395354
9	0x3ef664b2	0.481237
10	0x3ec65932	0.38739926
11	0x3ea35492	0.3190046
12	0x3f015111	0.5051432
13	0x3e89cb88	0.26913095
14	0x3f0156f9	0.50523335
15	0x3f0eec9d	0.55829793
16	0x3ee110cb	0.43958125
17	0x3e941e1d	0.28929225
18	0x3ef78b0b	0.4834827
19	0x3f3a8165	0.7285369
20	0x3f154369	0.58305985
21	0x3ee0948c	0.43863332
22	0x3edb6c39	0.42856005
23	0x3ed6c853	0.4194971
24	0x3eaadadd	0.33370104
25	0x3f1e86a8	0.6192422
26	0x3f1bf4bd	0.60920316
27	0x3ec1cd4c	0.37851942
28	0x3f02534f	0.5090837
29	0x3e958994	0.29206526
30	0x3eca5a68	0.395221
31	0x3e2c6088	0.16833699
32	0x3ee7ea2a	0.4529584
33	0x3f306cbf	0.68915933
34	0x3efc2bee	0.49252266
35	0x3f181f8d	0.5942314
36	0x3ed7df3b	0.421625
37	0x3ef47e3a	0.47752553
38	0x3f95b4f5	1.1695849
39	0x3f42799a	0.759668
40	0x3eb44227	0.3520672
41	0x3f26f6db	0.6522042
42	0x3e8dccce	0.27695316
43	0x3f116bf7	0.56805366
44	0x3ef7fe2f	0.48436114
45	0x3ecf9bfb	0.4054869
46	0x3ece14ab	0.40250143
47	0x3e780b18	0.24222982
48	0x3f2cfe05	0.67575103
49	0x3eef69b9	0.46760347
50	0xbdcaad65	-0.09896354
51	0x3df3957e	0.11893748
52	0xbd945ac7	-0.07243877
53	0xbc0d2f30	-0.008617207
54	0x3d0151a0	0.031571984
55	0x3d611b44	0.054957643
56	0x3d1aef18	0.037825674
57	0x3dcfcc7c	0.10146424
58	0xbdb9952e	-0.09061657
59	0x3d326a64	0.043558493
60	0xbc046c90	-0.008082524
61	0xbd073cf0	-0.0330171
62	0xbd8e1959	-0.069384284
63	0xbcc286e0	-0.023745954
64	0xbdf1db0f	-0.1180936
65	0xbd0055fc	-0.031332
66	0x3d6740c0	0.056458235
67	0xbd2d1e46	-0.0422652
68	0x3d1d3168	0.038377196
69	0x3c447450	0.011990622
70	0x3db372ce	0.08762132
71	0xbdd17e82	-0.102292076
72	0xbe080598	-0.13283384
73	0x3d96f3f4	0.07370749
74	0x3c9b0be0	0.01892656
75	0x3dcf185e	0.101120695
76	0x3d84e9ec	0.064899296
77	0xbdf48f46	-0.1194139
78	0xbdef4eaa	-0.11684926
79	0x3d0bf7b4	0.034171775
80	0xbdeca9e0	-0.115558386
81	0xbd1b723e	-0.037950747
82	0x3dd739a8	0.10509044
83	0x3d7cf974	0.061761335
84	0xbafb0180	-0.0019150227
85	0xbde5f6e2	-0.1122873
86	0xbdadb444	-0.084816486
87	0xbc3a3cb0	-0.011367008
88	0x3e09fbf9	0.13475026
89	0xbd9e71de	-0.07736562
90	0x3d03c9a4	0.03217472
91	0xbba98b40	-0.0051740706
92	0x3d27ee48	0.040998727
93	0x3dad7dba	0.08471246
94	0xbd8d0527	-0.06885748
95	0x3d98964a	0.0745054
96	0xbae94d00	-0.0017799437
97	0x3c9e6cb8	0.01933895
98	0xbddab429	-0.10678894
99	0x3dd27f76	0.102782175
100	0xbac406ca	-0.0014955637
101	0x3ddf205d	0.10894845
102	0xbd020db7	-0.03175136
103	0xbe27da5c	-0.16391891
104	0xbe99a872	-0.30011326
105	0xbe158fb7	-0.14605604
106	0x3d859332	0.06522216
107	0x3eebd586	0.46061343
108	0xbdc38097	-0.09546011
109	0x3e0b52a4	0.13605744
110	0xbf0bf403	-0.5466921
111	0x3e88820c	0.26661718
112	0xbe8b8517	-0.27249977
113	0xbeb71c84	-0.35763943
114	0xbdb6f09e	-0.08932613
115	0xbe3ea7ad	-0.1861865
116	0x3eb8e66c	0.36113298
117	0xbe6893b9	-0.22712602
118	0x3ed4a9e9	0.4153588
119	0x3e5481d0	0.20752645
120	0xbbccfcdc	-0.006255729
121	0xbe5af54f	-0.2138264
122	0x3ecb4518	0.39701152
123	0xbe3f6fb9	-0.18694963
124	0xbe242c8d	-0.1603262
125	0x3edbc514	0.42923796
126	0x3c1e7ef3	0.009673822
127	0xbd872f78	-0.06600851
128	0xbede071e	-0.43364805
129	0xbebb1d8d	-0.36545983
130	0x3da4028d	0.08008299
131	0x3e9cbf82	0.3061486
132	0xbe997c0f	-0.29977462
133	0xbe4675ce	-0.19380876
134	0xbe10584e	-0.14096186
135	0x3f252c29	0.6452051
136	0x3ec420f8	0.38306403
137	0x3d837d7e	0.0642042
138	0x3ead427e	0.33839792
139	0xbd8c1288	-0.06839472
140	0xbe999a07	-0.30000326
141	0xbd76c230	-0.060243785
142	0xbf091771	-0.53551394
143	0xbe342c79	-0.1759509
144	0xbe44873d	-0.19192214
145	0x3e1b361e	0.15157363
146	0x3e25a1b7	0.1617497
147	0x3e8f44af	0.2798209
148	0xbdf85af4	-0.12126723
149	0x3f06cce3	0.5265638
150	0x3e2b3d0c	0.16722506
151	0x3eb520c9	0.35376576
152	0x3ea6a754	0.32549536
153	0x3f8f6177	1.1201619
154	0x3f0a3556	0.53987634
155	0x3ed81da9	0.4221013
156	0x3eff4a62	0.49861437
157	0x3e8d2620	0.2756815
158	0x3eeec03b	0.46631035
159	0x3eb10088	0.34570718
160	0x3f0fddf8	0.5619807
161	0x3e234e27	0.15947782
162	0x3ed5d50c	0.41764104
163	0x3e71bc14	0.23606902
164	0x3ec4bff4	0.384277
165	0x3f03ed55	0.51534015
166	0x3e62c41b	0.22145121
167	0x3ea2a0aa	0.31763202
168	0x3eaa348f	0.33243224
169	0x3f2a125d	0.6643427
170	0x3edc7b18	0.43062663
171	0x3ea0fe91	0.3144422
172	0x3eb7e4b1	0.35916665
173	0x3f10ef60	0.5661526
174	0x3ee9aaac	0.45638025
175	0x3eb51caf	0.35373446
176	0x3eb93918	0.36176372
177	0x3ea7561c	0.32682884
178	0x3eb997ae	0.36248535
179	0x3eebbadf	0.4604101
180	0x3e96efd3	0.29479846
181	0x3e491cfd	0.19639964
182	0x3ee788b5	0.45221487
183	0x3f3acd6d	0.72969705
184	0x3f10ec06	0.56610143
185	0x3efa17a4	0.4884616
186	0x3ed91a5b	0.4240292
187	0x3f04677b	0.517204
188	0x3f7b6340	0.9819832
189	0x3f4084c3	0.7520258
190	0x3e9953d0	0.29946756
191	0x3f113bff	0.5673217
192	0x3ebc385b	0.36761746
193	0x3f252b8d	0.6451958
194	0x3ed6bff0	0.41943312
195	0x3e9bc4c5	0.3042356
196	0x3ea894a0	0.32925892
197	0x3ed6ce25	0.4195415
198	0x3f268a11	0.6505442
199	0x3f1f0d81	0.6212998

lstm.weight_ih_l1 f4 [200, 50]
0	0x3ebfa6df	0.37432
1	0x3ee57096	0.4481246
2	0xbe9d8c76	-0.30771226
3	0xbde676ff	-0.112531655
4	0xbefa3c1f	-0.48873994
5	0x3f0c4bf9	0.54803425
6	0x3eb10241	0.34572032
7	0x3e967c59	0.29391745
8	0xbe9e7723	-0.3095027
9	0xbf16fa3a	-0.58975565
10	0xbe8f956f	-0.28043696
11	0x3eaae2bd	0.33376113
12	0xbecda803	-0.40167245
13	0xbec67d06	-0.3876726
14	0xbea04bbf	-0.3130779
15	0xbdc3349f	-0.09531521
16	0x3ee8d45b	0.45474514
17	0xbec0d584	-0.376629
18	0x3ed5156d	0.4161791
19	0x3dd55a3b	0.10417601
20	0x3d43eac4	0.04783131
21	0x3eebacf6	0.46030396
22	0x3e8f262b	0.27958807
23	0x3ed2223a	0.41041738
24	0xbed5e264	-0.41774285
25	0x3e827b0e	0.25484508
26	0x3ec427ae	0.38311523
27	0x3e033eda	0.12816945
28	0xbe94ca43	-0.29060563
29	0xbed4bf79	-0.41552332
30	0xbe4a6697	-0.19765697
31	0x3e916e5a	0.28404504
32	0xbe6f66a4	-0.23378998
33	0xbed0f61a	-0.4081276
34	0xbf06bbea	-0.52630484
35	0x3eaec4fe	0.34134668
36	0x3f0f4997	0.55971664
37	0xbf042e3b	-0.5163304
38	0x3e832df1	0.25620988
39	0x3ce014c1	0.027353646
40	0xbe857f2c	-0.26073587
41	0xbd172294	-0.03689821
42	0xbe09e99a	-0.13468018
43	0x3d5a3d51	0.053281132
44	0x3eea3481	0.45743182
45	0x3ec82772	0.39092594
46	0x3e9475c1	0.2899609
47	0x3ec1f75c	0.37884033
48	0xbe11ae03	-0.14226536
49	0x3ebd8d29	0.3702176
50	0x3dfc0f3a	0.12307592
51	0x3ec74b2c	0.3892454
52	0xbe43db46	-0.19126615
53	0xbddec2d1	-0.10877002
54	0xbf13d63a	-0.5774876
55	0xbe237ddc	-0.1596598
56	0x3e87c853	0.26520023
57	0x3e8faa49	0.28059605
58	0xbf2e0def	-0.6799001
59	0xbe209bb5	-0.15684398
60	0xbf020421	-0.5078755
61	0x3ee8e437	0.45486614
62	0xbf3e6f57	-0.7438864
63	0xbeab0f22	-0.33409983
64	0xbec8bc6a	-0.3920625
65	0xbd0a5364	-0.033770934
66	0x3f20c9f0	0.6280813
67	0xbeb4738b	-0.35244402
68	0x3ef87658	0.4852779
69	0x3f2e6c73	0.6813423
70	0xbe017691	-0.12642886
71	0x3d814d81	0.06313611
72	0x3e33bbe7	0.17552148
73	0x3dcc855f	0.09986376
74	0xbf285d3a	-0.6576725
75	0x3f326b6b	0.69695157
76	0x3e047fb8	0.12939346
77	0x3e9d7af2	0.30757862
78	0xbf0dafa0	-0.5534611
79	0xbf2cccb4	-0.6749985
80	0xbe49af24	-0.19695717
81	0x3ec04a23	0.37556562
82	0xbf2e3081	-0.6804276
83	0xbe4f5c1b	-0.20249979
84	0xbe2fdbcc	-0.1717369
85	0x3f1a4543	0.60261935
86	0x3f10a53b	0.5650212
87	0xbd548ee2	-0.051894076
88	0xbeec3e22	-0.46141154
89	0x3e931f72	0.28734928
90	0xbec13305	-0.37734237
91	0x3df4d101	0.11953927
92	0xbf211f24	-0.6293814
93	0x3e33d1dd	0.17560525
94	0x3d570c33	0.05250187
95	0x3eebd0f5	0.4605786
96	0x3f05ee2b	0.5231654
97	0x3eb86e02	0.3602143
98	0xbf206ae0	-0.6266308
99	0x3f4739e9	0.7782274
100	0x3f28c459	0.659246
101	0x3efcf7c4	0.4940778
102	0xbf03edf5	-0.5153497
103	0xbe087bd6	-0.1332849
104	0xbe127f27	-0.14306317
105	0x3f12d5dc	0.57357574
106	0x3f0fcd67	0.56172794
107	0x3e7c2c0b	0.24626176
108	0xbd238e9e	-0.039930932
109	0xbf1c9e7a	-0.61179316
110	0xbed1b8ef	-0.40961406
111	0x3eae5103	0.34046182
112	0xbe031237	-0.12799917
113	0x3e150291	0.1455176
114	0xbdb727f8	-0.0894317
115	0x3e47db2e	0.19517204
116	0x3deb70e9	0.11496145
117	0xbf027190	-0.5095453
118	0x3eb5304e	0.35388416
119	0x3eb35b42	0.35030562
120	0xbc3107ae	-0.010805054
121	0x3f1991eb	0.5998828
122	0x3edcf74c	0.43157423
123	0x3ef2879e	0.47369093
124	0xbe1c7096	-0.15277323
125	0x3e096a7c	0.13419527
126	0x3eeee83f	0.46661565
127	0xbbca5fb6	-0.0061759604
128	0xbda6d6f5	-0.081464685
129	0xbe875589	-0.26432446
130	0xbb93bfa3	-0.004508929
131	0x3e839886	0.25702304
132	0xbe6b2e5d	-0.22966905
133	0xbf2796c5	-0.6546443
134	0xbf12a372	-0.5728065
135	0x3ea08b45	0.31356254
136	0xbd37198c	-0.044702098
137	0xbf2b12a1	-0.668253
138	0x3f221111	0.6330729
139	0x3e68fc14	0.2275241
140	0xbe2b31f0	-0.16718268
141	0x3e82b84b	0.2553123
142	0xbe8adc13	-0.27121028
143	0x3debe72b	0.11518701
144	0x3f3a671a	0.7281357
145	0xbd2ac443	-0.041691076
146	0x3e65bc92	0.22435215
147	0xbde0cf61	-0.109770544
148	0xbe8ac30f	-0.27101943
149	0xbdd0511f	-0.101717226
150	0xbdefa129	-0.11700661
151	0x3d537b0b	0.051631015
152	0xbe25e348	-0.16199982
153	0xbe19113c	-0.1494798
154	0xbea1f090	-0.31628847
155	0xbe24dc53	-0.16099672
156	0x3d8fe0c6	0.07025294
157	0x3ded5e90	0.11590302
158	0xbd94525c	-0.07242271
159	0xbb3bbefd	-0.0028647773
160	0xbe05d9c2	-0.1307135
161	0x3dadad57	0.084803276
162	0xbdf17ca2	-0.1179135
163	0xbd6ad678	-0.05733344
164	0xbe92cd34	-0.28672183
165	0x3e70df05	0.23522575
166	0x3e87fd81	0.26560596
167	0xbdde66f0	-0.108594775
168	0x3e6427ba	0.2228078
169	0x3e0f69c1	0.14005186
170	0xbd2a004c	-0.04150419
171	0x3e2ba504	0.16762167
172	0xbe32dab7	-0.17466246
173	0xbd0dd7b0	-0.034629524
174	0xbe494122	-0.19653752
175	0x3d0d0f29	0.034438286
176	0xbd85ec47	-0.06539207
177	0x3e4cd2e1	0.20002319
178	0xbd843bcf	-0.0645672
179	0xbd657b20	-0.056025624
180	0xbcc31290	-0.023812562
181	0x3db9c963	0.090716146
182	0xbe0587e6	-0.13040122
183	0xbe5f0dcb	-0.21782605
184	0xbd75dee4	-0.06002702
185	0x3cac80e9	0.021057563
186	0x3e9fcb9c	0.3121003
187	0xbde1d344	-0.11026624
188	0xbd2975ec	-0.041372225
189	0x3e0bc0d5	0.13647778
190	0x3e892468	0.26785588
191	0x3e901da1	0.28147605
192	0xbe83ea85	-0.25764862
193	0x3e8be17f	0.27320477
194	0x3ddee9a7	0.108844094
195	0x3e4194f4	0.18904477
196	0x3e02d125	0.12775095
197	0x3e741c5a	0.2383894
198	0xbdaff4b4	-0.08591595
199	0x3e20632f	0.15662836
200	0x3dd08c40	0.101830006
201	0x3e7182c8	0.23585045
202	0xbe93fe0b	-0.28904757
203	0xbe0a666b	-0.13515632
204	0xbdcc46a7	-0.09974413
205	0x3e6a1442	0.2285929
206	0x3e1c1692	0.15242985
207	0x3e1aa3d9	0.15101565
208	0xbd85aa1f	-0.06526589
209	0xbe34b748	-0.17648041
210	0xbeb674d3	-0.35636005
211	0x3eb7ef03	0.3592454
212	0xbd58469e	-0.05280172
213	0xbe0e82da	-0.13917103
214	0xbe9db2b0	-0.3080039
215	0x3d67fa2a	0.05663506
216	0x3c135d16	0.008994361
217	0xbdd89572	-0.105753794
218	0x3e0d5aca	0.13804165
219	0x3eb952e8	0.36196065
220	0xbe729713	-0.23690443
221	0x3ea79fde	0.32739156
222	0x3d6118fe	0.054955475
223	0x3ea64d7d	0.32480994
224	0xbdfbcb39	-0.12294621
225	0x3d938f26	0.07205038
226	0x3e8b95b1	0.27262643
227	0x3e7d3692	0.24727848
228	0xbe86c9c4	-0.2632581
229	0xbe375287	-0.17902575
230	0xbe7350da	-0.23761311
231	0x3e54e2a3	0.2078958
232	0xbea4f653	-0.3221918
233	0xbe98a794	-0.29815352
234	0xbe96c18c	-0.2944454
235	0x3e12fa23	0.14353232
236	0x3d1d60de	0.038422458
237	0xbe58d55d	-0.21175142
238	0xbe6cd860	-0.23129416
239	0x3e8feb4d	0.28109208
240	0x3e12ae63	0.14324336
241	0x3e8ef969	0.2792466
242	0xbde9cbe3	-0.114158414
243	0x3c96cd7c	0.01840853
244	0x3e6fffb8	0.23437393
245	0x3cab38e8	0.020901158
246	0x3e801f5c	0.25023925
247	0x3cecbe46	0.028899323
248	0xbe56b8fa	-0.20969
249	0x3e1c0564	0.15236431
250	0x3ec4da5d	0.38447848
251	0x3e1e9f2b	0.15490405
252	0xbe84790a	-0.25873595
253	0xbd20dcb5	-0.039272983
254	0xbe15dfcc	-0.14636153
255	0x3e778e37	0.24175344

lstm.weight_hh_l1 f4 [200, 50]
0	0x3dfe4a7a	0.12416549
1	0x3df8bbae	0.12145172
2	0xbd94ea86	-0.07271294
3	0x3d442f6c	0.047896788
4	0x3c137030	0.008998916
5	0xbddf9d95	-0.10918728
6	0x3bd65420	0.00654079
7	0xbd355b86	-0.044276737
8	0x3db4a2f0	0.0882014
9	0x3d9c12c0	0.07620764
10	0xbdae0fc9	-0.084991045
11	0xbe000481	-0.12501718
12	0x3dbe317a	0.09286781
13	0xbcf0f824	-0.029415198
14	0x3d984872	0.07435693
15	0x3c82dcd8	0.015974447
16	0x3cb25d08	0.021772876
17	0xbe05bcfc	-0.13060373
18	0xbe0d8757	-0.1382116
19	0xbd6781ee	-0.056520395
20	0xbda31b42	-0.079641834
21	0x3cd809f8	0.026371941
22	0x3df79e76	0.12090771
23	0xbc52ca10	-0.012865558
24	0x3dc9b8b0	0.098496795
25	0xbdd32d0c	-0.103113264
26	0x3dfe0fa2	0.124053255
27	0xbcbb40c8	-0.022858039
28	0x3d8351c4	0.0641208
29	0x3dea072a	0.11427148
30	0x3e0f91bd	0.14020438
31	0xbdcf80f0	-0.10132015
32	0xbbf51cc0	-0.007480234
33	0x3ddd91e8	0.10818845
34	0x3d50b954	0.050957993
35	0x3e0c587b	0.13705628
36	0xbbeafa60	-0.0071709603
37	0x3c383cc0	0.011244953
38	0x3d64ec18	0.05588922
39	0x3dffc53e	0.12488793
40	0xbd23bd14	-0.03997524
41	0x3ddbe9f6	0.10737984
42	0xbd4a4b84	-0.049388424
43	0xbd423390	-0.047412455
44	0x3de0af06	0.10970883
45	0xbc527680	-0.012845635
46	0xbd1ba690	-0.038000643
47	0x3dd605ec	0.10450348
48	0xbd1e69c8	-0.0386751
49	0x3d8b4494	0.068001896
50	0xbd7336a0	-0.059378266
51	0xbdf406c4	-0.11915353
52	0xbe0ff7aa	-0.1405932
53	0x3dc0912e	0.09402691
54	0x3db14e36	0.08657496
55	0x3de64776	0.11244099
56	0x3cd44148	0.025910035
57	0xbddef3f5	-0.10886375
58	0x3def0886	0.116715476
59	0x3dcf0766	0.10108833
60	0x3db2ecae	0.08736549
61	0x3b78b340	0.0037948638
62	0x3d23b6c4	0.03996922
63	0x3d238d84	0.03992988
64	0xbd53e3b0	-0.05173081
65	0x3da58402	0.08081819
66	0xbda66986	-0.08125596
67	0x3d878364	0.06616858
68	0x3d9ab2f8	0.07553667
69	0xbd66d400	-0.056354523
70	0xbdcfca24	-0.10145977
71	0xbc813ea8	-0.015776947
72	0x3d1075c8	0.035268575
73	0x3a084200	0.0005197823
74	0xbdeb1a4a	-0.114796236
75	0xbdb121ea	-0.08649047
76	0x3de3ebb6	0.11128943
77	0x3e0e2093	0.13879614
78	0xbca54f64	-0.020179458
79	0x3d9e7bbe	0.07738446
80	0xbb098540	-0.0020983964
81	0x3d88c504	0.06678203
82	0x3d05d330	0.032672107
83	0xbd949c22	-0.072563425
84	0xbd08d598	-0.033406824
85	0xbd384126	-0.044984005
86	0x3d4cc428	0.049991757
87	0x3c43a340	0.011940777
88	0x3def0dfa	0.11672588
89	0xbc94c94c	-0.018162392
90	0xbd633c3e	-0.055477373
91	0xbcf37c40	-0.029722333
92	0x3d239568	0.039937407
93	0xbdea4dff	-0.11440658
94	0x3d7f8b54	0.062388733
95	0x3ced82f8	0.028993115
96	0xbda00bbb	-0.078147374
97	0x3db13ca6	0.08654146
98	0xbdf94c26	-0.12172727
99	0x3df6ee5a	0.12057181
100	0xbdcee884	-0.101029426
101	0x3c226a50	0.009913042
102	0x3ded0356	0.11572902
103	0xbdd68242	-0.104740635
104	0xbd2cebaa	-0.042216934
105	0x3e0b6819	0.13613929
106	0x3e0e51ff	0.13898467
107	0x3c7340f0	0.014847025
108	0xbd183f76	-0.037169896
109	0xbdd88d4c	-0.10573825
110	0x3dea7c3e	0.114494786
111	0xbbf184e0	-0.0073705763
112	0x3d0d8c44	0.034557596
113	0x3e0d4cf3	0.13798885
114	0x3d388b28	0.045054585
115	0xbd848d18	-0.06472224
116	0x3d419fe4	0.047271624
117	0xbd6012e8	-0.05470553
118	0x3df11ba2	0.11772849
119	0xbd1400e8	-0.036133677
120	0xbdc21806	-0.09477238
121	0xbddce15c	-0.107851714
122	0xbd1ef7d6	-0.038810574
123	0x3dece81e	0.1156771
124	0xbdd5f013	-0.10446181
125	0xbe006973	-0.12540226
126	0xbc27e710	-0.010247961
127	0xbd552a98	-0.052042574
128	0xbda0e4bc	-0.078561276
129	0xbbb25480	-0.005442202
130	0x3c759db0	0.014991209
131	0x3c809f10	0.015700847
132	0x3d766574	0.060155347
133	0xbb2ac780	-0.0026058853
134	0xbd72a1b6	-0.05923625
135	0xbdbc3f07	-0.09191709
136	0x3e0ca577	0.13734995
137	0xbd423ae2	-0.047419436
138	0xbd91288d	-0.070878126
139	0xbc7d0dd0	-0.015445188
140	0x3db5af7e	0.08871363
141	0x3cb550c8	0.022133246
142	0x3af68900	0.001880914
143	0x3c352fc0	0.011058748
144	0xbc575500	-0.013142824
145	0x3def3c2e	0.116814
146	0x3d3127e8	0.04325095
147	0x3cd064e8	0.02543874
148	0x3d06b7e0	0.0328902
149	0x3d25bedc	0.04046522
150	0xbe024b33	-0.12723999
151	0x3d909880	0.07060337
152	0xbd75844a	-0.059940614
153	0x3da65614	0.08121887
154	0xbd9665f7	-0.07343667
155	0xbd8665a7	-0.065623574
156	0x3af9f800	0.0019071102
157	0x3e0693a1	0.13142253
158	0xbda6f780	-0.08152676
159	0xbde18a42	-0.11012699
160	0x3c1c4940	0.009538949
161	0x3d91e3fe	0.07123564
162	0xbdeafcc7	-0.11473995
163	0xbd73d58e	-0.059529833
164	0xbd7bedf6	-0.061506234
165	0xbdb83b4a	-0.089956835
166	0xbdf99438	-0.121864736
167	0x3d927e46	0.07152991
168	0x3c989868	0.01862736
169	0xbd18deb4	-0.03732176
170	0xbcd4c870	-0.025974482
171	0x3d19b864	0.037529364
172	0xbd33e10a	-0.043915786
173	0x3dfd267e	0.123608574
174	0xbd9f8937	-0.077898435
175	0xbe060d0e	-0.13090917
176	0xbe070053	-0.13183717
177	0x3e045833	0.1292427
178	0xbd8d4351	-0.06897605
179	0x3d986c50	0.07442534
180	0xbd40e300	-0.047091484
181	0x3db53a38	0.08848995
182	0x3d5b2e28	0.053510815
183	0xbde77f86	-0.1130362
184	0x3d50e250	0.05099708
185	0x3dfd0246	0.12353949
186	0xbe0191ff	-0.1265335
187	0x3dfee6d2	0.12446369
188	0x3bc71800	0.006075859
189	0x3d93bcbe	0.07213734
190	0xbd9d8885	-0.07692055
191	0x3d9ec1f4	0.077518374
192	0x3d9b6952	0.07588448
193	0xbd934bc1	-0.07192183
194	0xbd9e34b8	-0.07724899
195	0x3d50c410	0.05096823
196	0xbdf836e4	-0.121198446
197	0x3db99c02	0.09062959
198	0xbd8c9b93	-0.06865611
199	0xbd856ba8	-0.065146744
200	0x3e01d9c9	0.12680735
201	0x3bebc6e0	0.0071953386
202	0xbce79130	-0.028267473
203	0xbd14e6f2	-0.03635306
204	0xbb9e6ba0	-0.0048346072
205	0xbd89d629	-0.06730301
206	0xbbed1da0	-0.0072361976
207	0x3a3b8a00	0.00071540475
208	0x3dfaa592	0.12238611
209	0x3d1dba3c	0.038507685
210	0x3d0095bc	0.031392798
211	0x3c7c46a0	0.015397698
212	0x3d3fee68	0.04685822
213	0xbd86ae16	-0.06576173
214	0x3cf365f0	0.029711694
215	0xbd91a0db	-0.07110759
216	0xbdd0a07a	-0.101868585
217	0xbd792410	-0.060825408
218	0x3e0d3c2d	0.13792486
219	0x3d9d0d50	0.07668555
220	0x3c39bdf0	0.011336789
221	0xbd5f76fa	-0.054556824
222	0x3dfdd94e	0.12394963
223	0xbcaf1c20	-0.021375716
224	0xbd985290	-0.074376225
225	0x3cb93aa0	0.022610962
226	0xbe101baa	-0.14073053
227	0x3dc5dc62	0.09661175
228	0x3db87648	0.09006935
229	0x3dc8eace	0.098104104
230	0xbd05928e	-0.03261047
231	0xbe014efb	-0.12627785
232	0xbdd1b8a6	-0.10240297
233	0xbc072920	-0.008249551
234	0x3db1eae0	0.08687377
235	0x3cc810e8	0.024422124
236	0xbda62862	-0.08113171
237	0xbd5b848a	-0.053593196
238	0x3c89bd98	0.016814038
239	0xbe07f213	-0.13275938
240	0xbdcbd27b	-0.09952255
241	0x3d205d2c	0.039151356
242	0x3d014568	0.03156033
243	0x3dc4a614	0.096019894
244	0xbc302870	-0.010751829
245	0x3e0692dd	0.13141961
246	0xbc39be50	-0.011336878
247	0xb7dc6000	-2.6270747e-05
248	0xbcb5b848	-0.022182599
249	0x3e0607ab	0.13088863
250	0xbddc7fb6	-0.107665464
251	0xbd1be994	-0.038064554
252	0x3d31e73c	0.043433413
253	0xbd914061	-0.070923574
254	0x3d68e64c	0.056860253
255	0x3c894af8	0.01675938

lstm.bias_ih_l1 f4 [200]
0	0x3d48ce00	0.049024582
1	0x3f273ee8	0.6533036
2	0xbb412193	-0.0029469475
3	0x3e8b0510	0.271523
4	0x3d8e3d44	0.06945279
5	0xbcc12f34	-0.023582079
6	0x3e9cb455	0.30606332
7	0x3e9a4c04	0.3013612
8	0x3d190fc3	0.037368547
9	0x3e0abab3	0.13547783
10	0x3dcae57e	0.099070534
11	0x3e9ed85d	0.31024447
12	0x3e15d1c8	0.14630806
13	0x3e1f2abd	0.15543647
14	0x3e50e6b5	0.20400508
15	0x3eb054c4	0.3443967
16	0x3d73bdc7	0.059507158
17	0x3e0549cc	0.13016433
18	0x3d890773	0.06690874
19	0x3efcd4c2	0.4938107
20	0x3e60058b	0.21877114
21	0x3dd60ff9	0.10452265
22	0x3e547430	0.20747447
23	0x3f2af6a1	0.66782576
24	0x3e9b6c58	0.30356097
25	0x3dfa0e0c	0.122097105
26	0x3e8b5074	0.27209818
27	0x3da91646	0.082562014
28	0x3e8ea6ec	0.27861726
29	0x3ec1d7af	0.37859866
30	0x3e32734a	0.17426792
31	0x3e608ee9	0.21929516
32	0x3e60954d	0.21931954
33	0x3e99a1ac	0.30006158
34	0x3dc4a9d7	0.09602707
35	0x3cb646aa	0.022250492
36	0x3e6bfb6a	0.23045126
37	0x3dba7a12	0.09105314
38	0x3e62014b	0.22070806
39	0xbbf5c211	-0.007499941
40	0x3c540e0c	0.012942802
41	0x3ded93b6	0.11600439
42	0x3e6b05ad	0.22951384
43	0x3e16f12c	0.14740437
44	0x3e88d864	0.26727593
45	0x3d9312ba	0.07181306
46	0x3e8739ae	0.26411194
47	0x3e21f3ad	0.15815611
48	0x3e88f0a5	0.26746097
49	0x3d963898	0.07335013
50	0x3c3e9380	0.011631846
51	0x3da75c62	0.081719175
52	0xbcd61394	-0.026132382
53	0x3d2bdfd0	0.04196149
54	0x3ddf6612	0.1090814
55	0xbd9d4b3b	-0.07680365
56	0x3b320840	0.0027165562
57	0x3dd800c4	0.10547021
58	0xbdf7f8d5	-0.12108008
59	0xbdec4adc	-0.11537716
60	0xbe0ba172	-0.13635805
61	0xbb160400	-0.0022890568
62	0xbe084795	-0.13308556
63	0xbd3d84f4	-0.046269372
64	0x3e019f91	0.12658526
65	0x3d65c6b8	0.056097716
66	0x3deb9732	0.115034476
67	0x3d87d6d2	0.066327706
68	0x3dcdaf62	0.10043217
69	0xbdc2cd74	-0.09511843
70	0x3dea83f2	0.11450948
71	0x3de46336	0.111517355
72	0x3d90ae6c	0.07064518
73	0xbdc5a153	-0.09649911
74	0x3d982c5c	0.07430336
75	0xbe094d41	-0.13408376
76	0x3d91e600	0.07123947
77	0x3d71f584	0.059072033
78	0x3da21686	0.07914452
79	0x3d06530c	0.032794043
80	0x3c0eca50	0.008715227
81	0xbe088879	-0.1333331
82	0xbb22dfc0	-0.0024852604
83	0x3e0bee8d	0.13665219
84	0xbcaedc80	-0.021345377
85	0xbde7c122	-0.11316134
86	0x3c805318	0.015664622
87	0xbda0245b	-0.07819434
88	0xbceab9b0	-0.028652996
89	0xbd25e152	-0.040498085
90	0x3deb85c2	0.11500122
91	0x3e1062d9	0.14100207
92	0xbd4b714c	-0.049668595
93	0x3dc150f8	0.09439272
94	0xbdfc7690	-0.123273015
95	0x3e0ca035	0.13732989
96	0x3dcc3554	0.09971109
97	0x3d9aef84	0.07565215
98	0xbe0e879a	-0.13918915
99	0x3d5530f8	0.052048653
100	0xbe0aece6	-0.13566932
101	0x3ec59eb8	0.38597655
102	0xbec72784	-0.38897336
103	0x3de2dbff	0.11077117
104	0x3e06520d	0.13117237
105	0x3d1073ea	0.035266794
106	0x3eaa0b4c	0.33211744
107	0x3d9ff4c8	0.0781036
108	0xbdbe9c04	-0.09307101
109	0xbe23a9e3	-0.15982775
110	0xbea67246	-0.3250906
111	0x3ea9bbbe	0.33151048
112	0x3e3f642e	0.1869056
113	0x3ed497e2	0.41522127
114	0x3ee8fce4	0.4550544
115	0x3f07320f	0.5281076
116	0xbe42d0c1	-0.19024946
117	0x3cca3257	0.024682207
118	0xbd5617f2	-0.05226893
119	0x3ef9683f	0.48712346
120	0xbe99613f	-0.29957005
121	0x3d9702a6	0.07373552
122	0xbf46a466	-0.775946
123	0xbf1259bb	-0.5716817
124	0xbea06087	-0.31323645
125	0xbea9ba36	-0.3314988
126	0xbde1092f	-0.1098808
127	0x3b5b0d33	0.0033424615
128	0xbedf3496	-0.43594807
129	0x3f10c843	0.56555575
130	0xbe2a625d	-0.16639085
131	0xbf0ddaa2	-0.5541173
132	0xbeca92e8	-0.39565206
133	0x3e50873e	0.20364091
134	0x3e7de3db	0.24793951
135	0x3c98eaf6	0.018666726
136	0x3e4d1191	0.20026232
137	0xbe71c59f	-0.23610543
138	0x3e43fe35	0.19139941
139	0x3d033960	0.03203714
140	0x3dc362d7	0.095403366
141	0xbef0107a	-0.4688757
142	0xbe9ece63	-0.31016836
143	0xbe9c0ff9	-0.30480936
144	0x3ec17123	0.3778163
145	0xbeb68c9c	-0.3565415
146	0x3f62fe5d	0.8866938
147	0x3ee3bdbd	0.44480696
148	0x3e31b576	0.17354378
149	0x3e4e9556	0.20174155
150	0x3e57de13	0.21080808
151	0x3edb64d1	0.42850354
152	0x3e602f52	0.21893051
153	0x3e5c3500	0.21504593
154	0x3d83a26c	0.06427464
155	0x3c352bcc	0.011057805
156	0x3eada217	0.33912727
157	0x3e36c640	0.17849064
158	0x3e2fd489	0.1717092
159	0x3e0beb7f	0.13664053
160	0x3e019f11	0.12658335
161	0x3e28c957	0.16483055
162	0x3dc3e3d2	0.09564938
163	0x3e2d8f51	0.16949202
164	0x3e2fbf29	0.17162766
165	0x3de312eb	0.11087593
166	0x3e2e49f5	0.170204
167	0x3e51184e	0.20419428
168	0x3e738607	0.23781596
169	0x3e8fbfc3	0.2807599
170	0x3eb5c5df	0.35502526
171	0x3e44dd20	0.19224977
172	0x3eaf2eba	0.34215337
173	0x3f3106fa	0.6915127
174	0x3e17bf68	0.1481911
175	0x3e7015ab	0.23445766
176	0x3e8498c0	0.2589779
177	0x3e60fabd	0.21970649
178	0x3e0870aa	0.13324228
179	0x3e15712f	0.14593957
180	0x3e2e806b	0.17041175
181	0x3ec29479	0.380039
182	0x3e640ae8	0.22269785
183	0x3d47a82b	0.04874436
184	0x3e053df3	0.13011913
185	0x3d854f1b	0.06509229
186	0x3de8a690	0.11359894
187	0x3e184ad3	0.14872293
188	0x3e223158	0.15839136
189	0x3e0155ed	0.12630434
190	0x3cfa41be	0.030548926
191	0x3e80f228	0.2518475
192	0x3da44c7d	0.080224015
193	0x3ddd5545	0.108072795
194	0x3e46df65	0.19421156
195	0x3df143d6	0.11780517
196	0x3e202f0d	0.15642948
197	0x3ea9f783	0.3319665
198	0x3de94fb8	0.11392158
199	0x3dc49a99	0.095998

lstm.bias_hh_l1 f4 [200]
0	0x3e959435	0.29214635
1	0x3f144b9d	0.57927877
2	0xbcdde2b4	-0.02708564
3	0x3e8d1e04	0.27561963
4	0x3e82ebe1	0.25570586
5	0x3e3243df	0.17408703
6	0x3e63ee79	0.22258939
7	0x3e41a979	0.18912305
8	0x3dc631f9	0.096775
9	0x3e1f9090	0.1558249
10	0x3e00f014	0.12591583
11	0x3e623e70	0.2209413
12	0xbac335f9	-0.0014893404
13	0x3e4d8e0c	0.20073718
14	0x3e86c9e4	0.26325905
15	0x3e2864cf	0.16444705
16	0x3e47c943	0.19510369
17	0x3e64762d	0.22310705
18	0x3e18d4ef	0.14924978
19	0x3e9f72dc	0.31142318
20	0x3dfe84e6	0.12427692
21	0x3d115fd2	0.035491772
22	0x3ed417b5	0.41424337
23	0x3f2d5a69	0.6771608
24	0x3eb44d1a	0.35215074
25	0x3e51e648	0.20498002
26	0x3e04456a	0.12917104
27	0x3d7b4ed4	0.061354473
28	0x3d9c7c0f	0.0764085
29	0x3dd5a8fd	0.104326226
30	0x3e42e493	0.19032507
31	0x3e57bc2a	0.21067873
32	0x3e982801	0.2971802
33	0x3d333d01	0.04375935
34	0x3e1245de	0.14284465
35	0x3db1eb0c	0.0868741
36	0x3dd97802	0.10618593
37	0x3e3dca04	0.18534094
38	0x3e88d519	0.2672508
39	0x3d7a9a9e	0.06118261
40	0x3e075356	0.13215384
41	0x3e8d254d	0.2756752
42	0x3e788d0f	0.2427256
43	0x3e5bf5d2	0.21480492
44	0x3e580be4	0.21098286
45	0x3e16e59e	0.1473603
46	0x3e8c089b	0.27350315
47	0x3e571891	0.21005465
48	0x3e48af0c	0.19598025
49	0x3dd223ac	0.1026071
50	0xbe0b1538	-0.13582313
51	0x3dc48b7a	0.095969155
52	0xbd8f5838	-0.06999248
53	0x3e00230f	0.12513374
54	0xbc8114d0	-0.015756994
55	0xbddd0da4	-0.10793617
56	0x3ca2e4d0	0.019884497
57	0x3dabb850	0.08384764
58	0xbdcbe250	-0.09955275
59	0x3ce7c9b8	0.02829443
60	0xbdbd5c1b	-0.09246083
61	0xbdad971c	-0.084760875
62	0x3dd7991c	0.1052725
63	0xbdac2468	-0.084053814
64	0xbe0ea407	-0.13929759
65	0xbdc6239e	-0.09674762
66	0x3dada5fa	0.08478923
67	0x3d446e54	0.04795678
68	0x3d1d7210	0.038438857
69	0xbdd04f8e	-0.10171424
70	0x3de3acba	0.11116929
71	0xbdf19acb	-0.117971025
72	0xbdc355d6	-0.09537856
73	0x3d99eb92	0.075156346
74	0x3de9a752	0.11408867
75	0x3da8d212	0.08243193
76	0x3dbd1d9e	0.09234165
77	0xbcf28224	-0.029603072
78	0x3b243800	0.0025057793
79	0x3d4c3b8c	0.049861476
80	0x3dca38d4	0.0987412
81	0x3df70c26	0.12062864
82	0xbcc12988	-0.023579374
83	0x3dfe4b3e	0.12416695
84	0x3c492690	0.01227726
85	0xbe0a5122	-0.13507512
86	0xbcaccbb0	-0.02109322
87	0xbd6ab1d2	-0.05729849
88	0xbae4f900	-0.0017469227
89	0xbb903ea0	-0.0044019967
90	0xbd2ccd18	-0.04218778
91	0x3d4d101c	0.05006419
92	0x3d036ad0	0.032084286
93	0x3d641ea0	0.05569327
94	0x3df1cf8a	0.11807163
95	0x3d4c0974	0.049813703
96	0x3dad14ea	0.08451255
97	0x3d992270	0.074772716
98	0xbcf58834	-0.029972173
99	0xbd6a3ee6	-0.05718889
100	0xbe4b6274	-0.19861776
101	0x3e9c996d	0.30585805
102	0xbed9cfdf	-0.42541406
103	0x3e2aa8f3	0.16666012
104	0x3d768b0f	0.06019121
105	0xbda41a2a	-0.08012803
106	0x3e60bc7e	0.21946904
107	0x3e51f645	0.205041
108	0xbdae29a1	-0.08504034
109	0xbe4665b1	-0.1937473
110	0xbe81a705	-0.25322738
111	0x3eb467ec	0.35235536
112	0x3ddf4356	0.10901515
113	0x3e940878	0.2891271
114	0x3e5588e8	0.20853007
115	0x3f08bf57	0.5341696
116	0xbe7c8d89	-0.24663366
117	0xbe0b65e9	-0.13613094
118	0x3af9882a	0.0019037772
119	0x3e8987d7	0.2686145
120	0xbe92afd1	-0.28649762
121	0xbe1406d3	-0.14455728
122	0xbf4f2c21	-0.8092671
123	0xbf197948	-0.59950686
124	0xbe5fe72b	-0.21865527
125	0xbe1faddb	-0.15593664
126	0xbda2055a	-0.07911177
127	0x3da5b73b	0.08091589
128	0xbe8b322d	-0.2718672
129	0x3ec40120	0.38282108
130	0xbe6f1598	-0.23348081
131	0xbf490d0d	-0.7853554
132	0xbe91e678	-0.28496146
133	0x3e5b0cf2	0.21391657
134	0x3efa8499	0.4892929
135	0xbd396f04	-0.04527189
136	0x3d8e9572	0.06962098
137	0xbe7d2dd5	-0.24724515
138	0x3eab90ab	0.3350881
139	0xbe0ccad1	-0.13749243
140	0x3e8387e7	0.25689623
141	0xbea01b94	-0.3127104
142	0xbd8f3cd3	-0.06994023
143	0xbe969892	-0.29413277
144	0x3f21cbdc	0.6320169
145	0xbe6b86ac	-0.23000592
146	0x3f581501	0.8440705
147	0x3ea49772	0.32146794
148	0x3e2ab5f2	0.16670969
149	0x3ec5a6dc	0.38603866
150	0x3ddedcd0	0.108819604
151	0x3ed63361	0.41836074
152	0x3e85801a	0.26074296
153	0x3e171062	0.14752343
154	0x3e297ebc	0.16552252
155	0x3e882f5d	0.26598635
156	0x3e262300	0.16224289
157	0x3df53033	0.11972084
158	0x3de00c30	0.109398246
159	0x3e325151	0.17413832
160	0x3e0f56ab	0.13997905
161	0x3e1c74c2	0.15278915
162	0x3d0b1e33	0.033964347
163	0x3e79e593	0.24403982
164	0x3e067291	0.13129641
165	0x3e7fe473	0.2498949
166	0x3e0e6108	0.13904202
167	0x3e01fd4e	0.12694284
168	0x3df14a1a	0.11781712
169	0x3eab6ce8	0.33481526
170	0x3e1591e3	0.14606433
171	0x3cbdd186	0.023171198
172	0x3ec6250d	0.38700143
173	0x3f2aaed7	0.66673034
174	0x3e9e461e	0.3091287
175	0x3e0eb018	0.13934362
176	0x3e621149	0.22076906
177	0x3da7b4fa	0.081888154
178	0x3e8d67cd	0.27618256
179	0x3e175a42	0.14780524
180	0x3ead278d	0.33819237
181	0x3e80a14f	0.2512307
182	0x3e7281cc	0.23682326
183	0x3da7d060	0.08194041
184	0x3d8c19fa	0.06840892
185	0x3e3d6c6e	0.18498394
186	0x3e8246e2	0.25444704
187	0x3e060fed	0.13092013
188	0x3df94790	0.121718526
189	0x3ddcf28b	0.10788449
190	0x3d8616fd	0.065473534
191	0x3d9c59e3	0.07634332
192	0x3e04682f	0.12930368
193	0x3d82a605	0.06379322
194	0x3e4c9850	0.19979978
195	0x3e2cb900	0.16867447
196	0x3e26f2c9	0.16303553
197	0x3eadaaab	0.33919272
198	0x3dab7b74	0.08373156
199	0x3e413bc0	0.18870449
