LSTM_for_PDE/codes/model/lstm_pinn2D.pth (torch, 212489 bytes, 13 tensors)

lstm.weight_ih_l0 f4 [200, 3]
000000 82 b9 2b bf d4 7a 29 bf bf 62 84 3c 53 34 70 bf
       -0.6707994 -0.66203046 0.016160367 -0.9382984
000010 1e 5d 81 bf 37 9e d9 3f bd c4 8c 3e 55 7c e7 be
       -1.0106542 1.7001408 0.2749385 -0.45212045
000020 5e a4 64 3f 9a 45 22 3f 77 ba a0 be 12 09 bf 3e
       0.89313304 0.63387454 -0.3139226 0.37311608
000030 bc 36 b1 3d 8c cb b4 be a0 06 cb 3f e9 a5 00 3f
       0.08653018 -0.35311544 1.5861397 0.5025316
000040 29 f3 f8 3e dd 5c 54 3d 27 1f 2d be 5b 7b 17 bf
       0.48623016 0.051846374 -0.16906415 -0.591726
000050 7c c6 87 3f 97 15 18 3f 2d 0b 14 be e6 ed 8f 3f
       1.0607448 0.59407943 -0.14457388 1.1244476
000060 f3 16 26 bd 08 ed 04 bf ca 37 46 3e 9f c9 08 3f
       -0.04054923 -0.5192418 0.1935722 0.5343265
000070 b2 f9 93 3e 14 52 d8 be 7b 2d 0a bf 33 8f 26 bf
       0.2890144 -0.4225012 -0.5397565 -0.65062255
000080 d6 5f 94 3f e2 04 50 3f 4d e5 0d 3f 52 1c ae 3e
       1.1591747 0.8125745 0.5542801 0.34005982
000090 90 23 6e bf 40 81 81 bf 6d 15 15 3f f0 08 e9 be
       -0.93023014 -1.0117569 0.5823582 -0.4551463
0000a0 0e 56 d1 3e 81 a2 11 3e e0 05 52 bf a5 fd 12 3e
       0.40885967 0.14222147 -0.82040215 0.1435457
0000b0 1c 8f 26 3f f1 ba e7 3e 6d 85 fb 3e 41 6d 10 3e
       0.6506212 0.45259812 0.49125233 0.14104177
0000c0 5a d8 ea be d7 15 1f be bb 64 a5 3f 97 1b 9e 3e
       -0.45868188 -0.15535675 1.2921365 0.30880424
0000d0 bd 08 47 bf e7 ae 6f 3f f3 7a 0f 3e 55 9b 1b bf
       -0.7774771 0.93626255 0.14011745 -0.6078389
0000e0 23 b7 5b 3f 8b 16 13 be 37 80 7d 3e e9 f7 0d 40
       0.8582632 -0.14364068 0.24755941 2.2182562
0000f0 04 cd cd 3e 16 6b 0a be ba b5 13 bf 1c 41 80 bf
       0.40195477 -0.13517413 -0.5769917 -1.001987
000100 23 cd 37 bf 90 20 c2 3f 68 7f 5e 3f 0a f5 6a 3f
       -0.7179739 1.5166187 0.86913157 0.9178015
000110 2e 5a 52 3e a9 e3 ae 3e 3a a6 d1 bd dd f4 3b 3f
       0.20542213 0.34158066 -0.10236783 0.73420507
000120 6d 46 92 3e a0 35 e7 be 87 f0 aa 3f a1 7a 03 3f
       0.28569356 -0.451581 1.3354653 0.5135899
000130 0a e2 c6 3e 0d 9a f4 be fc 64 38 bf 34 59 12 bf
       0.3884433 -0.4777378 -0.7202909 -0.57167363
000140 e7 ba 93 3e ca 53 00 3f 16 b8 b6 be c5 1a 98 3f
       0.28853533 0.5012785 -0.3568732 1.188317
000150 86 26 45 3f 55 31 27 be 03 e0 86 3f 19 c2 9b bf
       0.7701191 -0.16327412 1.0537113 -1.2168609
000160 dc 81 75 bf 8d 54 ac 3e f3 3e 96 bf 37 9b 1a 3f
       -0.95901275 0.33658257 -1.173796 0.6039309
000170 03 73 4f 3f ba bf 99 3e d4 8a b4 be 06 25 3d 3f
       0.8103487 0.30029088 -0.35262167 0.7388462
000180 63 e1 15 3f af 64 98 3e 08 56 36 3e af 46 d2 3e
       0.5854704 0.29764315 0.17806256 0.41069552
000190 92 6b 26 bf 8f 5f 5a 3f 85 13 c4 bf 71 37 64 bf
       -0.6500789 0.8530206 -1.5318457 -0.89147097
0001a0 8a dc 40 3f 00 5f 4d bf 5e 93 27 3e bb 0f 4b 3f
       0.75336516 -0.80223083 0.1636481 0.7932088
0001b0 8e 1f cb 3b a0 04 17 bf 2f f5 7a bf 84 9b 09 3f
       0.00619883 -0.5899143 -0.9803037 0.53752923
0001c0 ad 1b 06 c0 67 03 b4 3f f6 fc 23 be 54 43 23 bf
       -2.0954392 1.4063538 -0.16014466 -0.6377461
0001d0 a9 40 11 40 38 09 19 bf 83 d3 b5 3d da ef 0d 3f
       2.2695715 -0.5977969 0.08878233 0.5544411
0001e0 35 4b 07 bf 00 41 e9 bd 64 7e ac 3f 1d b8 38 3f
       -0.5284913 -0.11389351 1.3476071 0.72155935
0001f0 ef 4b 09 3f 0a 43 b8 3e df aa 91 3e a6 c5 07 bf
       0.5363149 0.35988647 0.28450677 -0.5303596
000200 f9 3d 88 3f 70 55 d7 bf 54 a3 2c bf 82 a8 bd 3f
       1.0643913 -1.6822948 -0.6743672 1.481705
000210 fa 6b 3e bf 70 95 13 bf 45 2e 21 3d e1 e2 6e 3e
       -0.7438351 -0.576499 0.039350767 0.23328735
000220 71 07 07 bf c4 2f a7 3f dc ab 81 ba ac d6 92 3e
       -0.5274573 1.3061452 -0.0009893137 0.28679407
000230 2d ab 90 bd e8 61 1f bf ad eb b9 3e 36 48 27 3d
       -0.07063899 -0.6225877 0.3631262 0.04084035
000240 f9 8b 0a 3f 98 be 95 3e 3e 91 5c 3e cb 65 4b bf
       0.5411983 0.29246974 0.2153978 -0.794522
000250 48 69 1a be 10 c3 04 3f 10 5c f6 3c 2e 6a b9 bd
       -0.15079224 0.5186014 0.030073196 -0.09053455
000260 ee 7c ca 3d 2b 20 0e be ce bc 41 bd 3c df a4 bc
       0.0988711 -0.13879459 -0.0472992 -0.020125978
000270 09 c7 88 bd 6a 74 7c bd 26 e4 af 3d 92 0d d5 bd
       -0.06678588 -0.06163446 0.08588438 -0.10402979
000280 58 38 86 bd 00 14 2f bd 2e d2 de 3d 54 7f c6 3d
       -0.065537155 -0.042743683 0.10879932 0.09692255
000290 c0 33 58 bb f8 8f b6 3d 40 f7 27 bc 76 01 29 bd
       -0.003298983 0.089141786 -0.01025182 -0.04126116
0002a0 ba 9b 00 be 2c f9 31 bd 42 a3 50 bd 34 2a c9 bd
       -0.12559405 -0.04345052 -0.050936945 -0.09822503
0002b0 c0 ee 05 3d cc 14 ef bd 51 ab 93 bd 32 f3 7e bd
       0.032698393 -0.116738886 -0.072104104 -0.062243648
0002c0 7f 78 b1 bd 54 c5 a5 3d 68 87 d5 3d 50 d0 f6 3c
       -0.08665561 0.08094278 0.10426217 0.030128628
0002d0 6c 36 0b be bf b1 e6 bd c0 af 63 3b c3 3f 0d 3e
       -0.13594979 -0.11264371 0.0034742206 0.13793854
0002e0 1c ac db 3d 92 1f a5 3d 94 11 40 3d 69 cb 01 be
       0.10726187 0.08062662 0.046891764 -0.12675251
0002f0 92 f6 1d bd 2c 82 20 bd 40 db 30 bb c4 f9 86 bc
       -0.038565226 -0.03918664 -0.0026986152 -0.01647652
000300 c2 dc b5 3d 6b a0 96 bd 78 79 cd 3d 60 b0 c8 bd
       0.08879997 -0.07354816 0.10032934 -0.09799266
000310 b1 55 06 3e 2a 82 9e bd 00 4b 4a 3d 82 a7 a2 3d
       0.13118626 -0.077396706 0.04938793 0.07942106
000320 f0 78 27 bc c0 a3 65 3d 90 f9 2d bd 3e 64 c5 3d
       -0.010221705 0.056064367 -0.04247433 0.0963826
000330 c4 40 38 bd 1c d7 8e bd 08 a2 ea 3c 51 f0 b0 bd
       -0.04498364 -0.069746226 0.028641716 -0.08639587
000340 40 94 e6 3c 64 f0 46 3d 78 00 cd 3d bc 19 ce bc
       0.028146863 0.048569098 0.10009855 -0.025158755
000350 8a 2b 0b bd 2a 1f e3 bd f6 d6 c5 bd 59 4f 98 bd
       -0.03397707 -0.110899284 -0.09660141 -0.07437009
000360 52 54 0b be 86 2e 9b 3d a0 6f 4b bc 24 5e 43 3d
       -0.13606384 0.07577233 -0.01241675 0.0476972
000370 70 af 37 3c 80 e8 be bb df f5 ab bd 10 9a de 3c
       0.011211261 -0.005826056 -0.083965056 0.027173072
000380 cb 96 02 3e e8 cc 35 3d 9e 40 7a bd 00 06 b5 3b
       0.12752835 0.044384867 -0.06109678 0.005524397
000390 3f 79 88 bd dc 85 86 bd 40 5f dd bc 2a 9d fa 3d
       -0.06663751 -0.065685004 -0.027022958 0.12237008
0003a0 a0 45 e8 3b a6 00 e7 3d 94 4e 39 3d f4 fd 00 3d
       0.007088378 0.112794206 0.045240954 0.03149219
0003b0 2f ce 06 3e 2c 61 08 be da 80 df 3d 08 29 97 3d
       0.1316459 -0.13318318 0.10913248 0.07380873
0003c0 b0 5b b1 3c ae 9f 9b 3d 42 a1 cf 3d 95 6f ed bd
       0.021650165 0.07598816 0.10138179 -0.11593548
0003d0 14 92 ae bd e4 b8 14 bd ee f6 98 3d 70 ba 2a 3c
       -0.08523956 -0.036309138 0.07468973 0.010420427
0003e0 14 f6 59 3d 20 b0 48 3d 5a 1d dc bd 3e 3e b0 3d
       0.053213194 0.04899609 -0.10747786 0.08605622
0003f0 41 44 0b 3e 74 37 b8 bd 40 98 51 bc 4c 6c 6a bd
       0.13600256 -0.08994952 -0.012792647 -0.057232186

lstm.weight_hh_l0 f4 [200, 50]
000000 e3 9e cd bd e2 f6 e3 3d ac 02 2a bd aa 6e b5 3d
       -0.10040071 0.111310735 -0.041506454 0.08858998
000010 87 0e d1 bd e0 fc 95 3d d1 96 08 3e fc 47 c3 3d
       -0.10207849 0.07323623 0.13338782 0.09535214
000020 b6 14 8a bd 58 d1 b2 3d 68 84 52 3d 93 2e 0d 3e
       -0.067422315 0.087313354 0.051395804 0.13787298
000030 b0 9f 82 bc 94 a7 46 3d 8e d5 bc 3d cd d7 ed bd
       -0.015945286 0.04849966 0.0922042 -0.11613426
000040 e4 50 5a bd 57 57 10 be 00 95 56 3a 40 7c 32 bd
       -0.0532998 -0.14095818 0.0008185655 -0.043575525
000050 a1 5e 8b bd 5a 0d 50 bd 28 66 23 3d dc 11 1f 3d
       -0.068051584 -0.050793983 0.039892346 0.03883539
000060 20 12 ce 3d 84 1c d1 bc 54 54 9a bc 6e bb c0 3d
       0.10062051 -0.025526293 -0.018839039 0.094107494
000070 7b 47 08 3e c8 3b c9 3c 3a f9 e2 3d 80 97 0a 3b
       0.13308518 0.024564639 0.110826924 0.002114743
000080 0e b8 72 bd e6 cf 7c bd 7b f3 0e be 62 54 c1 3d
       -0.05925756 -0.061721705 -0.13960068 0.09439923
000090 ce 9f f2 bd bf b6 0d 3e d8 4b fc bd ba fe 01 be
       -0.118468866 0.13839243 -0.123191535 -0.12694827
0000a0 a8 ea bd 3d d6 a3 ee bd 9c 89 a6 3d 8c 12 00 3d
       0.09273273 -0.11652343 0.08131716 0.031267688
0000b0 ac 42 e1 bd da fd ab 3d b0 6c 84 bc 5a ed 82 3d
       -0.10999045 0.08398028 -0.016165107 0.063929275
0000c0 10 98 fb 3c e8 b9 57 bd 79 a3 0c 3e b0 a3 af 3c
       0.030712157 -0.05266753 0.13734235 0.021440357
0000d0 80 51 38 bd 18 0d b2 3c 92 70 e6 3d 1c 4e 4b 3d
       -0.0449996 0.02173476 0.1125194 0.049635038
0000e0 af a7 0d 3e 6c 30 5d bd 3e f7 f1 3d 80 1e 28 3c
       0.13833497 -0.054001257 0.11814736 0.010261178
0000f0 c8 da fe bd 8f 75 ca bd f2 06 8e 3d 7e a3 00 be
       -0.12444073 -0.09885704 0.069349185 -0.12562367
000100 b0 6e 56 bc 18 28 42 bd f7 b7 0e 3e 8c 42 03 3d
       -0.013087913 -0.047401518 0.13937365 0.032045886
000110 53 6f 05 3e 8c d9 ce 3d 44 02 c2 bc 76 fc 99 3d
       0.13030748 0.101000875 -0.023682721 0.07518856
000120 1f c9 10 be e8 89 a7 3d 4e 75 08 be 52 b3 83 bd
       -0.14139222 0.081806004 -0.13325998 -0.06430687
000130 f8 24 aa bd c6 b0 85 3d 3e a2 b0 3d 0c ef a1 bd
       -0.083078325 0.065278575 0.08624695 -0.07906923
000140 d4 db 58 3d d5 d5 09 be d6 64 1f bd c0 fa 1f 3d
       0.05294402 -0.13460477 -0.038914524 0.039057493
000150 27 56 00 3e f4 e3 02 be 00 c1 3c 3a 1e 9e 07 bd
       0.12532865 -0.1278227 0.000720039 -0.033109777
000160 d0 d6 01 3d c0 fb bc 3c c0 31 a7 3d 34 6c 7d 3d
       0.031699 0.023069263 0.08163786 0.06187077
000170 9b d0 a0 bd d4 44 60 bd 6a 82 10 bd 9e 36 f1 3d
       -0.07852288 -0.05475314 -0.035280623 0.117779955
000180 d4 a4 07 bd 2a 16 10 be 44 7d 23 3d 44 59 87 3d
       -0.033116177 -0.14070955 0.039914384 0.06608823
000190 c2 44 96 3d 54 33 a4 bd 40 42 db 3c 96 ea ec 3d
       0.07337333 -0.080176026 0.026764989 0.11568181
0001a0 92 4f 95 bd e4 12 44 3d 52 bb 47 bd a0 95 4d 3c
       -0.072905675 0.047869578 -0.048762627 0.01254788
0001b0 ad 63 0e be a2 f2 ee 3d 1c 69 ed bc 4e e9 8f 3d
       -0.13905211 0.11667372 -0.028980784 0.07026921
0001c0 60 bf 78 3c 6c 15 d6 3d 45 d4 e7 bd 51 04 93 bd
       0.015182346 0.10453305 -0.11319784 -0.07178558
0001d0 6a 4d dd bd 94 ec 37 3d d8 90 6d 3d c0 24 f8 3c
       -0.10805781 0.044903353 0.057999462 0.030290961
0001e0 af 77 b2 bd e0 1c 66 bd 51 d0 8b bd 84 6d c5 bc
       -0.08714234 -0.05617988 -0.068268426 -0.024100073
0001f0 bc f6 cd 3d d6 a6 a8 bd c0 dc 20 3d 20 41 97 bd
       0.100568265 -0.082349464 0.039273024 -0.073854685
000200 7a cf 8b 3d fa 78 bc bd d0 cb 86 3c 08 cd 1b 3d
       0.068266824 -0.09202762 0.016454607 0.03803733
000210 a6 7b ec bd a8 4f d7 bd c0 2b 66 bb de b9 b2 bd
       -0.115470216 -0.1051324 -0.0035121292 -0.087268576
000220 2a 79 82 bd 5d 5f 07 3e 80 29 74 3b e8 5e 5d 3d
       -0.063707665 0.13219972 0.0037256181 0.054045588
000230 58 7b aa 3c 8f 8b 0c be ac 9c c2 3d 93 b1 0d 3e
       0.020810768 -0.13725112 0.09502539 0.1383727
000240 94 15 97 bc 28 34 9c 3d 12 d3 05 be 6c bc 4c bd
       -0.018442906 0.076271355 -0.13068798 -0.04998438
000250 75 2d 0d 3e 2a bd bf bd 47 bb 06 3e b6 1a a2 3d
       0.13786872 -0.09362252 0.13157378 0.07915251
000260 e2 d2 cf 3d 84 b7 d6 3d 52 d5 10 bd 58 aa d3 3c
       0.101476446 0.104842216 -0.035359688 0.025838062
000270 33 9a e8 bd c5 46 0a 3e da b0 e4 3d a6 68 c5 bd
       -0.11357536 0.13503559 0.11166544 -0.09639101
000280 01 29 99 bd 20 7d 16 bd 40 9a be bb 80 df e7 3b
       -0.07478524 -0.036740422 -0.005816728 0.007076204
000290 62 e1 ea 3d 42 c0 0f bd 10 4d 4e 3d 83 12 e0 bd
       0.114687696 -0.03509546 0.05036646 -0.10941031
0002a0 00 ae 4f bb 82 a2 0b be 40 58 9d bd a2 4e 21 bd
       -0.0031689405 -0.1363621 -0.07682848 -0.03938163
0002b0 ea 8d b8 bd 1a d1 bf 3d 82 2d e0 bd f4 ba ec bd
       -0.09011443 0.09366055 -0.1094618 -0.11559096
0002c0 f8 08 c5 bc c0 ed e8 bd cd 60 d0 bd c4 dd 1b 3d
       -0.024052128 -0.11373472 -0.10174713 0.03805329
0002d0 6b 7c 06 3e 2a e3 0c bd d2 ba 95 bd 92 ef ca bd
       0.13133399 -0.034396328 -0.07311024 -0.09908976
0002e0 32 f3 d0 3d 5e 8c e4 3d ec 74 ea bd 90 34 3e bd
       0.10202636 0.111595854 -0.11448082 -0.046436846
0002f0 48 d4 48 3d 70 2a eb bc e4 7a bd bd 44 80 00 be
       0.049030572 -0.02870676 -0.09251955 -0.1254893
000300 2e ae 40 bd a0 f4 6d 3c 1b a0 ef bd 30 be d1 3d
       -0.04704111 0.014523655 -0.117004596 0.102413535
000310 80 b0 44 bb 5a 01 d1 3d 2b 73 9c bd a6 7e 83 3d
       -0.0030012429 0.10205336 -0.07639154 0.06420641
000320 b0 fc 17 3c 66 4a 97 3d f6 44 d5 bd 4e 0d f5 bd
       0.009276554 0.07387237 -0.10413544 -0.11965428
000330 97 f4 d6 bd 7f 50 02 be 76 d2 c4 bd 28 0a a8 3c
       -0.104958706 -0.1272602 -0.09610455 0.020512655
000340 3c 87 16 3d 0b f2 00 3e 3e 02 6e bd 72 59 92 bd
       0.036750063 0.12592332 -0.058107607 -0.071459666
000350 3a e8 b1 bd de e7 2f bd 0a 81 98 bd 48 48 c4 3c
       -0.08686872 -0.042945735 -0.07446487 0.023960248
000360 92 be da 3d cc 99 6b 3d 00 8b 04 ba 72 50 a8 3d
       0.1068088 0.05751972 -0.0005056113 0.08218469
000370 6e 87 b6 bd d2 3b e8 3d 90 df 97 bc 4e 95 f1 bd
       -0.0891255 0.11339535 -0.01853922 -0.11796056
000380 36 bc 42 bd 4c 1f 40 3d a7 e0 d2 bd 20 43 af 3c
       -0.047542773 0.046904847 -0.10296755 0.021394312
000390 df 74 06 3e 86 98 1f bd 78 ac e7 3c 20 23 c3 3d
       0.1313052 -0.038963817 0.028280482 0.09528184
0003a0 78 ac 80 bc 60 29 e6 3b 15 3e af bd e0 1f 05 be
       -0.01570724 0.0070239753 -0.08556763 -0.1300044
0003b0 90 32 bd 3c b6 27 a3 bd 6f 7f a7 bd b6 a7 db 3d
       0.0230954 -0.07966559 -0.08178603 0.10725348
0003c0 1d 8f 06 be 90 2c e6 bd 0c e5 9b 3d 80 db 19 bb
       -0.13140531 -0.11238968 0.076120466 -0.002347678
0003d0 90 4a 59 3c 85 12 02 3e 7c 15 40 bd 74 60 0e be
       0.013262406 0.12702377 -0.04689549 -0.13903981
0003e0 90 e6 31 3d a4 96 bf bd 9c 07 f7 bd d2 6d 10 be
       0.043432772 -0.09354904 -0.12061998 -0.14104393
0003f0 78 b5 5b bd 00 7a 84 39 dc 3a 7b 3d 96 51 93 bd
       -0.05363986 0.000252679 0.06133543 -0.07193296

lstm.bias_ih_l0 f4 [200]
000000 3c 05 2b 3f ac 46 82 3f 86 af 06 3f cb 79 10 3f
       0.6680486 1.0177817 0.5261158 0.5643584
000010 28 6c 0f 3f a2 23 ca 3e ef e1 3f 3f bf 8e 42 3f
       0.5602441 0.3948031 0.7495412 0.75999063
000020 30 e1 05 3f 10 26 bc 3e 1d fb 4a 3f 3c e2 8e 3e
       0.52296734 0.3674779 0.7928942 0.27906978
000030 f5 b8 4b 3f 51 68 c1 3e 5e 24 a9 3f 83 c0 5e 3e
       0.795791 0.377749 1.3214223 0.21753125
000040 a1 03 5d 3f 5f ff 0c 3f 51 1a de 3e 1b 69 92 3f
       0.8633366 0.55077165 0.43379453 1.1438326
000050 69 a7 2c 3f c4 69 c9 3e 2b 54 0e 3f 5a cc 5a 3f
       0.6744295 0.39338505 0.5559718 0.85468066
000060 4f 82 00 3f 06 a7 02 3f 8f b5 32 3f 86 32 ea 3e
       0.50198835 0.5103611 0.69808286 0.4574167
000070 5c 0c db 3e 05 1d 2f 3f d8 ff e1 3e 7f 21 70 3f
       0.42782867 0.68403655 0.44140506 0.9380111
000080 69 55 bb 3e 5c f0 4d 3f 3f 8c 90 3f f5 4d d7 3e
       0.365886 0.80444884 1.12928 0.42051664
000090 e2 93 89 3f b1 6d 2f 3f fe 81 ad 3f fb 69 c3 3e
       1.0748255 0.6852675 1.3555295 0.38166794
0000a0 98 19 12 3f 08 24 bd 3e d1 4a 18 3f e0 25 14 3f
       0.570703 0.36941552 0.5948916 0.5787029
0000b0 a9 bd fa 3e c4 10 86 3f 07 cf 21 3f 28 af 08 3f
       0.48972824 1.0473866 0.63206524 0.5339227
0000c0 95 6c 95 3e b6 a9 9f 3f 2c 95 8e 3d 98 03 cb 3c
       0.29184404 1.2473667 0.06962046 0.024781987
0000d0 40 84 21 3d 00 88 3c b9 80 cb 25 3d 60 b3 73 bc
       0.039432764 -0.00017979741 0.040477276 -0.014874309
0000e0 70 dc e4 bd 08 e3 1f 3d 96 90 a9 3d 50 95 7e bd
       -0.111748576 0.039034873 0.08279531 -0.062154114
0000f0 f8 94 fe 3c e0 8d 02 bc 51 95 b6 bd 40 93 d5 bd
       0.031076893 -0.007968396 -0.089151986 -0.10428476
000100 a0 e5 7e bc 3c ed 2e bd 6f 52 bf bd 48 e9 b8 3d
       -0.015557677 -0.042706713 -0.09341895 0.0902887
000110 8d 28 08 3e 34 07 1c 3d 3a 08 bd 3d 10 39 2f bc
       0.13296719 0.038092807 0.09230085 -0.010694757
000120 5a 83 68 bd 2a 07 a9 3d 56 29 05 bd a5 41 ba bd
       -0.05676589 0.082533196 -0.032510124 -0.09094552
000130 7e fd fb 3d f9 01 89 bd ba 59 a6 bd 04 48 ce bd
       0.12304209 -0.066898294 -0.08122583 -0.1007233
000140 c0 ab c6 3d b6 18 bd bd 74 8d 04 bd 28 89 c6 3d
       0.097007275 -0.09233229 -0.032361463 0.09694129
000150 bc 1d fb bd 10 29 af 3d 14 7e 58 3d b4 95 52 3d
       -0.12261531 0.08552754 0.052854612 0.0514123
000160 86 b3 d0 bd 58 2f 98 3c 70 41 85 bc d0 5d 85 bc
       -0.101904914 0.018577263 -0.016266555 -0.016280085
000170 21 94 d0 bd 03 b6 0c 3e 47 dd 86 bd bc b8 e6 bc
       -0.10184503 0.13741307 -0.06585174 -0.02816426
000180 78 ce 2b 3d 90 96 70 bd 8c 07 46 bd fb 61 04 3e
       0.04194495 -0.058737338 -0.04834704 0.12928002
000190 ef ff 95 be 62 08 6b 3e f9 90 05 3f d6 4b 45 3d
       -0.29296824 0.22952417 0.52174336 0.048168026
0001a0 38 6e dd 3e 59 bf 20 bc ec ab d8 be 28 4d 09 3e
       0.43248153 -0.009811246 -0.42318666 0.13408339
0001b0 ab 6d be be 0c 4e f3 bd b8 ea 8e 3d 3e ea 3b 3e
       -0.37193045 -0.11880121 0.06978363 0.18351075
0001c0 18 55 9d 3b 66 b3 15 3e a7 10 08 3c 21 61 0e 3e
       0.0048014037 0.14619216 0.0083047515 0.13904239
0001d0 f2 27 12 bf 23 8a 85 3e f3 b3 3f 3e 7c cc 24 bf
       -0.570922 0.26081952 0.18720989 -0.6437452
0001e0 0d 4b 53 be a6 3e da 3d de 76 26 3e 9f 2d 0f be
       -0.20634098 0.106564805 0.16256282 -0.13982247
0001f0 11 07 10 3e 98 36 93 bd ff 03 04 3e ae a7 67 bd
       0.14065196 -0.07188147 0.1289215 -0.056556396
000200 9a 44 3b 3e 7a 9a 85 3d 1c 2a 24 bf 88 64 f7 3e
       0.18287888 0.06523605 -0.64126754 0.48318887
000210 b6 68 9f 3d f0 39 93 be d8 5a 56 be c7 bb 44 3e
       0.07783644 -0.2875514 -0.20933092 0.19212256
000220 ac 1d 6f 3e 4f d3 99 be ba 61 0d be d2 e3 cf bc
       0.23351163 -0.30044028 -0.13806811 -0.025377188
000230 66 6d 1b 3f 6f f7 20 be e8 9f a7 be 0e 6e bc 3d
       0.60713804 -0.15719388 -0.32739186 0.09200679
000240 02 0b 3a be 12 57 f2 be 17 4d 06 3d d8 99 e3 bd
       -0.18168262 -0.47332054 0.032788362 -0.11113328
000250 aa c1 22 be d0 ef 52 bf a9 87 2c 3f 57 b8 b0 3f
       -0.1589419 -0.82397175 0.673945 1.3806256
000260 9b 69 fd 3e e6 dd 2c 3f d2 0d 12 3f 01 c1 d4 3e
       0.49494633 0.6752609 0.5705234 0.415535
000270 4c 11 4c 3f dd 00 22 3f 7c 6d 1e 3f 15 41 8f 3e
       0.7971389 0.6328257 0.6188581 0.2797934
000280 56 0d 58 3f 35 cd 84 3e 86 e1 6b 3f 53 4b e4 3e
       0.8439535 0.2593781 0.92140996 0.44588718
000290 f2 f1 79 3f 43 31 e3 3e 7f f6 4f 3f ba dc ca 3e
       0.97634804 0.4437352 0.812355 0.39621526
0002a0 94 4b e1 3e 0f bc 8e 3f 51 11 19 3f 22 ef 42 3f
       0.44002974 1.1151141 0.5979205 0.7614614
0002b0 b3 d6 27 3f 06 5e 5b 3f bc 7e 0a 3f da 57 15 3f
       0.6556198 0.85690343 0.5409963 0.58337176
0002c0 5e 1e fc 3e 8c 1d 34 3f dc 96 ec 3e d8 41 21 3f
       0.49241918 0.70357585 0.46208847 0.62991095
0002d0 4d 5c e8 3e fc e7 2a 3f 12 74 e9 3e fe c0 59 3f
       0.4538292 0.6676023 0.45596367 0.8506011
0002e0 c6 bb 5f 3f 18 ec 0c 3f 7c 8d 7f 3f ca 2c 3e 3f
       0.87395895 0.5504775 0.99825263 0.7428709
0002f0 64 e8 b4 3f c5 99 f2 3e dc 38 10 3f 26 4a f2 3e
       1.413342 0.47382942 0.5633676 0.47322196
000300 0c 59 41 3f bd 4b 34 3f 4e c7 09 3f 4f b4 62 3f
       0.755265 0.7042807 0.5381974 0.8855638
000310 ee 21 26 3f 86 7c b6 3e 3b a2 a5 3e 77 8c aa 3f
       0.6489552 0.3564188 0.32350335 1.3324116

lstm.bias_hh_l0 f4 [200]
000000 ac ee 31 3f 58 e9 80 3f 76 5a 17 3f a4 85 17 3f
       0.6950481 1.0071211 0.5912241 0.59188294
000010 ee 1a 2a 3f aa b4 bb 3e 18 90 18 3f 32 eb 21 3f
       0.6644734 0.36661273 0.5959487 0.63249505
000020 94 0d ed 3e 6b 45 c3 3e 94 2e 6f 3f aa 47 73 3e
       0.46299422 0.381389 0.9343045 0.23757806
000030 10 be 52 3f 30 8e 12 3f a0 63 91 3f 1c cc c9 3e
       0.8232126 0.5724821 1.1358528 0.39413536
000040 50 f4 7e 3f 3e ae 19 3f 70 49 cd 3e 90 7e 8f 3f
       0.9959154 0.600315 0.4009509 1.1210499
000050 7b 50 2e 3f 9d 30 9f 3e 09 b9 46 3f e1 88 82 3f
       0.68091553 0.31091776 0.7762609 1.0198022
000060 05 40 20 3f d2 b8 c6 3e 19 4f 31 3f d0 0e 0b 3f
       0.62597686 0.38812882 0.6926132 0.5431948
000070 a3 7e 0c 3f 9f 8d 21 3f ca 0d 1d 3f e9 89 79 3f
       0.5488073 0.6310672 0.61349165 0.9747606
000080 91 16 b4 3e 26 5f 47 3f 26 9d 85 3f 0f f0 1f 3f
       0.35173467 0.7787956 1.0438583 0.62475675
000090 44 7b 83 3f 4a da 0c 3f 5f c7 a1 3f 57 41 13 3f
       1.0271993 0.5502058 1.2638968 0.57521576
0000a0 4b d2 3c 3f 43 f6 e6 3e 76 8d 19 3f 81 b3 1a 3f
       0.7375838 0.45109758 0.5998148 0.6043015
0000b0 22 d9 1e 3f 79 61 78 3f 37 0b 42 3f ab 37 ad 3e
       0.6205007 0.9702373 0.7579836 0.33831534
0000c0 09 bc e2 3e e4 9d a4 3f 40 db e5 bb b4 b6 8a 3d
       0.44284084 1.2860684 -0.007014662 0.06773129
0000d0 1e ff 57 bd 5b 04 fc bd f0 72 90 3c 43 6b 05 3e
       -0.052733533 -0.12305518 0.017632931 0.13029198
0000e0 18 94 95 3d 1a e3 ee 3d 18 06 c9 3d c2 ba 0b be
       0.07303637 0.1166441 0.098156154 -0.13645461
0000f0 f6 2f a8 bd d2 1f e5 3d 72 d8 d0 bd 8c 0e 0b 3d
       -0.08212273 0.1118771 -0.10197534 0.03394942
000100 14 a4 34 bd 65 83 00 be 40 38 26 bb d0 d1 86 3d
       -0.04410179 -0.12550123 -0.0025363117 0.06582987
000110 08 be 85 3c 85 18 03 be 88 1a af 3d 38 96 83 bc
       0.016325966 -0.12802322 0.08549982 -0.01606284
000120 0c c5 94 3d 98 63 b4 bc fa c7 ef 3d 80 43 bd bd
       0.07264146 -0.022020146 0.117080644 -0.0924139
000130 78 07 31 bd 12 ea ce bd ee a1 d2 3d a8 75 53 3d
       -0.043220013 -0.10103239 0.10284792 0.051625878
000140 c4 ed 70 3d 9c 89 56 3d a4 4a a3 3d f0 74 91 3c
       0.0588205 0.05237733 0.07973221 0.017755955
000150 0e ca 30 bd 24 bc 08 3d 8d ad 05 3e ce 65 8d bd
       -0.043161444 0.03338255 0.13054486 -0.06904183
000160 46 44 88 bd 30 b0 0f 3d 66 50 ec 3d 7a e5 d5 3d
       -0.06653647 0.035080135 0.11538772 0.1044416
000170 bf 6e 01 3e 88 fc b3 3c 2a 56 b1 bd 98 89 09 be
       0.12639903 0.021971002 -0.086590126 -0.13431394
000180 bc bc a1 bd a5 e6 87 bd a6 72 50 bd a0 23 dc 3d
       -0.07897326 -0.06635789 -0.050890587 0.107489824
000190 6a 10 66 be a6 d9 0e 3e e0 62 a6 3e dc a7 55 3e
       -0.22467199 0.13950214 0.3249731 0.20864815
0001a0 05 73 ca 3e b0 68 ec bd 70 d3 e3 be b9 7e 0d 3e
       0.39540878 -0.11543405 -0.44497252 0.13817872
0001b0 c7 a8 b7 be b6 d4 ec bd e6 df 35 be 22 0e 67 3e
       -0.35870954 -0.11564009 -0.17761192 0.22563985
0001c0 df cd 71 3d 7a 01 22 bd 30 2a 40 bc 27 60 a1 3d
       0.059034225 -0.03955219 -0.011728808 0.07879668
0001d0 8a 8a 03 bf 4e 06 8c 3e 2c b7 c5 3d 28 c2 47 bf
       -0.5138327 0.2734856 0.09654078 -0.78030634
0001e0 e3 52 8f bd 0a da 24 bc 2d d4 1d 3e 11 fd 3f be
       -0.06998231 -0.01006175 0.1541297 -0.18748881
0001f0 46 ab 8b 3e ea 72 f5 bd 59 ae 7c 3e ad 0a 14 be
       0.2727911 -0.11984809 0.24675883 -0.14457197
000200 f0 2b aa 3d 0b 64 50 3c 34 00 0c bf 70 37 e5 3e
       0.08309162 0.012719165 -0.5468781 0.44768858
000210 f0 b5 9c 3d 30 c5 c3 be 0b dc f7 bd 32 8b 1a 3e
       0.07651889 -0.3823638 -0.12102517 0.15092161
000220 53 11 a1 3d 6b d4 81 be 99 f0 e7 3c bb 02 45 3e
       0.078646325 -0.25357375 0.028312968 0.19239323
000230 a7 2d 2e 3f 38 a4 d0 bb cd 17 01 bf 83 2e ca 3d
       0.6803841 -0.0063672327 -0.5042694 0.09872153
000240 53 d8 85 be 0f 57 6d be ad f9 c4 3d 8c 6d 88 bd
       -0.26141605 -0.23177741 0.096179344 -0.066615194
000250 ed 02 83 bd ed f5 4f bf db 25 dd 3e 02 af 97 3f
       -0.063970424 -0.8123463 0.43192944 1.1850283
000260 c7 2b 0e 3f ea 62 37 3f b5 fd 48 3f ef f8 cd 3e
       0.5553555 0.71635306 0.78512126 0.40228984
000270 5f f0 22 3f 4b a8 4e 3f c7 4b 35 3f f2 93 cf 3e
       0.6364803 0.80725545 0.7081875 0.4054256
000280 80 df 7d 3f 34 d9 44 3e 4c 86 6f 3f eb 48 17 3f
       0.9916916 0.19223481 0.93564296 0.5909564
000290 9d 5f 80 3f 8b bb 6b 3e fd 88 56 3f 04 19 1d 3f
       1.0029179 0.2302076 0.8380278 0.61366296
0002a0 45 27 d2 3e c4 9e 8d 3f 8c 55 2a 3f 83 5b 19 3f
       0.41045585 1.1064076 0.66536784 0.5990526
0002b0 ea 9a 14 3f 84 fe 49 3f ce 0d ea 3e f2 78 c4 3e
       0.5804888 0.78903985 0.45713657 0.38373524
0002c0 9d 3b 20 3f 80 bc 3a 3f 76 d7 2c 3f 43 45 21 3f
       0.6259096 0.7294388 0.6751627 0.6299631
0002d0 f9 3f 1a 3f 3a da 2d 3f 99 11 c1 3e 4b 48 6e 3f
       0.60253865 0.6791111 0.37708738 0.9307906
0002e0 ee b3 88 3f 26 00 b2 3e 7f c2 7a 3f 00 0c 41 3f
       1.067991 0.34765738 0.9795303 0.75408936
0002f0 3a 8d a3 3f 6a 1d a6 3e 1b 00 2c 3f 7a 87 e1 3e
       1.2777474 0.32444316 0.6718766 0.44048673
000300 01 9b 1a 3f 19 81 4c 3f 3a 69 32 3f 9c cc 69 3f
       0.6039277 0.7988449 0.69691813 0.91327834
000310 76 82 32 3f 98 9b b9 3e 1e 58 05 3f e6 59 a8 3f
       0.6973032 0.3625152 0.5208758 1.3152435

lstm.weight_ih_l1 f4 [200, 50]
000000 98 36 13 bf 3d 49 24 3e bd 3b 87 3e 22 40 f4 bd
       -0.5750518 0.16043563 0.26412764 -0.11926295
000010 3a b5 06 3c 3f f2 53 be 62 cc 26 bf 3a a2 12 3e
       0.008221919 -0.20697878 -0.65155613 0.14319697
000020 65 a9 8b be 5d 89 1b 3e 33 93 9b bc 47 0a d8 3d
       -0.27277675 0.15189119 -0.018991088 0.10548835
000030 a7 5f e8 3e 80 15 1d 3f 1f e0 10 3f 37 0e 09 be
       0.45385477 0.6136093 0.5659198 -0.13384329
000040 39 0e 1f bf ea d9 4b 3e 27 69 56 3e 19 3f 29 be
       -0.6213108 0.19907346 0.2093855 -0.16527976
000050 ba db c8 be d3 9b 89 bc f2 41 9f 3d ad 3c b4 3d
       -0.39230138 -0.016797936 0.0777625 0.088006355
000060 eb b8 0f 3e b2 6d 7e be b3 89 c1 3e 07 70 ff bd
       0.14035384 -0.24846533 0.3780037 -0.124725394
000070 6a 13 38 3e fb a4 76 be 79 fd 55 bf 59 11 37 3e
       0.17976156 -0.24086373 -0.83589894 0.17877711
000080 46 0e b1 3e 8d f7 bc 3d 63 9b 50 bf 00 06 44 3f
       0.34581202 0.09226904 -0.814871 0.76571655
000090 c0 27 c5 bd f8 b5 a0 be 33 15 35 3e ac 9c d2 3e
       -0.09626722 -0.3138883 0.17683868 0.41135156
0000a0 8b 32 33 3f 33 3d 62 3e 37 df fd be af a7 93 be
       0.69999 0.22093658 -0.49584362 -0.2883887
0000b0 34 32 9d be f7 e0 ab be 9b bc 10 bd bf fc 2f bf
       -0.30702364 -0.33570072 -0.03533612 -0.68745035
0000c0 4f db 9b be a9 6f cf be 26 ac 8c bf 20 f9 f8 bb
       -0.30440757 -0.40514877 -1.0990036 -0.0075980574
0000d0 6f 45 d8 3e 60 b6 83 be 96 b4 00 3f 10 72 a0 be
       0.42240474 -0.2572508 0.5027555 -0.31337023
0000e0 ee 9f 12 bf c9 d2 71 3e 19 a0 92 be f1 53 b1 be
       -0.57275283 0.23615564 -0.2863777 -0.34634355
0000f0 ae 15 43 be 1c ff 76 3e 3b ea 23 3f f8 8c a1 3e
       -0.19051239 0.24120754 0.6402928 0.31552863
000100 a2 cc 13 3e 48 e1 89 3e b9 a1 d2 be 3f ea 80 3d
       0.1443353 0.26929688 -0.4113901 0.06294679
000110 bf ee c0 bc 72 c2 a7 be 9b 06 45 be b3 43 86 3d
       -0.023551343 -0.32765538 -0.19240801 0.06555881
000120 42 b1 21 3f 56 30 d0 bd b8 b4 61 3e 14 50 98 bd
       0.631611 -0.10165469 0.22041595 -0.07437149
000130 91 c7 5f 3f d4 92 1c be db 6f 6c 3f 86 d7 be 3c
       0.8741389 -0.15290385 0.9235818 0.023296129
000140 8f fe 48 bf 97 b2 a8 3e 5a e6 32 be f0 f4 36 3d
       -0.78513426 0.32948753 -0.17470685 0.044667184
000150 4e 9a 5d bf 4d 5e 08 3f c0 6e a4 3e 5a b1 d6 be
       -0.86563575 0.5326889 0.32115746 -0.41932184
000160 d2 24 ab 3e 4c 13 8a 3e c5 01 4d 3f 85 a2 85 bc
       0.3342653 0.26967847 0.80080825 -0.016312847
000170 3f b4 8c bf c5 0b 59 bc 5c 1c 6d bf f5 52 c1 be
       -1.0992507 -0.013247435 -0.926214 -0.37758604
000180 f7 f2 2c 3d ac 48 ad be c3 2e 34 3e 21 fc 64 bf
       0.042223897 -0.33844507 0.17595963 -0.8944722
000190 a7 b9 cd be 7c 0f 69 be c7 eb af 3f 5e d0 c0 3e
       -0.40180704 -0.22759813 1.3743829 0.37658972
0001a0 14 ee 8a bd c8 b4 17 3f 54 61 d0 be 92 dd 2f 3f
       -0.06783691 0.59260225 -0.40699255 0.68697464
0001b0 97 b1 5a bf 52 53 ac 3e cc 36 0a bd 3d b0 60 be
       -0.8542723 0.33657318 -0.033743665 -0.2194223
0001c0 46 a8 e7 bd 55 9a 3f 3e c7 59 9e 3d 7e e9 ef be
       -0.113113925 0.18711217 0.077319674 -0.46857828
0001d0 61 4b f9 be dc 33 61 3f 33 02 79 3f 23 58 de be
       -0.48690322 0.87969756 0.9726898 -0.43426618
0001e0 24 a7 ef be 02 67 b5 be 0d bf 52 3e a4 cf 57 bf
       -0.46807206 -0.3543015 0.20580693 -0.8430121
0001f0 70 01 55 3f ae da ba 3e b8 3c 42 3e b7 bc 22 bf
       0.8320532 0.36494964 0.18968475 -0.63569206
000200 82 a9 12 be 82 de e0 be 0c 68 f4 be bd 0d a2 3f
       -0.14322475 -0.4391976 -0.4773563 1.2660443
000210 01 90 a3 be 46 ed 6a bf b4 28 ae be 98 df 90 3e
       -0.31945804 -0.917683 -0.3401543 0.28295588
000220 f8 f8 74 3e b3 30 03 be 04 d1 5b be d2 3e a0 3e
       0.23923099 -0.12811546 -0.21466452 0.31297928
000230 27 18 1f 3f 4b 47 e0 3e 0c 28 25 bf bf 73 25 be
       0.6214623 0.43804392 -0.6451423 -0.16157435
000240 86 01 bb bd 26 76 60 bf 36 6a 15 bf d8 0f 06 bf
       -0.0913115 -0.8768028 -0.5836519 -0.52367926
000250 5d fd 54 3e cc 76 39 bf a1 80 f3 be 2f 32 b2 bf
       0.20799775 -0.72446895 -0.47559074 -1.3921565
000260 06 28 da 3d 39 a5 f4 3e 09 fa e8 3e 7d 2b ab be
       0.10652165 0.47782305 0.45503262 -0.33431616
000270 f0 3e 93 bf da 79 e1 bd c6 31 30 be 76 4a fa be
       -1.1503582 -0.110095695 -0.17206487 -0.48884934
000280 36 65 e5 3e 61 29 59 3f 2c 05 f9 be ab 75 0a 3e
       0.4480378 0.84828764 -0.48636758 0.1352145
000290 82 a5 22 3f 64 bb a2 3e 29 02 5a bf cd fd c1 3e
       0.63533795 0.31783593 -0.85159546 0.37888947
0002a0 61 20 69 3e e9 6a a5 be c4 1f 5c be 41 85 13 bf
       0.22766258 -0.32308128 -0.21496493 -0.57625204
0002b0 e8 5c 69 bf 9c 3d c6 bc 2a f0 f7 3d c8 e0 bc be
       -0.9115739 -0.0241993 0.121063545 -0.36890244
0002c0 19 d2 f6 3e 35 9f 76 3d a0 67 d6 3d 49 73 72 bf
       0.48207167 0.060210425 0.10468984 -0.9470716
0002d0 e4 dc 92 bf c9 b9 04 3e f2 81 53 3f a1 63 86 bd
       -1.147366 0.12961496 0.82620156 -0.065619715
0002e0 db 08 cd be 57 9e 20 3f 97 20 b1 3e e6 dd 2c 3c
       -0.4004582 0.6274161 0.34595177 0.010550952
0002f0 23 7c bc 3e cb 07 28 3f f2 48 90 3f 4b 97 4e bf
       0.3681346 0.6563689 1.1272261 -0.80699605
000300 b1 d6 04 bf 73 11 90 be 1d 4f 0b bf 4e c2 a5 be
       -0.51890093 -0.28138313 -0.5441759 -0.32374805
000310 e4 37 0d 3f d3 31 99 be fa 8e 2b bf f2 81 29 bf
       0.5516341 -0.29920825 -0.6701504 -0.66213906
000320 7c 6e 06 bf 14 65 01 be 49 4b d6 3c 2a 13 8e be
       -0.52512336 -0.12636214 0.026158946 -0.27748996
000330 25 b6 8f 3e f4 d1 18 be 1f 45 39 bf 5b bf a3 b9
       0.28068653 -0.14923841 -0.72371095 -0.00031232354
000340 c5 6c 32 be ce 81 9d bd f3 ee a0 bd 91 fe 93 3e
       -0.17424305 -0.07690774 -0.07858076 0.28905156
000350 df 7a 9a 3e 0b b2 c5 3e be c6 8e 3e 10 6c 6b 3e
       0.30171868 0.38612399 0.27886003 0.22990441
000360 41 7f 25 bf 5a 90 f5 3d b2 36 31 3e 35 67 db be
       -0.646473 0.119904235 0.17306021 -0.42852178
000370 d8 23 04 bf 2a 3d fa 3d d8 5d 8b 3e e8 40 f0 3c
       -0.51617193 0.12218697 0.27220035 0.029327825
000380 c2 c9 0e 3e 3c b1 99 be e1 25 fd 3e e4 ec 14 be
       0.13944152 -0.30018032 0.49442962 -0.14543492
000390 66 68 ba 3e 49 3c c2 be cb d6 58 bf 15 27 66 3e
       0.36407775 -0.3793662 -0.8470275 0.22475846
0003a0 37 63 7c 3e ce 27 55 3e c9 c6 82 bf d7 74 8e 3f
       0.24647222 0.20815966 -1.0216914 1.1129407
0003b0 22 59 2e 3e db 68 00 bf 18 1e 8a 3e 21 95 fa 3e
       0.17026189 -0.50159997 0.26976085 0.489419
0003c0 49 2e 43 3f 0c e3 25 bc fe b1 0e bf df 02 b4 be
       0.762425 -0.010124933 -0.55740345 -0.3515844
0003d0 dc 3d bd be 59 a7 c6 be 36 a9 2e 3e 36 54 c8 be
       -0.36961257 -0.3879955 0.17056736 -0.39126748
0003e0 4c e1 67 be ad a4 b0 be 86 ae da be 30 6c 89 3e
       -0.22644538 -0.34500638 -0.42711276 0.26840353
0003f0 ae f0 d7 be 37 6c ef be e7 0d c3 3f f3 89 f4 be
       -0.42175812 -0.4676225 1.5238618 -0.47761497

lstm.weight_hh_l1 f4 [200, 50]
000000 2d 0c 10 be 48 49 03 bd 07 55 0a 3e 17 6b 05 be
       -0.14067145 -0.03205231 0.13508998 -0.13029133
000010 27 8a 0c 3e ee 37 a4 bd 8c 79 fd bd af 14 b8 bd
       0.13724576 -0.0801848 -0.12376699 -0.0898832
000020 f8 a1 dc 3d f7 2e 01 3e 94 9b 51 bd f4 ea c8 3d
       0.107730806 0.12615572 -0.05117376 0.09810439
000030 00 98 47 3b 62 08 c0 3d 40 1c cb 3b ed c4 0d be
       0.003045559 0.09376599 0.006198436 -0.13844652
000040 a0 57 04 3d e0 81 23 bc 28 27 b2 bc a7 28 95 bd
       0.03231013 -0.009979695 -0.021747187 -0.072831444
000050 30 11 07 3d d4 50 0a 3d 54 28 c8 bd ac 66 8f bd
       0.032975376 0.03376849 -0.09773317 -0.07002005
000060 1a b2 99 3d a9 c5 06 3e 38 c0 26 bd 68 3a ee 3c
       0.07504673 0.13161339 -0.040710658 0.029080585
000070 6a d2 a9 bd f9 88 03 be 7c 82 34 3d 40 76 f6 bb
       -0.082920864 -0.1284522 0.044069752 -0.0075214207
000080 18 5b 0b 3d 18 aa 85 bc 5e 8e c1 3d 6e c4 d7 3d
       0.03402242 -0.016316459 0.094509825 0.10535513
000090 18 c1 a9 bd 68 00 e2 bd f8 ce bd 3c 34 5d 59 3d
       -0.08288783 -0.11035234 0.02316998 0.0530674
0000a0 38 96 81 bc a4 9d 29 3d 1e fc c6 3d 34 26 b8 bd
       -0.0158187 0.041410103 0.09716056 -0.08991662
0000b0 90 94 81 bc 62 42 ce 3d 44 e8 fd bd 6e 41 e8 3d
       -0.01581791 0.10071255 -0.12397817 0.11340605
0000c0 24 57 03 bd 32 26 ca bd f0 52 5c 3c c8 dc 56 bd
       -0.032065526 -0.098705664 0.013447508 -0.052456647
0000d0 06 7b b4 bd e2 16 e8 3d 14 ea 97 3d 86 36 de 3d
       -0.08812527 0.113324896 0.07417694 0.10850243
0000e0 3c 69 48 3d 1b b7 d9 bd 40 8c 11 3d c8 3d f0 bd
       0.048928484 -0.10630628 0.035534143 -0.11730534
0000f0 53 b8 04 be db 66 03 3e 50 c9 03 be 87 95 0b 3e
       -0.12960939 0.12832205 -0.12869763 0.13631259
000100 32 4f 30 bd 40 86 f8 bc 97 a5 eb bd dc f1 62 bd
       -0.043044277 -0.030337453 -0.11506193 -0.055406436
000110 18 d0 2e 3d 80 67 72 3c 52 b0 63 bd a0 e4 fe 3c
       0.042678922 0.014795184 -0.055588074 0.031114876
000120 00 70 17 bb 02 7a a4 3d f4 e5 f4 bd b2 2d f9 3d
       -0.0023107529 0.08031084 -0.119579226 0.12166919
000130 ac 05 a1 3d e0 6a e8 3b 90 ab c2 bd b0 37 bd 3c
       0.0786241 0.0070928186 -0.09505379 0.023097843
000140 5c 81 3a 3d 30 5c a7 bd 3a 5c c8 3d 3e a5 b6 3d
       0.045533523 -0.0817188 0.09783216 0.08918236
000150 d0 01 d5 3d 16 ae fa 3d 5f 98 08 be 3c a5 7c 3d
       0.10400736 0.122402355 -0.13339375 0.061681017
000160 99 9b 0b 3e 4a 51 36 bd f5 9f 0c 3e 20 68 5a bc
       0.13633575 -0.044511117 0.13732894 -0.013330489
000170 e0 b8 9c 3b 90 a7 f3 bd f4 64 10 3d b4 c3 ce 3d
       0.004782781 -0.118971944 0.035252526 0.10095921
000180 a1 21 09 3e a4 bb d8 bd 7d 81 e4 bd bb 51 d0 bd
       0.13391735 -0.105826646 -0.111575104 -0.10171839
000190 ea ac 15 bd 58 ab 55 3d 30 61 a7 bd 84 15 90 bc
       -0.036541857 0.05216536 -0.08172834 -0.017588384
0001a0 a2 89 e8 bd 04 16 20 bd 4e 08 f2 3d c0 2d 20 3b
       -0.113543764 -0.039083496 0.1181799 0.0024441332
0001b0 03 0a f2 bd 6e be ce 3d 28 9a 71 3d 18 7d b0 3d
       -0.11818316 0.10094915 0.058984905 0.0861761
0001c0 60 af 2b bc c2 f4 ad 3d 78 b8 d9 3c 66 8a 9b 3d
       -0.010478824 0.084939495 0.02657722 0.07594757
0001d0 e1 8c bb bd ab 89 10 3e 5b a1 07 3e 12 43 ad 3d
       -0.0915773 0.14115016 0.13245146 0.08460058
0001e0 70 5b 1e bd 1d 3f 0f 3e b4 d7 0f 3d 60 a8 4c 3c
       -0.03866142 0.1398892 0.03511782 0.012491316
0001f0 98 49 7b 3d 80 90 b0 bc ce c5 ac bd a7 d2 0e 3e
       0.06134948 -0.021553278 -0.08436166 0.13947545
000200 d2 06 ca 3d 38 4b 33 3d 4e 95 06 bd 7e b7 9a bd
       0.09864582 0.043772906 -0.03285723 -0.075545296
000210 30 5f 97 bd b2 f9 c5 bd f9 c0 09 3e 77 dc 9c bd
       -0.073912024 -0.09666766 0.1345252 -0.07659238
000220 58 5e e4 3c d3 26 fd bd 6b 96 08 be b0 80 7b 3c
       0.027877018 -0.12360921 -0.1333863 0.015350506
000230 7f 88 07 3e b8 22 86 3c e6 5a c3 bd b0 af 36 bd
       0.13235663 0.016373977 -0.09538822 -0.044601142
000240 c0 ce 55 bc aa 2c 1c bd 46 d2 bf 3d 53 9d 0a be
       -0.013049781 -0.038128532 0.09366278 -0.13536577
000250 13 09 02 3e f8 64 10 be ec 7a 06 3d d2 8a 3b bd
       0.12698774 -0.14101017 0.03283207 -0.045786686
000260 a0 50 4f 3c bc 0b a7 bd 64 27 d3 3d 98 ed 6b 3d
       0.0126535 -0.08156535 0.103102475 0.057599634
000270 70 c0 0d bd cd 0c d5 bd bc f9 2c 3d 5a fb a8 3d
       -0.03460735 -0.10402832 0.042230353 0.082510665
000280 e0 0f d5 3b c0 7c c3 3b a3 40 00 be 68 57 d0 bc
       0.0065021366 0.005965799 -0.12524657 -0.025432304
000290 a6 ee 02 bd 2b c6 00 be 20 b2 3f bc 00 52 ce bd
       -0.031965874 -0.12575595 -0.011700183 -0.10074234
0002a0 a7 bf 07 be a0 cb 6d bc 1c d7 2a 3d b8 6a fd 3c
       -0.13256703 -0.01451388 0.04170905 0.030934677
0002b0 c4 32 c7 3d 26 e8 9b bd 9c 5d 0a be 5c 77 76 3d
       0.0972648 -0.07612638 -0.13512272 0.060172424
0002c0 04 28 d6 3d 39 eb f3 bd 20 71 6f 3c 6b a8 0c 3e
       0.10456851 -0.119100995 0.014614373 0.13736121
0002d0 0e 98 7a bd c0 1f 24 3c d8 39 cf bc e0 ec 0d 3c
       -0.061180167 0.010017335 -0.025296137 0.008662432
0002e0 ba 65 03 be ce 6c d0 bd 24 2f f0 bc d4 5e f3 bc
       -0.12831774 -0.10177003 -0.029319353 -0.029708304
0002f0 7e 0a fd 3d ec 88 85 3d 7c 55 01 be 20 e0 f4 3c
       0.12355517 0.065202564 -0.12630266 0.029892027
000300 44 00 46 3d ac 0c 9b bd f7 d0 f1 bd 55 e9 0d 3e
       0.048340097 -0.07570776 -0.11807435 0.1385854
000310 72 b1 89 3d 44 4d cc bc f0 31 23 3d da ad 2d bd
       0.06723298 -0.024939187 0.039842546 -0.042402126
000320 5e ec ce bd f5 22 07 be 38 60 b5 3c 19 86 08 be
       -0.10103677 -0.13196929 0.022140607 -0.13332404
000330 bc 5f 8f 3d 2a 7e f2 bd 8c cf ca bd 60 77 37 bc
       0.07000682 -0.1184047 -0.09902868 -0.011197895
000340 00 73 73 ba 04 32 1d 3d 6c a5 96 bc fe 17 e2 3d
       -0.00092868507 0.038377777 -0.018389426 0.110397324
000350 58 60 68 3d 64 ee 0a 3d 06 84 71 bd 86 65 e6 3d
       0.056732506 0.033918753 -0.058963798 0.11249833
000360 04 e1 af bd a4 88 2f bd 58 97 db bc b5 14 db bd
       -0.0858784 -0.04285492 -0.026805565 -0.10697309
000370 19 8e ff bd 78 ae 93 3c 3c f1 eb bc 3d 5a f5 bd
       -0.12478275 0.01802753 -0.028801553 -0.11980102
000380 60 76 ef 3b 80 55 93 3b 20 eb 03 bc 40 ed 1b bc
       0.0073078126 0.0044962764 -0.008051664 -0.009517014
000390 b4 b0 5c 3d 5a 3e eb bd d8 9a 76 3d b0 45 70 3d
       0.053879455 -0.11486502 0.060206264 0.05866021
0003a0 c0 bb fe bb 60 8b a4 bb e1 b1 b1 bd 86 49 37 bd
       -0.0077738464 -0.0050214976 -0.08676506 -0.04474785
0003b0 e2 10 ef bd 20 fe 90 3d f3 3a 06 3e 8c 2a 65 bd
       -0.11673142 0.070797205 0.13108425 -0.05594878
0003c0 5e 2b d1 bd d8 4c 92 3d 10 f3 05 3c 70 88 46 bc
       -0.1021335 0.07143563 0.008175626 -0.01211749
0003d0 50 5c 3c 3d 90 73 b4 bd 00 83 3a 3d 7b 93 b3 bd
       0.045986474 -0.08811104 0.045535088 -0.08768364
0003e0 cc cf da 3d 5e 06 85 3d 06 a8 b4 3d 6e d7 36 bd
       0.10684165 0.06495355 0.088211104 -0.044639044
0003f0 2d 2b 0d be 40 97 aa 3b bc f3 07 be c0 26 99 bb
       -0.13786002 0.0052060187 -0.13276571 -0.004673809

lstm.bias_ih_l1 f4 [200]
000000 88 c7 ae 3e 0f 2b fc 3e 72 b8 0e 3f b1 8e c5 3e
       0.34136605 0.492516 0.5575019 0.38585427
000010 58 11 3b 3e b9 ac 08 3f 4e ff 9b 3e dd 1b 1b 3f
       0.18268335 0.53388554 0.3046822 0.6058939
000020 f1 56 0f 3e da fb 8e 3e 98 b1 5f 3e e9 6c db 3e
       0.1399801 0.27926522 0.2184509 0.4285653
000030 4b cf e5 3e 99 43 d9 3e ad eb ad 3e 16 73 76 3e
       0.44884714 0.42434385 0.3396887 0.2406734
000040 3e 2b 3d 3f 46 6e 9d 3d 5c 89 a3 3e b6 03 81 3d
       0.7389411 0.076870486 0.31940734 0.06299536
000050 49 fb 72 3e 4d 58 05 3f 8a d7 a4 3e 8f 1b 94 3d
       0.2372867 0.5208786 0.32195693 0.07231819
000060 bc 74 a6 3e bd 2b af 3e 57 9c 44 3e 1f 45 c3 3e
       0.32510936 0.34213057 0.19200264 0.38138673
000070 d7 35 7b 3e e7 1b 1e 3d 7e 94 be 3e 16 16 e2 3e
       0.24532257 0.03860083 0.37222666 0.44157475
000080 f7 4a 29 3f 62 ce c5 3e 09 69 10 3f b6 04 33 3f
       0.6613001 0.3863402 0.5641027 0.69929063
000090 13 83 d5 3f c8 c7 06 3f 85 3c bb 3e bd 4d a3 3d
       1.6680626 0.5264859 0.3656961 0.07973812
0000a0 68 6a 17 3f ea 80 3a 3e ff e1 89 3e 6e 04 01 3f
       0.5914674 0.1821324 0.26930234 0.50397384
0000b0 06 85 94 3e 32 32 8c 3e 15 b9 61 3e 09 16 f6 bd
       0.2900774 0.27382046 0.2204326 -0.120159216
0000c0 e5 1a a4 3e a2 63 84 3f 82 47 96 3d f4 bf a5 bd
       0.3205177 1.0342906 0.07337858 -0.08093253
0000d0 00 dc 0f bd e0 91 7e 3d b0 0f 48 3d d8 65 b5 3d
       -0.035121918 0.062150836 0.048843086 0.08857316
0000e0 8f ed f2 bd b3 49 ed bd 20 74 8e bb 1c 80 c7 bd
       -0.11861717 -0.11586323 -0.0043473393 -0.09741232
0000f0 a0 bc 42 3d 00 c9 85 3b 78 5b 84 3d f6 e7 95 3d
       0.047543168 0.004082799 0.06462759 0.07319634
000100 9a ba d4 3d 44 58 6e bd e8 3e cf 3c 8c 3f 50 3d
       0.10387154 -0.058189645 0.02529855 0.050841853
000110 0c 2e 9b bd 6c e7 ac bd 38 71 05 be 5e 8f fa 3d
       -0.07577142 -0.08442578 -0.13031471 0.12234376
000120 b7 23 86 bd 26 2e ea 3d fc 00 05 be 8b ba 06 3e
       -0.06549781 0.11434583 -0.12988657 0.13157098
000130 a0 63 e7 3c 30 6f 51 3c 3e c6 bf bd 0c 6a df bc
       0.028245747 0.012782857 -0.093639836 -0.027272247
000140 d0 61 81 3d 44 71 00 bd bb 53 0b 3e 0c ca aa bd
       0.063174844 -0.03135802 0.1360616 -0.08339319
000150 fe ed f0 3d 7e d3 ea bd 14 52 84 3d e0 78 f5 3c
       0.117641434 -0.1146612 0.06460968 0.029964864
000160 14 7c 01 3d 63 eb f8 bd e0 6f 1d 3c 80 18 84 bd
       0.03161247 -0.121542715 0.009609193 -0.064499855
000170 c9 93 0f 3e 54 99 b5 bd 78 e8 b0 3d 84 46 aa bc
       0.1402122 -0.08867136 0.0863809 -0.020785578
000180 70 cb de 3c bc 52 35 bd d0 7f 11 3d 80 83 0c be
       0.027196616 -0.044268355 0.035522282 -0.13722038
000190 60 3e ab bc 9f 36 91 bd c7 52 38 3d 0f 77 b8 bd
       -0.020903766 -0.07090496 0.045000818 -0.090070836
0001a0 5f 74 1a bd 56 07 80 be 2b 3e 72 3e f8 9d c7 3e
       -0.037708636 -0.25005597 0.23656528 0.38987708
0001b0 6a b0 87 3d 06 58 a8 3d 96 a8 55 bb 48 2d 68 be
       0.06625445 0.08219914 -0.0032601706 -0.22673523
0001c0 e8 c6 1b 3e 4b 0c f3 3c 52 e0 d0 3d 6b 5c 00 be
       0.15212595 0.029668948 0.10199036 -0.12535255
0001d0 61 28 ff bd 28 fc b2 3d 40 f6 25 be dd c3 67 be
       -0.124588735 0.08739501 -0.16207218 -0.2263331
0001e0 b6 73 1a 3d 77 1a 25 be 2a 07 3b be f6 a9 d4 3d
       0.037708007 -0.16123377 -0.18264452 0.1038398
0001f0 b8 e1 e0 bc 41 91 a0 be 10 cf 83 3d fd 6a 57 be
       -0.027451381 -0.3136082 0.064359784 -0.21036907
000200 88 f9 79 be 4e 81 e2 3d 87 8c b8 3d 74 fe 53 be
       -0.24411595 0.11059819 0.090111785 -0.20702535
000210 5b d5 50 3d bd fa 02 3e 8d ae 9c 3d e4 08 16 be
       0.05098472 0.12790962 0.076504804 -0.14651829
000220 52 8f 65 be ab 3d ac 3d 3a c4 06 bd 3c 31 1b be
       -0.22417954 0.084102 -0.03290198 -0.151555
000230 8f 49 03 be 62 10 c2 bd 67 72 ec bd 36 da b1 3e
       -0.12821029 -0.09475781 -0.11545258 0.34736794
000240 7b 61 2a 3e 65 54 b1 3d 94 5b 1f 3c 66 c9 72 bd
       0.16638748 0.08658675 0.009726424 -0.0592741
000250 fa 46 7a be 73 89 6a 3d 97 6d 8a 3e 59 a6 b3 3e
       -0.24441138 0.057259988 0.27036735 0.3508785
000260 1f bf f7 3e e9 a9 86 3e a6 da 3b 3e 3f 8a a4 3e
       0.48388 0.26301506 0.18345127 0.32136723
000270 07 0a 9b 3e 2f 88 13 3f 8c fb 80 3e a9 71 cc 3d
       0.30281088 0.57629675 0.25191915 0.099826165
000280 aa c5 68 3e 1d e0 84 3e ed 23 73 3e a0 9a 16 bc
       0.22731653 0.25952235 0.23744173 -0.009192139
000290 b1 66 30 3f 87 37 2f 3e c9 58 09 3f 45 1e 14 3c
       0.68906695 0.17111026 0.536511 0.00904042
0002a0 38 17 d6 3e b6 f8 77 3e 5c 9d fb 3e f7 e0 c1 3e
       0.4181459 0.2421597 0.49143493 0.37866947
0002b0 16 0b a0 3d 36 9f 7a 3e 97 60 f5 3e 2d 41 4d 3e
       0.078146145 0.24474797 0.47925255 0.20044394
0002c0 3c fd 1a 3e 42 ea d1 3e e3 b2 17 3e e1 76 51 3e
       0.15135664 0.40999037 0.14814334 0.20455505
0002d0 ab 58 a7 3e e1 2a 10 3f 89 d3 65 3f b9 99 86 3e
       0.32684836 0.5631543 0.897759 0.26289156
0002e0 f4 9c bf 3e cd 45 03 3f 2d 83 13 3f a2 3f e6 3e
       0.37424433 0.5127838 0.57622033 0.44970423
0002f0 8e 7b bd 3e 51 ce 12 3e 57 79 dc 3e b7 e9 49 3e
       0.37008327 0.14336516 0.43061325 0.19718061
000300 0c fb 0b 3e 16 c6 14 3f b0 c1 e9 3e ee f8 82 3e
       0.13669986 0.58114755 0.45655584 0.25580543
000310 17 3b be 3e bf f2 d7 3c 35 be 55 3e 37 6b 50 3f
       0.37154457 0.026360868 0.2087334 0.81413597

lstm.bias_hh_l1 f4 [200]
000000 4b b9 86 3e c2 88 23 3f d1 35 16 3f 0c a3 92 3e
       0.26313242 0.6388055 0.5867587 0.2864002
000010 1a 9f 94 3e c7 81 cb 3e 1f e1 2e 3e dc 17 12 3f
       0.29027635 0.3974745 0.17078064 0.57067657
000020 ff 10 62 3e 9e dc 05 3e 20 8c 71 3e a2 65 cf 3e
       0.22076796 0.1307244 0.2358861 0.40507227
000030 6f 22 9a 3e ab 57 d1 3e e1 89 01 3f b0 47 ad 3e
       0.30104396 0.40887198 0.5060101 0.33843756
000040 0c ba 3d 3f bc c9 b0 3d cf 6d cf 3e 8a 08 6f 3e
       0.7411201 0.08632228 0.40513465 0.23343101
000050 1a 24 c1 3e 1a 44 eb 3e 3e 97 06 3e 86 ff 4f 3e
       0.37722856 0.45950395 0.13143632 0.20312318
000060 02 d5 ad 3e 5e 10 a5 3e 53 5b ce bc be 19 72 3e
       0.33951575 0.3223905 -0.025190031 0.23642632
000070 84 a2 60 3e f1 9a 4c 3e ce 3a ed 3d 08 2f 13 3f
       0.21936995 0.1998098 0.11583482 0.5749364
000080 6c 66 55 3f 80 dd b8 3e 56 37 f3 3e 58 4d 05 3f
       0.8335941 0.3610649 0.47503155 0.5207114
000090 f9 36 ea 3f 86 ab 15 3f 9f e4 b3 3e 25 de 0d 3e
       1.8298026 0.5846485 0.35135362 0.13854273
0000a0 80 39 f1 3e c4 bb 37 3e 0e c9 4e 3e bd b6 17 3f
       0.47114182 0.1794272 0.20193884 0.5926321
0000b0 02 27 63 3e b0 93 6d 3e 6f 64 99 3e f1 f5 ac bd
       0.22182849 0.2320087 0.29959437 -0.08445347
0000c0 8b c6 45 3e e5 2f 5c 3f be 76 b6 3d b0 91 4c 3d
       0.1931402 0.8601058 0.08909367 0.049943626
0000d0 18 28 a5 3c 40 67 b6 bb 34 0c 0f be a0 a7 37 bc
       0.02016072 -0.0055665076 -0.13969499 -0.0112093985
0000e0 20 4f a8 3b ac 44 46 bd 2a 55 8d 3d 4e 2a b1 3d
       0.0051363856 -0.048405334 0.069010094 0.08650647
0000f0 dd cc 02 3e b9 01 90 bd d4 12 0b be 42 de 9f 3d
       0.12773462 -0.070315786 -0.13581401 0.07806064
000100 ac be f8 bd a8 3f 5c bd 22 7b d8 bd c6 f0 90 3d
       -0.12145743 -0.053771645 -0.10570361 0.07077174
000110 a8 f7 8b 3c 08 88 64 3d 0e 2f ff bd 80 4b 00 3b
       0.017085865 0.055793792 -0.12460147 0.0019576252
000120 cb 44 04 3e 78 c6 2c bd 2c 30 cd 3d 24 77 48 3d
       0.12916867 -0.042181462 0.10018954 0.048941746
000130 e2 21 d5 bd a0 cc b1 bb ba 3e d1 3d 40 d6 ab 3b
       -0.10406853 -0.0054260045 0.10217042 0.0052440464
000140 a8 97 a4 3c 91 3e d2 bd b6 22 f5 bd 06 dc 8f 3d
       0.020091847 -0.1026584 -0.11969511 0.07024388
000150 e8 4f 9b 3c 48 b6 af 3c 57 9a 10 be a4 9c e7 bc
       0.018959 0.021449223 -0.14121376 -0.028272934
000160 2b be 0f 3e 56 ff ce bd 86 82 bb bd 78 12 bd bd
       0.14037387 -0.10107295 -0.09155755 -0.09232038
000170 ea 37 0d be 78 cd e3 bc 28 1e 89 bc 9b a9 8e bd
       -0.13790861 -0.027807936 -0.016738012 -0.069659434
000180 ac 82 7f bd ca 25 9e 3d 37 97 01 be c0 f2 a6 3c
       -0.062380478 0.077220514 -0.1265534 0.020379424
000190 f7 6b 04 be f1 6e 0d 3e 44 99 4c 3e e4 ed 54 be
       -0.1293181 0.13811852 0.19980341 -0.20793873
0001a0 8d a2 3a be c2 20 38 be 97 df 03 3e 70 66 81 3e
       -0.1822607 -0.17981246 0.12878262 0.25273466
0001b0 8d a5 cb 3d 28 30 14 3e 30 44 4c 3c 41 28 09 bb
       0.09943686 0.14471495 0.012467429 -0.0020928534
0001c0 04 16 49 3e 42 a3 b3 ba 67 93 2a be 39 11 d1 bd
       0.19637305 -0.0013705271 -0.16657792 -0.10208363
0001d0 e0 6e 31 be 8c 64 ee bd 0f 77 a5 bd 3b 3a 70 be
       -0.17327452 -0.116402715 -0.08079349 -0.23459713
0001e0 4d 04 1c 3e ff a4 62 be 5e 23 86 3c ba 95 8b bc
       0.15236016 -0.22133254 0.016374286 -0.017039169
0001f0 87 fc c2 bd c2 13 cf bd 36 c1 50 3d 1f 71 45 be
       -0.09520822 -0.101111904 0.05096551 -0.19281434
000200 46 34 7c be 71 b0 34 3e ad 32 75 3d 18 8f a8 3c
       -0.24629316 0.17645432 0.05986278 0.020576045
000210 ef 00 dc 3c f2 ee 61 3d 99 59 d1 3d 42 1a 3a bd
       0.026855914 0.055159517 0.102221675 -0.045435198
000220 9f 6f 4c be 2f 29 1a 3e 26 e8 10 3d 88 79 8f be
       -0.19964455 0.15054773 0.035377644 -0.28022408
000230 2a 92 da bd 53 9c a8 bd 5f de 3e be 5d 6b a0 3e
       -0.1067241 -0.082329415 -0.18639515 0.31331912
000240 80 54 f8 3d fe 37 fc 3d 5a da 4d 3e 46 50 a8 bc
       0.12125492 0.12315367 0.20102826 -0.02054609
000250 f2 5e f7 be a9 35 79 3d d5 c2 dd 3e cd 2b fd 3e
       -0.48314625 0.06084219 0.43312708 0.4944748
000260 e0 74 2b 3f e8 aa 7f 3e 16 aa 4a 3e cb 24 b4 3e
       0.6697521 0.2496754 0.19791445 0.3518432
000270 5e 38 9f 3e 56 7c f1 3e 67 88 70 3e 7d 91 21 3e
       0.31097692 0.47165173 0.23489533 0.15778156
000280 d4 8a ef 3e 84 71 31 3e 4a 99 b7 3e c3 65 e5 bd
       0.46785605 0.17328459 0.35859138 -0.1120105
000290 10 ae 3a 3f c2 d5 52 3e 33 05 2b 3f a5 af c1 3d
       0.7292185 0.20589355 0.6680481 0.0945733
0002a0 6e af a9 3e 0e d5 7e 3e 3e 02 c4 3e 35 de 13 3f
       0.33141655 0.24885961 0.3828296 0.57760936
0002b0 c6 b9 06 3e c6 e6 4b 3d 6b ba 79 3e c8 b6 22 3e
       0.13156804 0.04978063 0.24387519 0.15890038
0002c0 1a 21 62 3e f0 b5 9f 3e 5c 99 cb 3e a4 99 7d 3e
       0.2208294 0.31193495 0.3976544 0.2476564
0002d0 bf 30 c0 3e d7 7f 10 3f 30 ba 41 3f 15 04 ce 3e
       0.3753719 0.5644507 0.75674725 0.4023749
0002e0 dc 19 68 3e ba 70 c6 3e fa 5b 55 3f 52 c6 03 3f
       0.22666115 0.3875788 0.8334347 0.5147449
0002f0 14 f9 7c 3e bf 9e 2e 3d 40 a7 1c 3f fd f1 92 3e
       0.24704391 0.04263186 0.61192703 0.28700247
000300 0e 32 80 3e 25 77 33 3f 22 1d c7 3e c4 6c a7 3d
       0.2503819 0.70103675 0.38889414 0.08175042
000310 0e 1a 8d 3e e8 cb fa bd 4a ea 79 3e 66 08 29 3f
       0.2755894 -0.12245923 0.2440578 0.6602844
