LSTM_for_PDE/codes/model/ns2d_lstm_circle.pth (torch, 225889 bytes, 12 tensors)

lstm.weight_ih_l0 f4 [256, 3]
00000000: a89a 06bc b7bf 9e3d 32ec 41be d0c0 85be
00000010: 82c6 7dbe 90e0 25be 0fbc 0abe 1a1b 75be
00000020: 784f 90be da34 36bc 518b 0abc 329f a2be
00000030: 8a1c 09be a0be 1e3e 3d90 363e ef0f 6abd
00000040: 63bd 7f3c 3ad7 6dbe 21ad bd3d 517e 343e
00000050: 6ea4 73be da36 303d 91a5 043d 361b a0be
00000060: 9485 4dbe aa2b e43d 0eb0 31be b7b1 893d
00000070: a5f8 21be 8f90 893e 2138 1fbe ebe9 923b
00000080: d71a 533e 59c1 d93d 18c0 f3bd 7a6b e9bd
00000090: 905e b93c 0109 a7bd 2ab9 51be 1ed6 c1bd
000000a0: 7f73 8e3d 5b0b 9f3d b876 2abe c538 68be
000000b0: bc83 94be 1418 26be 3928 b4bd 57f0 27be
000000c0: 63d3 803d e733 d4bb 71df 063e ac64 ed3d
000000d0: 0cbf 083e 09ae f5bd 2773 adbd d19d bfbd
000000e0: 4d84 c3be e321 b33d 6979 d93d 9299 f5bd
000000f0: 00b7 883d ff2b 16be 41c2 97be 5000 50bc
00000100: 2d89 a13d fb04 b0be db7d f4bc d026 f63c
00000110: fbb4 79be bc55 a23d 23c1 11be da91 bdbe
00000120: b900 58be 56f4 a83e d37b 1bbe 4e03 663c
00000130: 5861 213d 6342 5abe 71fb d03d 39f5 2d3e
00000140: 6c97 963e 8624 44be 37f3 45bd 0f0a 97be
00000150: 6a52 893d 35d4 d13c ec40 57be 9fae 9b3e
00000160: 8f3a 9a3e c3e9 75be 4e1a b03c b39d 4c3e
00000170: 0654 2c3d bbfe 8c3d 9a1e 1d3d a51d 1ebd
00000180: c74f dbbd 5e35 6c3d cc95 b1be b5f0 d73d
00000190: 979c a83c b950 e8bd 4667 033e 72d1 d8bd
000001a0: b5e9 50be 7016 e7bd 868c cabd 1248 cdbe
000001b0: 8b74 bbbe 7443 f83d 81ae c6be ae14 3bbe
000001c0: 576b 363d ff09 a7be c2d9 5f3c 811a 09bd
000001d0: b62d e6be 5330 2cbd db95 61bb e4d1 c0be
000001e0: f11f dc3d 607e bd3d 9b72 9cbd d6bd 133e
000001f0: fb76 d7bd bc46 36be e0c4 1b3e 8fc2 933d
00000200: e541 d33d 9c0d 893c 50e6 a93d b688 36be
00000210: c343 683e d332 273d 6034 9bbe 3ed5 173e
00000220: baf7 9b3e 84bf 91be 88c9 84bd ce99 f9bd
00000230: 5e4c 6ebe 81bb fd3c 217f 39be 4642 82be
00000240: d946 343e e077 323e 79db 963e 31f0 e0bc
00000250: 02c6 ed3d a00f 99be 6d39 31be c0e4 523d
00000260: 8e1f a4be 335a 923d bbe2 e7bd 68b9 7cbe
00000270: 7731 f53d 47c3 613e 6b7e 69be c3f3 773e
00000280: 5457 c23c ddf7 38be 59da a5bc bcfa edbd
00000290: 27e9 cbbd 3224 cabd fd27 213e 7383 a9be
000002a0: efee 883c 6bde 50be 8824 73be 87af 22be
000002b0: fffb f5bd 3d06 c7be 98b3 3dbd 6132 ffbc
000002c0: 74ab 27be 151b 70bd 6996 323d 0be2 f0bd
000002d0: 023b 9dbd 165f 143e 4a33 93be c1c5 4abd
000002e0: 6dfd 93bd 800d 89be 87f4 c23d 0fb4 c73d
000002f0: faf2 42be fc78 5bbe 5f7b 143e 0181 7dbe
00000300: 8051 093b 00aa ca3c a8ec 86bd ecc2 32bd
00000310: 907f 553d 26bd ab3d 0464 023d b88b f4bd
00000320: 6e84 b03d b02f 683d 1807 a43c f279 91bd
00000330: 3ae4 babd a04b e63d 00e5 01ba 3874 9b3c
00000340: bcd6 763d 64ee 713d 8083 293d 388a 28bd
00000350: 74c3 4d3d dc08 d83d 90a2 19bc a0e7 533c
00000360: 0863 38bd 0811 3dbd d605 f0bd 4070 a4bb
00000370: 8c41 943d 886e 85bd c647 9abd f0d5 323d
00000380: 92c7 863d f4c6 eb3d 22cc febd 6ac9 f43d
00000390: 086f 43bd a4aa 583d b828 22bd 1c4b 0b3d
000003a0: 3605 ddbd 3291 a4bd 6a5f c63d 646c 5cbd
000003b0: fc6b 39bd f0af b0bc 605c 733d 5257 88bd
000003c0: 1454 7ebd 341e 473d b2e2 d83d 80f0 dcbd
000003d0: 1cde be3d 564a edbd 0046 623c 7c6d de3d
000003e0: 00a8 043d 928e f53d 5ccf 18bd 946e 813d
000003f0: 1eb4 fdbd f608 87bd e22d fbbd 5cd0 7c3d
-0.008215584 0.077514105 -0.18937758 -0.26123667 -0.24782756 -0.16198945 -0.13548301 -0.2393612
-0.2818563 -0.011120999 -0.008456067 -0.3176208 -0.13389793 0.15502405 0.1782846 -0.0571441
0.015609118 -0.23226634 0.09261537 0.17626311 -0.23793194 0.04302106 0.03238446 -0.3127076
-0.20070487 0.11141141 -0.17352316 0.067233495 -0.15817507 0.26868102 -0.15548755 0.0044834516
0.20615707 0.10632581 -0.11901873 -0.11397453 0.022628099 -0.08156014 -0.2048079 -0.09464668
0.06955623 0.07765838 -0.1664685 -0.22677906 -0.29006755 -0.16220123 -0.08796734 -0.16400276
0.06290319 -0.006475914 0.13171174 0.11591467 0.13354129 -0.11996085 -0.08469229 -0.09356273
-0.38186875 0.08746698 0.1061886 -0.11992182 0.066755295 -0.1466522 -0.2964039 -0.012695387
0.07887492 -0.343788 -0.029845169 0.030047804 -0.24385445 0.07926509 -0.14233832 -0.37025338
-0.21094026 0.32998914 -0.15183954 0.014038874 0.039399475 -0.21314387 0.10204209 0.16988076
0.294124 -0.19154558 -0.04832765 -0.29499862 0.06705172 0.025613884 -0.2102086 0.30406663
0.30122802 -0.24014954 0.021496918 0.19982032 0.04207232 0.068845235 0.038359262 -0.03860249
-0.10708576 0.057668082 -0.34684598 0.10543958 0.02058248 -0.113435216 0.12832364 -0.105868235
-0.20401652 -0.112835765 -0.09890084 -0.40094048 -0.36612353 0.12122241 -0.3880501 -0.18269607
0.04453596 -0.32624814 0.013662757 -0.03347254 -0.4495675 -0.042038273 -0.0034421596 -0.37660134
0.1074828 0.0925262 -0.07639047 0.14427885 -0.105207406 -0.1780042 0.1521182 0.072148435
0.10315303 0.016730122 0.08295882 -0.17825589 0.22682099 0.040819954 -0.30313396 0.14827439
0.30462438 -0.28466427 -0.064837515 -0.12187539 -0.2327132 0.030973198 -0.18114902 -0.25441188
0.17605151 0.17428541 0.2946432 -0.027458282 0.116100326 -0.29894733 -0.17307062 0.051487684
-0.32055324 0.071461104 -0.11322542 -0.24680102 0.11972325 0.22047149 -0.22802131 0.24214081
0.023723282 -0.18063302 -0.020245718 -0.116200894 -0.0995658 -0.09870185 0.1573791 -0.331081
0.016715495 -0.20397346 -0.23744404 -0.15887271 -0.12010955 -0.38871947 -0.046313852 -0.031151952
-0.16373998 -0.058619577 0.043600474 -0.11761864 -0.076772705 0.14489397 -0.28750068 -0.049505
-0.072260715 -0.26768112 0.09519296 0.0975114 -0.19038 -0.2143287 0.14500187 -0.24756242
0.0020953119 0.024739265 -0.06588107 -0.043642923 0.052123606 0.083856866 0.031833664 -0.11940712
0.08619009 0.056686103 0.020022914 -0.07103337 -0.09125562 0.11244893 -0.0004955083 0.018976316
0.06026338 0.059065238 0.041385174 -0.04114744 0.050235227 0.10548565 -0.009377137 0.012933642
-0.04501632 -0.04615882 -0.11719863 -0.005018264 0.072390646 -0.06515223 -0.07533221 0.043661058
0.06581034 0.11512557 -0.12441279 0.11952479 -0.04771331 0.05289711 -0.039589614 0.034007177
-0.107920095 -0.08035506 0.096861675 -0.053814307 -0.045268998 -0.021568269 0.059414268 -0.0665728
-0.062091902 0.04861279 0.10590114 -0.10788059 0.09319708 -0.11586444 0.013810635 0.10860726
0.03238678 0.11990084 -0.03730713 0.06319919 -0.1238787 -0.06593506 -0.12264611 0.061722144

lstm.weight_hh_l0 f4 [256, 64]
00000000: 3449 d93d 9c77 67bd 7841 2e3d fc10 73bd
00000010: 04ff e1bd 08fe fe3c a06e 323d 3cac 113d
00000020: e820 f93c a89e c1bc 94e3 93bd 16e8 b8bd
00000030: ee1b e8bd 00b8 59b9 48b8 fdbc d406 febd
00000040: d844 c1bd b09d dc3c b8b7 c8bc ece0 e9bd
00000050: 7093 60bd ccb7 0d3d 5c46 9e3d e096 b0bd
00000060: 8043 fc3d 7e59 d83d 4c47 f13d d014 64bc
00000070: ccfa 1fbd 9050 b3bd 1e0a e23d 8095 5c3b
00000080: 240e 043d 6047 65bd a014 0dbc 4c63 4cbd
00000090: 8c79 7f3d 5ec5 c0bd 9274 c43d 4826 903d
000000a0: baf1 f73d 1041 2ebd 2025 43bc 7cec 3c3d
000000b0: 96b0 963d 14c1 aa3d 68e5 c8bc 4c0b 7cbd
000000c0: 6063 9abd 6e2c cf3d c0f7 5bbb 70b0 043c
000000d0: 0401 b93d b437 a33d 64f9 f03d e2cb 9e3d
000000e0: e834 8abd 3a99 d4bd ac42 1f3d dc9b 373d
000000f0: 602b 16bc c0fa 4a3d 54f4 b03d 00af f6ba
00000100: ece5 ffbd 5cba ca3d d6f0 8dbd d2ea f53d
00000110: 06c4 a23d a0c7 ca3c 0473 d4bd 0cda f33d
00000120: 98cb a13c f0a5 2c3d 0850 c1bd 304f 56bc
00000130: c432 5ebd 1201 b63d 50fe 503d 0cfb 38bd
00000140: 6069 8cbc 04eb 383d fce2 bb3d b040 8ebc
00000150: 7c9c 833d 000f b43b 8489 773d c403 36bd
00000160: bc49 9bbd 6471 e1bd 60af fabd ea5e e0bd
00000170: e652 b03d 6c35 4e3d 0857 d0bc c098 883d
00000180: 48aa 473d 64e8 2a3d 98b5 9abc f8e1 c7bd
00000190: 901d e63c dc69 7e3d 6ed4 c23d 84bf 10bd
000001a0: a812 9c3c 76c4 b83d 42c7 ed3d 5a51 c93d
000001b0: 4a52 e7bd 066c dc3d 60d6 8f3c ea8e 943d
000001c0: ac57 c5bd 009d b83c 949b c9bd 000d d23b
000001d0: b479 c1bd 4498 a5bd 60fd b5bd faca a8bd
000001e0: e038 d1bc e243 dc3d f0b3 d6bd ce4a 9abd
000001f0: 42d3 d5bd 6887 dabd 04f6 50bd 1052 0bbc
00000200: 88c7 093d c6ee eebd 447b b73d 28f6 a13d
00000210: 8660 dcbd 2014 893d 3484 6d3d 3e2b b03d
00000220: f093 b73d 8269 9bbd 2470 05bd 865d bb3d
00000230: 0c09 07bd e03d bc3b 4073 e53d 287c 813c
00000240: 409d 75bb d0e2 c03d 8031 b9ba f08e 2c3d
00000250: b00c 6bbc ca72 d53d f881 583d 70d7 69bd
00000260: e475 3f3d 00e8 243b e83c febc 1893 a63d
00000270: 9a15 afbd b4d2 77bd 9a89 fdbd 64c1 44bd
00000280: f890 5e3d 3efe e0bd 70e1 ca3d 3ab9 d83d
00000290: 2c42 1b3d 64ee 8e3d a053 c2bc f80f 98bd
000002a0: f4a6 2dbd c081 153b 80e6 9f3b 7015 25bd
000002b0: c8c1 97bc f400 f43d 905d fb3c e2fa 94bd
000002c0: 9c03 fdbd 66e2 a43d 9498 01bd b071 4dbd
000002d0: 5056 a4bc b80b 783d 244a a4bd 7047 37bc
000002e0: 201b b83d 1805 9bbd 7049 1a3c 7aa0 f93d
000002f0: fe5f a2bd 56a6 c0bd 8aeb b0bd 7c5c f8bd
00000300: 1876 d8bd 208c 3f3c 06f9 cb3d e24f 9dbd
00000310: 72e3 bc3d c251 dbbd a08d e7bd a289 b43d
00000320: fa4e c3bd f0c7 e33c 7455 44bd 707e 07bd
00000330: 804f 58bd 8c8f 0bbd 00c6 573d dce5 113d
00000340: c4c4 0cbd a824 263d d0d2 053d 888f 6bbd
00000350: 8077 dd3d 809e db3c 7edf d23d f462 e43d
00000360: d6be c53d f08a b1bc 5896 ba3d 641e 88bd
00000370: 0ee9 efbd 94fb 223d 984b 98bc f05f bb3c
00000380: 8453 eb3d e0bc 62bd e08b d53c 0c1d 6e3d
00000390: c229 aa3d d4b8 79bd b85d cd3c 64d0 dcbd
000003a0: f2e8 d63d 28be c0bd deb6 babd d09f a33d
000003b0: f414 3bbd 0046 473a 601d 4f3d bc03 fa3d
000003c0: 7c10 53bd 20e2 09bd be55 d33d 784a 8f3c
000003d0: 00f0 db38 d400 c9bd 3ef0 d0bd ee90 f73d
000003e0: 52fe 8ebd cea1 f5bd 348e 823d b8a3 553d
000003f0: b6cb f6bd 2a6d a8bd f07a d63d fc86 6dbd
0.106096655 -0.056510553 0.042542905 -0.05934237 -0.110349685 0.03112699 0.04356253 0.035564646
0.030411199 -0.023635224 -0.072211415 -0.09028642 -0.11333452 -0.00020763278 -0.030971661 -0.12403646
-0.09436959 0.02693066 -0.024501666 -0.114198536 -0.054828107 0.03459911 0.07728264 -0.08622527
0.12317562 0.10563944 0.11781177 -0.013920978 -0.039057538 -0.087556005 0.11037086 0.0033658445
0.032240048 -0.05597627 -0.008610874 -0.049899384 0.062371776 -0.09412645 0.095925465 0.070385516
0.121066526 -0.042542517 -0.011910707 0.046123967 0.073579 0.08337608 -0.024523452 -0.06153421
-0.075384855 0.10115896 -0.0033564419 0.008098707 0.09033397 0.07969609 0.117663175 0.07753731
-0.06748372 -0.10380788 0.038881943 0.044826373 -0.009165615 0.04955554 0.08640352 -0.0018820465
-0.12495026 0.098988265 -0.069307014 0.12007679 0.07947545 0.024753392 -0.103735 0.119068235
0.019750401 0.042150438 -0.09439093 -0.013080403 -0.054247633 0.08886923 0.05102378 -0.045161292
-0.01714009 0.045146003 0.09174153 -0.01736483 0.064263314 0.005494952 0.06043388 -0.044437185
-0.07582423 -0.11007956 -0.122404814 -0.109556034 0.086095616 0.050343916 -0.025432125 0.0666976
0.048746377 0.04172553 -0.018885419 -0.09759897 0.028090268 0.062112674 0.09513174 -0.035338894
0.019051865 0.09021847 0.11610271 0.0982997 -0.11294992 0.10762791 0.017558277 0.07253821
-0.09635863 0.022535801 -0.09844127 0.006410241 -0.09447041 -0.08085683 -0.08886218 -0.0824184
-0.025539815 0.10755135 -0.10483539 -0.07533799 -0.10440685 -0.10670358 -0.05101587 -0.008503452
0.033637553 -0.11666636 0.08959058 0.07908279 -0.10760598 0.06693292 0.057987407 0.08601998
0.08963764 -0.075884834 -0.03257765 0.091486976 -0.032967612 0.0057446808 0.11203623 0.015806273
-0.0037477762 0.09418261 -0.0014129132 0.042128503 -0.014346287 0.10422285 0.052858323 -0.057090223
0.04674329 0.0025162697 -0.031034902 0.08133525 -0.08549042 -0.060503677 -0.12379761 -0.048035994
0.05433747 -0.10985993 0.0990628 0.10582204 0.037904903 0.06979063 -0.023721516 -0.07424921
-0.042395547 0.0022812933 0.0048797727 -0.040303648 -0.01852502 0.11914244 0.030684263 -0.072744146
-0.12354204 0.080509946 -0.03163965 -0.05015725 -0.020060688 0.06055805 -0.08021954 -0.011186466
0.08989549 -0.07569331 0.009416923 0.121888116 -0.07928465 -0.09406726 -0.086386755 -0.12127015
-0.105693996 0.011691123 0.09959607 -0.07681252 0.09223069 -0.107089534 -0.1130631 0.08815314
-0.09536548 0.027805299 -0.047933057 -0.033079565 -0.052810192 -0.034072444 0.052679062 0.0356196
-0.034367338 0.040562302 0.03267175 -0.05750993 0.108138084 0.026808977 0.10296534 0.11151686
0.0965554 -0.021672696 0.09110707 -0.066464216 -0.117143735 0.039790705 -0.018590733 0.022872895
0.11490539 -0.055355906 0.026067674 0.05813317 0.08308746 -0.06096728 0.025069103 -0.10781935
0.104936495 -0.094112694 -0.091169104 0.07989466 -0.04567428 0.00076016784 0.050565124 0.122077435
-0.051529393 -0.033662915 0.103190884 0.017491564 0.00010487437 -0.09814611 -0.102020726 0.1208819
-0.069821015 -0.119937524 0.06374779 0.052158087 -0.120505735 -0.082239464 0.10472667 -0.05799006

lstm.bias_ih_l0 f4 [256]
00000000: 99e0 58bd 65f6 c8bd e4a1 a8bd 2648 313d
00000010: 2d23 77bd 86fa 1e3d 699c 84bd b45e 953d
00000020: 5c1c c3bd 9253 973d 1c4b ff3d 0485 023e
00000030: 894f 8e3d d2a0 e63d d586 a93c 1226 c2bc
00000040: d7e7 553e 9620 033e a841 a9bd 2de5 373d
00000050: b8b7 e63d d0e5 fe3d c189 4a3d 01a9 ce3d
00000060: 6100 a13b f05a e0bc 2863 bdbc 0eca 633e
00000070: 8970 123d fb10 9b3d 3445 3d3e 7ec7 113d
00000080: 0da7 1d3e 234b 913d 3b8e a13b 4cc9 f23d
00000090: 2470 063e e771 6fbd d059 903e 498b a8ba
000000a0: 65b3 0f3d 5da6 6ebc 46ff 083e 0e6c 7bbd
000000b0: a327 053e 615d 7a3d e8d6 0d3e 3f42 013e
000000c0: 4b1c 26bd 1d9f 78bd ddab 6bbd 9eaf e73d
000000d0: 12d0 943d e367 353d f217 bf3d 6e4f 73bd
000000e0: 18b8 d83d 367c a7bd f9fd 433d 1f95 10bc
000000f0: 6ce4 afbd d387 eb3c 7db3 c0bd 6611 79bc
00000100: 0049 903a 04c9 6dbd 52e8 de3d f0ac 11bd
00000110: 4cfd c93d ea88 f6bd 643d e73d c8bc fbbc
00000120: 9849 64bd 72c7 e2bd 1064 01bc d0cf 5e3c
00000130: 86f9 94bd f0fb 5b3c f8e1 bbbc 94d9 f93d
00000140: 70be d8bc 2cc7 e93d 0015 eebb 3031 eebd
00000150: 860a dfbd 7c85 a13d b227 edbd 14ca eabd
00000160: 1034 59bd d4cc e5bd 0601 af3d f4a5 bdbd
00000170: 8cca a6bd 2e3a 8f3d a0a9 3e3d 0015 c43c
00000180: 88bb 51bd 48b2 873d 402c c93b 00ec 2f3c
00000190: 582a af3d 581e c6bc 1088 2fbc 5a0a e73d
000001a0: a8f3 ecbd 686d 5dbd 647f 34bd 28d9 e03d
000001b0: 90ad 1f3c d843 f23d deb7 e3bd 7c35 34bd
000001c0: 848f f7bd 3410 babd 9cb9 433d e440 c43d
000001d0: b4e2 053d 1ce4 cd3d 003e 1dbb e02e 60bd
000001e0: 28fa 8fbc 86db e0bd 4cb4 0abd 80a2 4e3c
000001f0: 3e90 d53d 58f4 913c e459 5f3d 1ed4 ba3d
00000200: 6707 383d ccc0 293d 0c04 4e3d fd1a 683d
00000210: a728 2ebd e733 a13d 79f3 f43d 3b78 023e
00000220: 1dd3 67bc 3131 603d b1a7 b5bd 2748 d43d
00000230: 07b7 cf3d 46b0 573d 4590 b33d b1f2 883d
00000240: 02a2 dcba 4d74 e83d 90b4 bdbd 581e 123e
00000250: 6071 03bc f9ad 6abd 59b6 89bc b2f0 363e
00000260: b041 08bd 53e3 b03d 6cf7 1d3e 8761 803d
00000270: d126 d23d ddb5 efbb 14cc 8ebc 0119 9d3d
00000280: 8c4c e4bd 7fe2 2f3d c1b0 98bc 55cc a13d
00000290: 8115 14bd e9ed d0bd 66b6 5c3e 31ad 863a
000002a0: 2aab c3bc 4b93 2dbe 07f8 22bd 51e2 b4bc
000002b0: 9922 13be 7751 d73d 6137 083d 11bd 40bd
000002c0: 998d 95bd 474a 1bbe 9846 703d 8167 1cbe
000002d0: d79b 9e3d af37 06be 6ad7 e6bd dbe6 1f3e
000002e0: 2d7c f0bd 66f6 923d a3fe 85bd 86c3 8dbc
000002f0: 2205 80bd 0fcc d53a 4200 a43a 9d0f 963d
00000300: 1a28 093e 45e3 b63b 71fe 153e 02ab 703c
00000310: d0e4 373c 9cdb 3a3d 856d bbbb bf9d f93d
00000320: feb9 ab3d fa02 30bd e578 01bd b754 7d3d
00000330: d674 673d 340c 163e 2ea3 cd3b f6a7 66bd
00000340: df0a e53d 4fd4 40bd c2c9 43bd 786a 733d
00000350: f40b d1bb 7054 5ebd 5513 ce3d a31d 843b
00000360: 4bc4 0bbc f3aa 433d addf 3a3e 15af 9c3c
00000370: c87e b33d 22c1 f73d ba80 2dbc ae90 bb3d
00000380: 1473 43bc 0d68 8a3c 497c de3d 589d e93d
00000390: 808a 0c3e 2cf8 ce3b bc07 2e3e 5be1 073e
000003a0: 908a 863c 5062 f2bc ccf1 df3c 770e 723c
000003b0: 0408 88bd 3ed2 0bba 5d0f 093e 8e12 323e
000003c0: 6a11 3d3e 8661 013e 664f a33d 8266 263e
000003d0: ca2d c23c dad3 d9bc ae2a 903d 35e1 af3d
000003e0: b516 08bc 4fcc 1bbb e6f7 323e 760c 173c
000003f0: d981 04bc 8c9f 073d 0206 1c3e d284 eabc
-0.052948568 -0.09812621 -0.08234003 0.043281697 -0.06033628 0.038813137 -0.06475145 0.07293454
-0.095268935 0.07388987 0.12465498 0.12746054 0.06948764 0.11261143 0.020694176 -0.023699794
0.20889221 0.128054 -0.08264476 0.044896293 0.1126551 0.12446177 0.04944778 0.10090829
0.0049133752 -0.027387112 -0.02311857 0.22245046 0.035751853 0.07571598 0.1848343 0.03559064
0.15395756 0.07094409 0.0049302853 0.118548006 0.13128716 -0.058458235 0.28193521 -0.0012858893
0.035083193 -0.014566031 0.13378629 -0.061382346 0.13003401 0.06112421 0.13851511 0.12622927
-0.040554326 -0.060698617 -0.05753695 0.11312793 0.07266249 0.044288527 0.09330739 -0.059401922
0.10581988 -0.08177988 0.04784963 -0.008824616 -0.0858849 0.02875129 -0.09409235 -0.015201902
0.0011008084 -0.05805303 0.10884155 -0.035565317 0.09862766 -0.12037833 0.11291006 -0.030729666
-0.055734247 -0.110731974 -0.007897392 0.013599351 -0.07274155 0.013426766 -0.022934899 0.12199703
-0.026457995 0.11414942 -0.007265687 -0.116304755 -0.10890679 0.07886788 -0.11579837 -0.114643246
-0.053028166 -0.112207085 0.08545117 -0.09260169 -0.081441015 0.06993519 0.046548486 0.023935795
-0.051204234 0.06625801 0.006139308 0.010737419 0.08552998 -0.02418439 -0.010713592 0.11281271
-0.11569911 -0.054059416 -0.0440668 0.10978919 0.00974597 0.118293464 -0.11119054 -0.04399632
-0.1208792 -0.09085122 0.047784433 0.095826894 0.032686904 0.10053274 -0.0023993254 -0.054732203
-0.017575338 -0.10979371 -0.03386335 0.012611985 0.10427903 0.017816707 0.054529086 0.091224894
0.044928934 0.04144363 0.05029683 0.056666363 -0.042519238 0.07871228 0.11960501 0.12741177
-0.014149454 0.054734413 -0.08869875 0.103653245 0.101423316 0.05265834 0.087677516 0.06686915
-0.001683295 0.113503076 -0.09262955 0.14269388 -0.008022636 -0.05729482 -0.016810583 0.17865255
-0.03326577 0.08637109 0.15426415 0.06268602 0.1026131 -0.007315381 -0.017431296 0.07670785
-0.11147413 0.042940613 -0.01863897 0.07900301 -0.03615332 -0.10201628 0.21553954 0.0010275004
-0.023885328 -0.16950719 -0.03978732 -0.022080572 -0.14368667 0.10513585 0.03325594 -0.047055308
-0.07302398 -0.15165053 0.058661073 -0.15273859 0.07744568 -0.13107179 -0.11271556 0.15615408
-0.11742435 0.07175903 -0.06542709 -0.017305147 -0.06250979 0.0016311425 0.0012512284 0.07327197
0.13394204 0.005581292 0.14647843 0.014689209 0.011223987 0.045619592 -0.005719843 0.12188291
0.083850846 -0.04297159 -0.031609435 0.06184837 0.056507908 0.14653093 0.006275556 -0.056312524
0.11183714 -0.047077473 -0.047799833 0.05942771 -0.0063795988 -0.054279745 0.10062281 0.0040318533
-0.008530687 0.04777045 0.18249388 0.019126454 0.08764416 0.12097384 -0.010589773 0.09158455
-0.011929292 0.016895318 0.10863549 0.11406964 0.13724709 0.0063162055 0.16995138 0.1326956
0.016423494 -0.029587895 0.027336977 0.0147739565 -0.06642154 -0.0005333758 0.13384767 0.1738989
0.18463674 0.12634858 0.079741284 0.16250041 0.023703475 -0.026590277 0.070393905 0.08587877
-0.008306195 -0.00237729 0.17477378 0.0092192795 -0.008087599 0.03311114 0.15236667 -0.028627787

lstm.bias_hh_l0 f4 [256]
00000000: 65f9 47bd e682 933d df22 1dbd 562b 31bd
00000010: 8a52 06bd 1ee3 343d 17ed e63b be0e 3e3d
00000020: 9010 d93d e295 0f3e b4ce 343e dd88 303e
00000030: 1151 e9bc 2672 db3d fbdb 35bd a18f 653d
00000040: aaf3 833b c2b1 bf3d e107 b7bb 0d09 87bd
00000050: e6a8 84bd 1b9a aabd ae97 813d 3108 7f3d
00000060: 37e4 133e 8e04 2abb 58d3 bcbc 676e bb3c
00000070: d1e2 e2bc 5d2f 4e3e c227 413d d216 4d3e
00000080: d5c8 083e afa3 1dbd 138f 103d 9f09 e53d
00000090: c14a 7dbd 1e91 cd3d 4d5c 6e3e 5da6 b93d
000000a0: 5685 0d3e ff93 c4bc 4a50 1d3e b87c c63c
000000b0: 9f91 3ebb 8a4b d43d 39f6 df3d f272 e83d
000000c0: d860 153d 4345 1f3b a7e0 053e 8f26 5dbd
000000d0: 1e4c 893d dda6 ed3c 02f1 103e 7a29 40bd
000000e0: 809a 3a3d 3d59 553d 8c47 593d 90f0 71bc
000000f0: 42f7 6a3d f322 8abd b657 87bc 5991 023e
00000100: 3ae9 c8bd 9432 703d 1429 1fbd a0d5 7c3c
00000110: 4031 85bb c007 fabd 8835 d63c ec80 253d
00000120: b807 d3bc 16b7 f53d 4eb8 c8bd 4044 2cbb
00000130: 4ee0 ebbd 14b7 30bd 24b0 4e3d 98eb f0bd
00000140: c60f ab3d d896 f73d 4039 59bc 066b b93d
00000150: a036 72bc 9c9c 583d 9c20 e7bd 0001 9e3a
00000160: f870 8cbc 2451 c43d 7479 1cbd 680e 0fbd
00000170: b053 9f3c 78f1 f1bd 70ec a03c 0e53 893d
00000180: 80f7 74bd 6420 2c3d 4cb3 19bd 0a56 99bd
00000190: 5052 a43d 10a9 7fbc e080 9c3c 0054 193b
000001a0: f0fe ef3d ac73 75bd 0086 123b 2060 393d
000001b0: 24a5 70bd 3055 a9bc 80ac 7f3b 008b 17ba
000001c0: f0d7 ea3d 9816 85bd 5e4a c6bd 8031 d7ba
000001d0: 30e4 f0bd 28f3 ca3d 0021 babb 003c 42b9
000001e0: 988e 203d d85d b83c 52a5 cfbd 88c1 98bc
000001f0: 48f8 1abd d0d2 36bc 94ba b23d d0e1 e4bd
00000200: 87c7 0cbd 0be8 aa3b 0157 813d 3144 803d
00000210: 9c3a c4bc b049 313e 05bf c63d 4719 f73d
00000220: ea89 27bd be77 4abb 57f5 3bbc fec8 87bb
00000230: c668 8b3c b3ef 323d 4558 56bd 744f b73d
00000240: 2902 343c 8a47 cd3c cdd7 a8bc fbf9 4ebd
00000250: c501 8cbd 1fc6 d43d 41ed b1bd 1139 fa3d
00000260: 3178 163e d339 fbbd 65a2 adbd c2cb 9c3d
00000270: 8cc4 233d 808f 223c 2596 8f3c 91df 293c
00000280: f29b 39be 65b0 88bc fbee d83d a9a7 e9bd
00000290: bd8d 5e3d 8a74 e2bd 59bb 353e 848b d4bd
000002a0: 38f3 7fbc b858 89bc e815 0d3d 81df 2cbe
000002b0: 2658 27be bdb2 3c3d 33a5 b03d b5c4 eebd
000002c0: 1dad df3b 51e7 ab3c 7ca7 453d e9c8 fcbd
000002d0: 02f8 593b 305e cc3d d907 d8bd 8f3f 823d
000002e0: f1fe 42bd 6eeb 723d 4518 803d d636 653a
000002f0: 2ad1 7bbd 9931 fd3c dd20 2a3e 1f6e 1cbd
00000300: 6476 e93d 680b 893d bc41 8a3d 3748 a73b
00000310: 6d27 ca3d f32f dd3d 85e1 3cbd d4b3 5bbc
00000320: 6ec1 cb3d 1b02 183e f117 943d d16e 3d3e
00000330: 3567 f43d e5ce 4e3d e2e8 3d3d 5156 873d
00000340: ac58 eb3c 115a 84bc 96c6 393c 44c0 63bd
00000350: 6329 2dbd 116c 85bd 3478 6ebd 13e3 19bd
00000360: 8f61 7e3b b702 123e 2172 913d 44bc 6d3c
00000370: 904c 503e 3b1d 443e 8751 a03d 61a4 b13d
00000380: 70c5 42bd 4e98 223e cb34 163c 2dc3 ce3d
00000390: 7a21 ffbb 3fbd d23d b59e a03e 5c3d 5f3d
000003a0: da08 4f3e 23d1 3bbd 2091 913c fa4e 653d
000003b0: ca46 c8bd 9e58 6c3d e18b a73d 9181 0fbc
000003c0: 4b29 eebc 76b8 c13d d6d7 813d 0e78 94bd
000003d0: c22c 3d3d cfb9 f33d 4e36 123e 0fc1 8ebc
000003e0: 4619 233e 177c 96bd 2476 c0bc a6da 983d
000003f0: 0eda 15bd 0272 d33d 0839 aa3c 8a3e 87bc
-0.048821826 0.07202701 -0.038363334 -0.04325422 -0.03279356 0.04416191 0.0070473063 0.046400778
0.10598862 0.1402202 0.17656976 0.17239709 -0.028481038 0.107151315 -0.044399243 0.05604518
0.0040268498 0.093600765 -0.005585656 -0.06593523 -0.06477527 -0.083301745 0.06327759 0.06226367
0.14442526 -0.0025942656 -0.023049995 0.022879792 -0.027696045 0.20135255 0.047157057 0.20028237
0.13357861 -0.03848618 0.035292696 0.11183476 -0.06183887 0.100374445 0.23277397 0.090649344
0.13820395 -0.023996351 0.15362659 0.024229392 -0.0029078496 0.103659704 0.10935635 0.11350049
0.03646931 0.0024302758 0.1307398 -0.05399185 0.06703971 0.02901023 0.14154437 -0.046914555
0.0455575 0.052087057 0.053046748 -0.014766827 0.05736471 -0.06744947 -0.016521316 0.12750758
-0.098101094 0.058641985 -0.038857535 0.015431792 -0.004064709 -0.122085094 0.026148573 0.040406153
-0.025760517 0.119978115 -0.09800778 -0.0026285797 -0.11517392 -0.043143347 0.05046095 -0.11763686
0.08352618 0.12089318 -0.013258278 0.09053616 -0.014783531 0.05288373 -0.112855166 0.0012054741
-0.017143711 0.09585789 -0.038201764 -0.03492585 0.019449085 -0.11813635 0.019643992 0.067052945
-0.059806347 0.042023078 -0.037524506 -0.07487114 0.08023512 -0.0156042725 0.019104421 0.0023396015
0.11718547 -0.059924766 0.0022357702 0.045257688 -0.05875124 -0.020670503 0.003901273 -0.00057809055
0.11466968 -0.0649845 -0.09682153 -0.001641795 -0.11762273 0.099096596 -0.0056802034 -0.00018523633
0.039198488 0.022505686 -0.10138954 -0.01864697 -0.037834436 -0.01115866 0.08726993 -0.11175883
-0.03436997 0.00521565 0.06315423 0.062630065 -0.023953728 0.17313266 0.09704403 0.12065368
-0.04090301 -0.0030894126 -0.011472068 -0.004143833 0.017017733 0.043685626 -0.052330274 0.08950701
0.010986843 0.025058527 -0.020610714 -0.05053137 -0.06836275 0.10389351 -0.08687831 0.12217916
0.14694287 -0.122668885 -0.0847824 0.07656051 0.039982364 0.009921908 0.01752765 0.010368244
-0.18125895 -0.016685674 0.10592457 -0.11408932 0.05433439 -0.11057384 0.17747249 -0.10378173
-0.015621953 -0.016765937 0.03444472 -0.16882135 -0.1634222 0.046068896 0.08625259 -0.11658613
0.0068260566 0.020984324 0.04825543 -0.12343008 0.0033259396 0.09978902 -0.10548372 0.06359779
-0.047606412 0.059306554 0.06254629 0.0008743828 -0.06147877 0.030907439 0.16614099 -0.038190957
0.11399534 0.06691629 0.06750819 0.005105044 0.09870801 0.10800161 -0.04611351 -0.013409574
0.09949003 0.14844553 0.07231129 0.18499304 0.11933748 0.05049028 0.046364672 0.066082604
0.028728805 -0.016156228 0.0113388505 -0.05560328 -0.042275798 -0.06514753 -0.058220103 -0.03757007
0.0038815474 0.14258848 0.071018465 0.014510218 0.20341706 0.19151776 0.0782805 0.08673931
-0.047551572 0.15878412 0.00916786 0.100958206 -0.007785973 0.10290002 0.31371084 0.054501876
0.2021822 -0.045853745 0.017769396 0.05598352 -0.09779127 0.0577017 0.08180977 -0.008758918
-0.029072424 0.09459011 0.063399956 -0.07249461 0.046185263 0.119006746 0.14278528 -0.017426042
0.1592761 -0.07347887 -0.023493834 0.07463579 -0.036584906 0.1032448 0.020779148 -0.016509313

lstm.weight_ih_l1 f4 [256, 64]
00000000: a65b 61bd 7a87 a73e 2cb5 33bd f829 063e
00000010: b233 c93c 2e0a 41bd 781c 3b3e d7b5 fa3a
00000020: 0d68 4b3e cac8 983d a697 593b f1e7 773e
00000030: e480 3d3e d42b 08bd 298c 72be f210 f5bd
00000040: 3601 1d3e 876e d8bc df68 5dbe dff5 2f3e
00000050: ef31 95bd 0818 0c3e 3080 61be a404 193d
00000060: d183 7bbc cd36 41bd 26c0 4c3e 605c d83d
00000070: 160b f43d ec3f f0bd 077c 1b3e 92ff 6a3d
00000080: 0efb 5dbe 65f2 dabd 93bc 413e 3ce1 a73d
00000090: b90d ec3d 49a3 c4bd 0e38 1e3e bf76 143d
000000a0: 03c2 27be 350b 203d 2710 89bc 4df4 8c3d
000000b0: 4f59 97bd 4770 96bb 4f97 b53d c025 8dbd
000000c0: e175 cabd f00f 3ebe 97f6 173d bbff 3dbe
000000d0: f959 e93d a399 a93d fc18 65bd a690 fa3d
000000e0: d829 60bd 3c95 0abe 0be3 383e 06e9 1c3e
000000f0: 07b8 5cbe 10c8 b43d d2f6 213e 8112 37bd
00000100: 70ef 413e d23b cd3d 72dd 7f3a 83ee abbc
00000110: 5ca0 ffbd 9b29 c13d f3c7 683e 89bb 153e
00000120: b8a0 1e3d 0917 f03d 1a47 523d e609 423e
00000130: 9ebe fbbd 2617 943c 2850 7bbd 9323 5e3d
00000140: d62d 3a3e aea4 9dbd 75ac 2a3c 9a8b 673a
00000150: ab3c d53c b0d7 1abe fb47 16be d8d2 03bd
00000160: e37a 16be 4c69 f1bd 6333 43bd 0028 f73b
00000170: bd16 273e a3ad c63d b3c8 1ebd a45f 4cbd
00000180: 64d7 65bc 5eda d3bd e28c be3b 6ed6 143e
00000190: 71fc 90bd 6431 b43d 6c4d 663e feb6 ffbc
000001a0: 4f75 b1bd f746 2f3d 85b3 f6bb 5615 e6bd
000001b0: 663d b33b 8e2b 2e3d 4778 bebc b5bd fabd
000001c0: fbeb c23d 446f 7b3d 88a9 4fbd d085 07bd
000001d0: 03b3 c1bd 9c4f a63d 1b90 b8bd e664 103e
000001e0: 179d c83c 0c54 21be 1a04 053e e438 11be
000001f0: bb62 08be 0748 04bd 2d7d c7bd fa41 893c
00000200: 725f 02be a2b9 6d3e 8411 cd3d 7ccb 8dbb
00000210: 8ee6 2f3c 05bf 6e3d 21d4 3f3e 255e db3d
00000220: 3f91 463c 30d1 293e 19e0 16bd ba3e 1f3e
00000230: 1047 103e 2b46 d4bd d7c4 f2bd d277 25be
00000240: 1c0a 493e 0c46 ce3d 5943 253d d585 61bd
00000250: 6ab1 923d c9b5 213b 4b9a 3ebe 061e b13a
00000260: e001 1f3e ec76 873d 08ff 90bd 9b09 34be
00000270: fc1c f13d f8b8 0bbe b9f4 9d3c a65e 2a3d
00000280: 9f8a 1e3d b15c 35be 5493 5d3d 3a24 973d
00000290: 640f 363e 0637 88bc 5c80 e93d bcc2 273c
000002a0: 8b81 52be 42a5 9b3d 1d53 2b3e 9dc7 073e
000002b0: f4d1 8b3c 4c42 003e a5d1 4ebd 5042 803d
000002c0: 4b65 003c 5738 d5bd f391 ccbb 7431 1d3d
000002d0: 23ac dcbd 52ae 4cbd 8ea6 95bd f8d2 59bd
000002e0: b37c 3cbe eaba 30be 7d6c f63d 7a5d 6c3d
000002f0: b372 a0bc 761b 8fbd 94da 1bbd 363e a1bc
00000300: 44da b2bd 0b14 383d 8576 38bd 11d5 063e
00000310: aa4c 963d 24be a13d 010c 8a3a bbc6 b339
00000320: 7a2a 9dbc 10a8 0fbd 7ca7 72bc 09c9 f93d
00000330: d90b af3d eca8 0d3e 4000 223d 2d70 1e3d
00000340: 61e1 f93d af5a 42bc 0e18 16be acc0 b83d
00000350: daba 34bc bf64 143d c77c a03c da45 ee3d
00000360: be57 f0bd c693 9bbd 098a 87bd f072 b1bd
00000370: 742a 60bd 41f6 073b 30e6 f7bc ce3b 123e
00000380: 0b60 013e 18d7 283e e655 02bd 91ad c7bc
00000390: 2a75 163c 3d7e 05be f4bd 533e fc18 743d
000003a0: 3b58 b6bb 4179 823d db3f 783d f08a 1d3d
000003b0: 3555 dfbd 6bc9 683d 7540 95bd 85cb 863d
000003c0: 43a1 473b b1f4 f43d 44b8 b53d 3a33 75bd
000003d0: bb80 1cbd 1aaf ef3b e914 d43c 94e8 7b3d
000003e0: 59c8 16be 5848 993d 79df 5e3c 8ae1 333e
000003f0: 886a fc3d b851 70bc 9952 df3b ebad 453d
-0.055019043 0.32720548 -0.04387395 0.13101947 0.024560783 -0.04712885 0.18272579 0.0019127679
0.19863911 0.074601725 0.0033201962 0.24209572 0.18506199 -0.033244923 -0.2368628 -0.11966123
0.15332493 -0.026419891 -0.21622036 0.17183636 -0.07284915 0.13681042 -0.22021556 0.03735794
-0.015351252 -0.047171403 0.19995174 0.10564494 0.11916177 -0.11730942 0.15184031 0.057372637
-0.21677801 -0.10690764 0.18919592 0.08197257 0.11526055 -0.09601457 0.1545107 0.036246058
-0.16382603 0.039073188 -0.016731335 0.06882534 -0.07390081 -0.004591021 0.088667504 -0.06891966
-0.09885765 -0.18560767 0.0371004 -0.18554585 0.11394114 0.08281257 -0.05593203 0.12234621
-0.054727405 -0.13533491 0.1805536 0.15323266 -0.21554576 0.088272214 0.1581681 -0.04469538
0.18938994 0.100211754 0.0009760476 -0.020987755 -0.12481758 0.09431764 0.22732525 0.1462232
0.038727492 0.117231436 0.05133734 0.18949088 -0.12292217 0.018077444 -0.06135574 0.054233145
0.18181548 -0.07697426 0.0104170935 0.0008832753 0.026029905 -0.15121341 -0.14675896 -0.0321835
-0.14695315 -0.11787662 -0.047656428 0.00754261 0.16317268 0.09701087 -0.03876562 -0.049895898
-0.014028404 -0.103443846 0.0058151344 0.14534923 -0.070793994 0.08798483 0.22490472 -0.031215187
-0.08664953 0.042792287 -0.0075287246 -0.11234538 0.0054699657 0.042522006 -0.023250712 -0.12243215
0.09517666 0.061385408 -0.050698787 -0.033086598 -0.09457972 0.08120653 -0.09011861 0.1410099
0.024488969 -0.15754718 0.12989846 -0.14181858 -0.13318913 -0.032295253 -0.09740672 0.016755093
-0.12731722 0.23215345 0.100131065 -0.0043272357 0.010736121 0.05828764 0.18733265 0.10711316
0.01211959 0.16583705 -0.03683481 0.15551272 0.14089608 -0.10364946 -0.118539505 -0.16158989
0.19632763 0.10071954 0.04034743 -0.055059273 0.07162745 0.0024675003 -0.18613546 0.0013512976
0.15528059 0.066144794 -0.07079893 -0.17581789 0.117731065 -0.13644779 0.019281732 0.04159417
0.038706418 -0.1771114 0.05409558 0.073799565 0.17779309 -0.0166278 0.11401436 0.010239299
-0.20557229 0.0759988 0.16730924 0.1325974 0.017067887 0.1252529 -0.0504929 0.06262648
0.00783665 -0.104111366 -0.0062429844 0.03837724 -0.1077502 -0.049970932 -0.073071584 -0.05317971
-0.18406944 -0.17258802 0.12032411 0.057706334 -0.019585943 -0.0698766 -0.03805025 -0.019682985
-0.08733037 0.04494099 -0.045034904 0.13167216 0.07338841 0.078975946 0.0010532142 0.00034289606
-0.019185293 -0.035072386 -0.014810439 0.121965475 0.08547182 0.1383397 0.03955102 0.038681198
0.12201191 -0.011862441 -0.14657614 0.09021124 -0.011030877 0.03622889 0.019590748 0.11634417
-0.117354855 -0.07596545 -0.06618125 -0.08664501 -0.054727986 0.0020746144 -0.03026113 0.14280626
0.12634294 0.16488302 -0.0318202 -0.024374755 0.0091832075 -0.13036437 0.2067793 0.05959414
-0.005564717 0.063707836 0.060607772 0.03846258 -0.10904924 0.056832712 -0.07287685 0.06581787
0.003046111 0.11960734 0.088730365 -0.059863307 -0.038208704 0.007314575 0.025888877 0.0615011
-0.14724864 0.074845016 0.013603085 0.17566505 0.12325007 -0.014667921 0.0068152663 0.048261564

lstm.weight_hh_l1 f4 [256, 64]
00000000: cc40 aa3d 6c09 85bd f014 ecbc 4e70 b7bd
00000010: 989c 103d 82f1 fdbd 2c72 4abd d0d4 ccbd
00000020: 1ca2 3bbd a4ec 44bd 2a61 f6bd c028 723c
00000030: 88bf 373d d005 efbd 1495 83bd d03d 1c3d
00000040: 40fd bfbd 2877 a9bd e8ab bdbc c490 e4bd
00000050: 1e1b e7bd 4215 953d 0287 ac3d e423 113d
00000060: c07e cbbb 30cf c43d 6423 a4bd 90dd 64bd
00000070: 0099 32bd 605f db3d b0ba fa3c c012 4cbb
00000080: 20e2 17bc 4c78 b4bd b2ea d4bd 1e4f c63d
00000090: 0e22 b4bd b0b3 d73d a683 c63d ea97 9f3d
000000a0: f8fb b73c d08f 583d 2465 5a3d 342d db3d
000000b0: 5c05 d43d 92c9 85bd 2c20 c33d d053 203c
000000c0: ccb5 773d 262d 8e3d 1e79 81bd b839 123d
000000d0: 66c9 adbd 98f9 7c3d 5083 e53d 180b b0bd
000000e0: 28c4 8e3d c86d f6bd d8a8 963c c067 f23c
000000f0: 60f0 59bc 7031 a23c 8085 20bc a433 ee3d
00000100: a006 e1bd 5899 873d a8f2 f13d d85d f93d
00000110: 50b4 fb3c 0850 a33d 240e 32bd f842 edbc
00000120: b687 9e3d e878 bebd 3e23 d8bd a47f 33bd
00000130: e4a0 e93d 50cb 943d 04aa 623d a05a aebc
00000140: 4012 84bd ce81 ca3d 08d0 8dbd 5860 66bd
00000150: bcec fcbd 6081 93bb a059 dbbc f086 30bd
00000160: b431 8b3d b412 7d3d ecd6 2bbd c632 c43d
00000170: 345e 023d 5c0d 333d b088 f93d 7cc3 a63d
00000180: 285f d1bd 2866 f0bd 540e 873d b419 873d
00000190: c6c3 8e3d 5459 683d 5ced 493d 9433 d53d
000001a0: 7e73 cfbd c0a6 1bbc b2d7 9abd 70fb 123d
000001b0: 2cad 33bd 006a 273b 9036 ac3c b0dd b1bc
000001c0: c867 58bd 909a e9bd c6fc efbd ca3c df3d
000001d0: 30a6 663c 84a5 9f3d 5c4b fd3d c02a 92bd
000001e0: 1690 c13d 40ad 683b 502c fc3c 84a2 93bd
000001f0: 1880 fe3c 861e de3d 6897 e2bd aa0a b33d
00000200: 92b0 92bd e093 0fbd a8b8 33bd 52c3 a6bd
00000210: b869 0e3d b6fb edbd a239 db3d 7050 09bd
00000220: 7672 d8bd 960f efbd 584e 4dbd d05e fdbd
00000230: 40fe 53bc 581c 843c 301b d33c be64 90bd
00000240: 244c ef3d f0f3 57bc 205c 0fbd 6871 79bd
00000250: 5abe cd3d f0c2 ae3c a0a9 eb3c 802c 5f3c
00000260: 1ac7 c6bd c035 b73c de53 cebd 92fd f3bd
00000270: 0035 c03d c0dc b13d ac85 0dbd 48cf 56bd
00000280: 20d0 4fbd 0c0c b93d 885d c23d 12c3 863d
00000290: 5077 23bc 2468 213d f0a1 823c 5cd3 8dbd
000002a0: 58de cfbc 3075 9b3d 4000 e03b 3e1b 893d
000002b0: 50ab 33bd 06ed e63d 9231 81bd f878 cf3c
000002c0: a2ff 99bd daf2 d8bd d692 99bd 30f2 78bd
000002d0: 9a05 96bd 10f9 95bd 54f2 66bd 8eb1 d3bd
000002e0: b8a8 efbd a8f4 7cbd 00a8 b73a 1670 a63d
000002f0: 446e 3bbd 40da ccbd bac4 a53d 483d 63bd
00000300: 2c77 ba3d 3487 8a3d 0447 fabd f6f0 b2bd
00000310: 005e 7c3b b48b 60bd f8b0 513d 20cb 0ebd
00000320: 124a ad3d 68b8 82bd fcfb 9b3d 96eb e43d
00000330: 00a8 403c c0aa 083c 0818 443d 80e9 f0ba
00000340: 4881 acbc 389b ee3c c4e7 77bd d6c9 983d
00000350: 80c2 dc3d 9641 bdbd 40eb d0bb 08a6 ba3d
00000360: 70b1 013c a0ea f73b 02a6 813d ee8a 8fbd
00000370: 28d2 8e3c 9c17 56bd 1468 0b3d eadd 9f3d
00000380: 407a b9bd 40f1 c7bb 6222 fdbd f0a0 fa3d
00000390: a886 7e3d 645d 71bd a493 25bd b84f 903d
000003a0: 588a 623d 2c61 6abd a4a2 3fbd 04b2 a8bd
000003b0: 88b2 143d 94a1 25bd 08ac cdbd 5a0a e93d
000003c0: ce61 d3bd 70b3 82bc 143f dfbd 606a 90bc
000003d0: 783a 9c3c a618 eabd f85c e03c 40f4 01bc
000003e0: 069e a6bd f070 cb3d f630 fc3d 40c1 933b
000003f0: c04f 273c ce12 a4bd 5892 fa3c aaf8 b6bd
0.0831314 -0.06495938 -0.028818578 -0.08956967 0.03530559 -0.123995796 -0.04942529 -0.10001528
-0.045808896 -0.04807724 -0.12030251 0.014780223 0.044860393 -0.116710305 -0.06424919 0.038144886
-0.093744755 -0.082746804 -0.02315326 -0.11160424 -0.11284469 0.07279445 0.08424188 0.03543462
-0.006210178 0.096098304 -0.08014563 -0.05587536 -0.043602943 0.10711551 0.030606598 -0.0031139106
-0.009270221 -0.08812007 -0.10396327 0.09683059 -0.08795558 0.105323195 0.09693079 0.07792647
0.022459015 0.052871525 0.05331911 0.10701981 0.10352585 -0.06532587 0.09527621 0.009785607
0.06047611 0.06942205 -0.063219294 0.035699576 -0.08485679 0.06176147 0.112066865 -0.08595866
0.069710076 -0.12032658 0.018391058 0.029590487 -0.013301939 0.019798964 -0.009797454 0.116309434
-0.10987592 0.06621045 0.11813861 0.121761024 0.030725628 0.07974249 -0.043470517 -0.028962597
0.077407286 -0.09300405 -0.10553597 -0.0438229 0.114076406 0.07265341 0.05533792 -0.021283448
-0.064487934 0.098880395 -0.069244444 -0.056244224 -0.12349841 -0.0045015067 -0.026776135 -0.043097436
0.067965895 0.061785415 -0.041953012 0.09579997 0.03182812 0.043713912 0.12184274 0.081427544
-0.10223228 -0.11738235 0.0659453 0.06596699 0.069709346 0.056725815 0.04929863 0.10410228
-0.1012945 -0.0095002055 -0.07560672 0.03588432 -0.04386632 0.0025545359 0.021022111 -0.021712154
-0.05283335 -0.114064336 -0.117181346 0.109002665 0.014077708 0.077952415 0.12367889 -0.0713706
0.0945131 0.0035503656 0.030782849 -0.07208732 0.03106694 0.10845666 -0.11064035 0.087422684
-0.07162584 -0.035053134 -0.043877274 -0.08142723 0.03476879 -0.11620276 0.10704352 -0.033523977
-0.10568707 -0.11672895 -0.050123543 -0.123716 -0.012939036 0.016126797 0.0257698 -0.07050465
0.116844445 -0.013180718 -0.034999967 -0.06089917 0.10046072 0.021333188 0.028767407 0.0136214495
-0.09705944 0.022364497 -0.1007459 -0.11913599 0.09385109 0.08684683 -0.034551308 -0.052443773
-0.050735593 0.09035501 0.09490496 0.065801755 -0.009977177 0.039405957 0.015946358 -0.06925079
-0.025374576 0.07590711 0.0068359673 0.06694649 -0.04386455 0.112756774 -0.06308283 0.025326237
-0.07519461 -0.10593195 -0.0749871 -0.060777843 -0.07325287 -0.073228955 -0.056383446 -0.103366
-0.117021024 -0.06175676 0.001401186 0.081268474 -0.045759454 -0.100025654 0.08094163 -0.055478364
0.091047615 0.06764069 -0.122205764 -0.08737366 0.0038508177 -0.05482073 0.05119416 -0.034861684
0.084613934 -0.06382829 0.076164216 0.11177747 0.011758804 0.008341491 0.04787448 -0.0018380135
-0.02105774 0.029126748 -0.060523763 0.07460372 0.107792854 -0.09241025 -0.0063757002 0.09113699
0.00791584 0.0075658113 0.063304916 -0.070089206 0.017434195 -0.05226861 0.034034804 0.078059986
-0.090565205 -0.0061017573 -0.123600736 0.12237728 0.062140137 -0.058926955 -0.040424004 0.07046455
0.055307716 -0.057221577 -0.046785966 -0.08237079 0.036303073 -0.040437296 -0.10042578 0.113789275
-0.10321389 -0.015954703 -0.10900703 -0.017628849 0.019070849 -0.114304826 0.027388081 -0.007931769
-0.08135609 0.099336505 0.12314026 0.004509121 0.010211885 -0.08011399 0.03058736 -0.08934148

lstm.bias_ih_l1 f4 [256]
00000000: ec6b 3ebc 8e00 753e 23c8 323e 3ebd 833d
00000010: 50c9 bb3d cefc de3d 21b0 42bd bd5a da3d
00000020: 9ed5 99bd b2b3 573d eca0 513c 3705 223d
00000030: 8eb6 223e e78e d93d 9403 3ebd 680b 003d
00000040: c78a 1a3e 70f5 5b3d 4b95 8f3d d6b5 da3d
00000050: 6da3 073e 6e12 c53d 14d6 af3d 2c4a 4e3e
00000060: 2343 6bbc aebc 443e f3d3 d8bc 3c46 e53c
00000070: b149 7e3d 6213 99bc 387b 293e 1a61 2a3e
00000080: 4d75 883d 58a8 033e c342 5a3c 8df5 673c
00000090: 0dca 2c3e 3bdf 9c3d a0ba 8cbb 4a8a 9e3d
000000a0: 4e5e 043e 2d45 bfbc 0e37 32bd bcbf 243e
000000b0: 59ed 603e 307a c43b fa61 71bd d16f 3cbd
000000c0: a253 c1bc 0271 f13c 14ea 5abd 8854 2dbd
000000d0: c61d 8e3d 2d6c 58bc 9c7c 3b3e f879 70bd
000000e0: 07df 37bd e9ad 153e 6e41 2e3e b000 ed3d
000000f0: 119e 433d 681d 223e 0146 923a c11d f23d
00000100: 08ff b43c a8ec be3d e212 c83d 002c 36bd
00000110: c60e fdbd 28a3 d13d 30ef 9e3d c01b 023c
00000120: b41b 8bbd 305e ca3c 0002 a5ba 98b2 aebc
00000130: b438 0bbd 900e 923d 58e0 bdbc 3867 85bd
00000140: ecb2 3b3d b060 8c3c 0020 823c 006e 60bd
00000150: b84a 333d 00e7 8f3c 8a15 c53d 68c2 d63d
00000160: f888 00bd f84a dcbc 38cc 583d ecab 823d
00000170: c03f 22bd 289f c2bc 70e5 353c 20d8 a4bc
00000180: 02b5 d73d 782e fd3d 0499 06bd 003c 89bc
00000190: a4f7 29bd 6886 2d3d 6034 bc3b ee9c b13d
000001a0: e03b 943b c4bd a6bd 0ca9 573d 224b c63d
000001b0: cce5 d5bd 4a6c 89bd c8d6 e2bc 9224 dcbd
000001c0: 8046 03bc 80bb cf3d 4cb5 2b3d 1463 183d
000001d0: 40f6 c03d 80ab 84bb cc8f 2fbd 8a9f b93d
000001e0: 980c 31bd fab6 e2bd 0054 b53d 7023 b33c
000001f0: 7832 41bd 72c1 e73d 0056 dfb9 e8a9 4cbd
00000200: 47bb 69bd 3adf edbb 59cf 81bc 5d11 cabd
00000210: 25dd b0bd 2571 71bd d336 67bd 5f5a 11ba
00000220: 7c19 353c d2a6 303e ff96 f63b 4203 02bd
00000230: 12b0 383d 9774 55bd fc9c e4bd 84bd 203d
00000240: a705 02bd d546 29be a631 7e3d bc6e 4b3d
00000250: 9ca4 613d 6ba9 d73c a701 c2bd e488 67bd
00000260: ea99 6f3d 12a7 a13d 39fd d5bc e445 a83d
00000270: b09e 47bc bf35 6a3d d5fd f53c 7df5 d5bd
00000280: 6957 1e3d ce9a cb3d 614d e43d 0591 d8bc
00000290: e1f3 193d d4b0 143e 8dba b5bd fe20 e1bd
000002a0: 9083 8fbd 7b14 d2bc d67a 08bd 11c9 743d
000002b0: 6702 a43c d172 23bd b40b d23d 2228 ea3d
000002c0: a469 233c c4ba a83d bd4a 773d 6652 593c
000002d0: e3f6 203d 96dd d2bd d440 be3d 86c9 803d
000002e0: 151b de3d 2432 40bd 7527 6d3b e1ba e8bc
000002f0: e117 843d 97d1 2e3d 9efd 183d 2c25 8bbd
00000300: 2c70 8cbc 9736 e73d 3a41 8fbc fea5 c73b
00000310: da57 19bc c611 273e 77fd 613d a052 c43d
00000320: 539d ae3b 6d9a 0f3c acd1 103e 6c23 8ebd
00000330: 3257 2d3d 4755 f1bc a4e3 18bd 6187 983d
00000340: 5267 8a3d a785 743d 797c 0e3e b5e3 b93d
00000350: 0b46 d0bb 1a2a 223e 454c 643d 7db9 de3d
00000360: 4845 863d df0b 3a3e 51d2 443e dad0 523c
00000370: f553 243e 643b b13d 8bee 8a3d ba35 773c
00000380: 4d3d 263e 15b0 b33d d970 363e 1585 52bd
00000390: 2c8b 8ebc 88cd e23c 2e30 ecbb 9329 69bd
000003a0: b2bb 1a3e 1475 46bd 0f9e c53c 270a d4bc
000003b0: 421f db3d fbcc d7bc 1d86 da3d 760d 263e
000003c0: 94a5 823d 9ff6 fd3d 5aa8 9d3c fe3e 223e
000003d0: 4d08 8a3d a756 2d3e 3d4f 0a3e bc0b 063e
000003e0: 6623 b43d 424c 4f3e 1cf8 193e 3ac7 c73c
000003f0: 51af 6a3c 11cd 2e3d ebb6 22bd 68db 413d
-0.01162241 0.23925993 0.17459159 0.064325795 0.09169257 0.108880624 -0.04753125 0.10661838
-0.07511447 0.052661605 0.012794714 0.039555755 0.15889952 0.106229596 -0.04639013 0.031260878
0.15092002 0.053700864 0.07010897 0.10679214 0.13245936 0.09622656 0.08585754 0.20145482
-0.014359268 0.192126 -0.026468253 0.027987592 0.062081996 -0.018686 0.1655091 0.16638604
0.06662998 0.12857187 0.013321581 0.014157665 0.16873951 0.07659765 -0.0042947084 0.0774122
0.129266 -0.023348415 -0.043509535 0.16088766 0.21965541 0.005996011 -0.05893133 -0.046005074
-0.02359945 0.029472832 -0.05344589 -0.042316943 0.069392726 -0.013209385 0.18309253 -0.05871007
-0.04489043 0.14617123 0.17017147 0.11572397 0.047758166 0.1583153 0.0011159779 0.11822081
0.022094265 0.09322482 0.097692266 -0.044475555 -0.123563334 0.10236198 0.07760465 0.007941186
-0.06792393 0.024703115 -0.0012589097 -0.021325395 -0.033989623 0.07131684 -0.023178264 -0.06513828
0.04582493 0.017135948 0.0158844 -0.054792404 0.04377243 0.017566204 0.09623249 0.10486299
-0.031380624 -0.026891217 0.052929133 0.06380448 -0.039611578 -0.023757532 0.011102065 -0.020122588
0.105325714 0.12362379 -0.03286077 -0.016752243 -0.041495934 0.042364508 0.0057435483 0.0867251
0.004523739 -0.08141664 0.05265145 0.09682299 -0.10444221 -0.067101076 -0.027690306 -0.10749163
-0.008012414 0.10143185 0.041920945 0.037203863 0.094219685 -0.0040487647 -0.042861745 0.09063633
-0.0432249 -0.11070056 0.08853912 0.021867484 -0.04716727 0.11316194 -0.0004259795 -0.049966723
-0.057063367 -0.0072592767 -0.015845941 -0.09866593 -0.0863593 -0.058945794 -0.05644877 -0.00055447774
0.011053439 0.17251137 0.0075253244 -0.03174139 0.04508979 -0.052113142 -0.11162755 0.039243236
-0.03174367 -0.16530927 0.062059067 0.04966615 0.055088624 0.026325902 -0.094729714 -0.056527033
0.058496393 0.07893194 -0.026121723 0.082164556 -0.01218383 0.057180163 0.030028263 -0.10447214
0.03865758 0.09941636 0.11147571 -0.026436338 0.037586097 0.1452058 -0.08873472 -0.10992621
-0.070075154 -0.025644531 -0.03332027 0.059762064 0.020020677 -0.03990442 0.102561384 0.11433436
0.009973917 0.08238748 0.06037401 0.013264274 0.03929795 -0.102961704 0.09289709 0.062884375
0.10845009 -0.046922818 0.0036186848 -0.028409423 0.06449867 0.04268035 0.037351243 -0.06794199
-0.017143331 0.11289709 -0.017487157 0.006092786 -0.009359324 0.16315374 0.055173364 0.09586072
0.005328813 0.008764845 0.14142483 -0.0694035 0.042319484 -0.029459609 -0.03732647 0.074476965
0.06757988 0.059697773 0.1391467 0.09076635 -0.006356006 0.15836373 0.0557368 0.10875223
0.06556183 0.18168591 0.19220854 0.012867177 0.16047652 0.08653906 0.0678378 0.015088493
0.16234322 0.08773819 0.17816485 -0.05139645 -0.017400347 0.027685896 -0.007207892 -0.056924414
0.15110663 -0.0484515 0.02412322 -0.025883747 0.10699321 -0.02634286 0.10670111 0.16216072
0.06379238 0.12400555 0.019245315 0.15844342 0.067398645 0.16927586 0.1350679 0.13090414
0.08795814 0.20243934 0.15036052 0.02438699 0.014324025 0.042676035 -0.039725225 0.047328383

lstm.bias_hh_l1 f4 [256]
00000000: ec59 f63d 5f60 4e3e fbb4 0b3d 2bdf 273c
00000010: 8cf9 b43d e7d5 04bd 25a3 dc3c 6b0b 993c
00000020: ae31 ad3d 3594 1b3e 8a26 543e 0572 a13d
00000030: fe0a 2b3e e4ee 883c 16b2 cd3d 3635 bc3d
00000040: 974e 1d3e 10a9 073d 1b97 5cbc 2b5d 183e
00000050: ec1b 693c 4dec 923d 017c ee3c 69cd 093e
00000060: 11f8 ac3d 8a13 babc 7977 9b3d 3e01 ce3d
00000070: 1edf 3bbc fcc5 71bd c61b 193e 193f 463d
00000080: e505 083e 5b7d 35bd 218c 0e3e b524 2f3e
00000090: e772 173d 0b99 45bd aaf2 313d 22f1 0e3e
000000a0: c456 983d 4015 c53c cee7 e13d 8e63 2c3e
000000b0: a590 3a3e 2cfd 453d 5593 ef3d 10cc 963d
000000c0: d235 64bd caaf f73c a872 b03c 642d 1b3d
000000d0: 9327 753d e7d5 d43d 1c67 0a3e c219 80bd
000000e0: ec45 edbc 37ea 373e 3f86 1c3e 1771 df3d
000000f0: 5e1b ab3d 295f 7ebb 2adc 763d 4117 063d
00000100: 2004 193c 70ef 213c 905e d73c feac b4bd
00000110: 0051 7ebc e8de a8bc 64d8 e43d e433 ef3d
00000120: 2015 f03b 92b1 943d 9084 ed3d d6da 9b3d
00000130: 1054 543d 2891 a83d f252 8b3d 8476 0ebd
00000140: 5a1a fdbd 102a da3c 5024 bfbc c024 ee3d
00000150: aa98 90bd fc9c 9dbd 16b6 9fbd eaaa fcbd
00000160: 80c2 a5bb 4c44 f4bd 861a a03d a8fc e83c
00000170: 4a14 b9bd a44b 4dbd 7877 b1bc 7c2d 40bd
00000180: 60b5 893d 0ab1 ee3d 80f4 24bc 4427 b6bd
00000190: 5811 19bd 540e 70bd e42b 2ebd c03d d63c
000001a0: f4ca 5cbd ccc2 cd3d 2c8e 813d c090 a0bb
000001b0: 6aa2 c23d 4c6c 83bd 7c7e 7bbd c0f5 8b3c
000001c0: bc2f 7ebd 9899 d93c 5c13 a13d 36ed ddbd
000001d0: 9894 f9bc d4a8 9dbd 2a02 d7bd 44dd 11bd
000001e0: f821 c23d 7c27 723d 1480 c4bd 54bf f3bd
000001f0: 2eeb cebd 000b 973d 7c48 a03d e028 c2bb
00000200: 3e82 b03d 5dc8 f83d 35a8 2fbe d654 c5bd
00000210: 9fc8 10bd ba86 023e 099f 033d ca73 c9bd
00000220: 2be6 013e 7394 55bd 0e50 c7bd 6f71 bd3d
00000230: aa3b 633d 1dda 0f3e a946 26be 100b 8b3d
00000240: 3b5d d8bd 5068 dabd a638 1c3e 12a5 e3bd
00000250: de98 23be 268b 993d 1a37 8f3a 5b75 173c
00000260: a0cc b7ba 8f72 8bbd cf6a 933d 94e0 47bd
00000270: 03a9 4a3c 608e 85bc 0433 d0bc ebbc c7bd
00000280: fd84 0fbb bdae 8e3c 7453 463d b587 edbc
00000290: 10bd 6d3d 155e 1e3e e89d 683d 63de 23be
000002a0: 65a4 0d3e c1c5 9fbd d258 97bc 1020 34be
000002b0: c6a0 cbbd ea37 2d3e fc9b febd f7c4 003e
000002c0: d7a8 69bd 6338 13bd 1ac0 853d abc8 833d
000002d0: 66f9 103c 8fe4 933d a16b 363d a7f3 ccbc
000002e0: 3924 933d bdb8 d03d d514 53bd 8c63 01bd
000002f0: d2b5 2e3e 829f abbd 05f6 85bd f2f4 68bd
00000300: 9beb b43c dad5 4c3e de69 50bd a396 0f3d
00000310: eddf 313e 011c 25bd 9482 013e 01cd 203e
00000320: 488d 5abc f7d6 713d 5254 a63d aae1 a9bd
00000330: 0f42 cc3d bb34 623d 72b4 f63d 3384 11bd
00000340: d0f9 d33d b670 b23d a896 25bd c117 9c3c
00000350: 9d45 013d 9d45 ed3c 1e84 b93d 62d5 333e
00000360: 9221 023e 7da0 2abd 258c 2c3e cc7f 0a3e
00000370: 1966 483d f042 9d3d 2528 a23d afb1 343d
00000380: 5797 f63b 7d2b b13d 9f52 4cbc d3c3 9e3c
00000390: 9d40 fa3d af1f ee3d 10ed 79bd 5821 a0bd
000003a0: 8bc0 e8bc 4b15 f83d c744 ef3d 3819 f63d
000003b0: 5d36 5a3e c61d aa3c e2be 9ebd f425 253e
000003c0: 321e 363e 8bb2 423e 1207 2f3d 0ef6 0b3e
000003d0: 9a43 f8bc cfbf e5bb 1518 133e 6fa7 0d3e
000003e0: 2490 9ebd 6581 6c3e b4b0 843d 132f f93d
000003f0: 418f 8c3c 1980 383e 3ac0 cf3b e9d9 bb3d
0.1202887 0.2015395 0.034108143 0.0102460785 0.0883666 -0.032430556 0.026933262 0.018682202
0.08456741 0.15193255 0.20717826 0.078830756 0.16703412 0.016715474 0.10043733 0.09189837
0.15362011 0.033120215 -0.013463761 0.14879291 0.0142278485 0.07173977 0.029111864 0.13457264
0.084457524 -0.022714395 0.07591147 0.10058831 -0.0114667695 -0.059026703 0.14952001 0.04840002
0.13283499 -0.044309 0.13920642 0.17103846 0.036974814 -0.048241656 0.043444313 0.13959172
0.07438424 0.024057984 0.11030541 0.16834852 0.1821924 0.048337147 0.11698023 0.073631406
-0.05571539 0.03023519 0.021539047 0.037885085 0.059852194 0.10392361 0.13515896 -0.06254913
-0.028964005 0.1796044 0.15285586 0.10910242 0.08354829 -0.0038814044 0.06026856 0.03273702
0.009339362 0.0098837465 0.026290208 -0.08822058 -0.015522242 -0.020614102 0.11174086 0.11679819
0.007326737 0.07260431 0.1159755 0.07610099 0.05183798 0.08230811 0.0680293 -0.034780994
-0.12358542 0.026631385 -0.023332745 0.11628103 -0.07060368 -0.07695958 -0.07798402 -0.12337287
-0.0050585866 -0.11927089 0.07817559 0.028440788 -0.09037073 -0.050120965 -0.021663412 -0.046918377
0.06724048 0.11654861 -0.010068059 -0.08894208 -0.037370056 -0.058607414 -0.042522326 0.026152492
-0.05390449 0.1004692 0.06325945 -0.004900068 0.09503634 -0.0641714 -0.06139992 0.017084956
-0.06205724 0.026562497 0.07865021 -0.1083626 -0.030466363 -0.07698217 -0.1049846 -0.035611406
0.09479135 0.059119686 -0.095947415 -0.11901727 -0.10103451 0.07375145 0.07826325 -0.005925283
0.08618592 0.12147591 -0.1715401 -0.09635322 -0.035347577 0.12746707 0.03213409 -0.09836538
0.12685458 -0.052143525 -0.09732066 0.09250151 0.055476822 0.14048047 -0.16237892 0.067892194
-0.10564657 -0.10664427 0.15255985 -0.11115469 -0.15976283 0.074972436 0.0010926456 0.009244288
-0.0014022775 -0.0680896 0.071981065 -0.04879816 0.012369397 -0.016303241 -0.025414951 -0.0975283
-0.0021899336 0.017417306 0.04841943 -0.028995374 0.058041632 0.15465577 0.056791216 -0.16002803
0.13832243 -0.078013904 -0.01847497 -0.17590356 -0.099427745 0.16915861 -0.124320954 0.12575136
-0.057045784 -0.035942446 0.06530781 0.06434759 0.008848524 0.072213285 0.044536237 -0.025018526
0.07184643 0.10191486 -0.05153354 -0.031589076 0.17061546 -0.08380033 -0.06541065 -0.056874223
0.022085002 0.20003453 -0.050882213 0.035055768 0.17370577 -0.04030991 0.12647468 0.15703203
-0.013339348 0.059042897 0.081215516 -0.08294995 0.09973537 0.05522607 0.12046136 -0.035526466
0.10350382 0.08712904 -0.04042688 0.019054295 0.03156053 0.028963858 0.090584025 0.17561868
0.12708119 -0.04165696 0.16850336 0.13525313 0.048925493 0.07678783 0.07917813 0.044114765
0.0075253653 0.08650873 -0.01247087 0.019380486 0.12219355 0.11627137 -0.061017096 -0.0781886
-0.028412124 0.12113436 0.1168304 0.12016529 0.213098 0.02076615 -0.07751252 0.16127759
0.17784956 0.19013421 0.042731352 0.13668081 -0.030305672 -0.0070113908 0.14364655 0.13833402
-0.077423364 0.23096235 0.06479016 0.12167182 0.017158153 0.18017615 0.006340054 0.091724224
