LSTM_for_PDE/codes/experimentalCodes/models/LSTM_NS2d_tg_cyl.pth (torch, 141153 bytes, 12 tensors)

rnn.weight_ih_l0 f4 [200, 3]
000000 34 cf 1f bf 25 e4 12 3e 72 0a 1f be 8a 39 d0 bd
       -0.6242554 0.14344843 -0.15531328 -0.10167225
000010 d8 42 91 3d 40 1f 48 3d 33 8f 50 bc 5b ed f2 bd
       0.070928276 0.048857927 -0.012729454 -0.11861678
000020 ef 49 97 3c 26 83 fe 3c 5c 15 89 3d 00 4f 37 bd
       0.018467871 0.031068396 0.06693527 -0.044753075
000030 5d 45 d8 3c 65 b6 ef bb a0 b5 0b be cc 7b 6d 3d
       0.026400262 -0.0073154443 -0.13643503 0.05797939
000040 90 9f 00 be aa 3c a7 3d 4a b3 33 bc c7 7b 28 3a
       -0.12560868 0.081658676 -0.010968039 0.00064271357
000050 48 d0 09 be bd 7e 33 bc 39 c8 e0 3d 71 c4 4b 3d
       -0.13458359 -0.01095551 0.109756894 0.049747888
000060 f7 1a 77 3c 76 8b 25 be b5 0a de 3c 4a 11 48 be
       0.0150821125 -0.16166481 0.027104715 -0.19537845
000070 10 26 86 3b fb 94 30 3d 7d 27 74 3d 3c 6e 0f be
       0.004093893 0.04311083 0.05960797 -0.14006895
000080 c4 d1 f8 3c 04 f2 0c 3e f0 41 1f bd 0d 26 e7 3d
       0.030373462 0.13764197 -0.038881242 0.112865545
000090 ab a9 a9 bc 3e 1f 0c 3e ac 23 1b bd 9e 03 4e be
       -0.020710787 0.13683793 -0.037875816 -0.20118567
0000a0 b3 87 ba bd e9 85 c0 bc 6b 95 57 be 60 59 11 3d
       -0.09107914 -0.023501353 -0.21053092 0.035485625
0000b0 4c f7 af bd be 4b 39 be 81 17 9f bd 3b a2 73 bc
       -0.0859209 -0.180953 -0.07768155 -0.014870222
0000c0 31 55 d9 be cd ec 35 3d c4 ca be bd 56 46 09 be
       -0.42447808 0.044415284 -0.09316018 -0.13405737
0000d0 45 c5 26 bd 2b 2f 3f bd da 99 00 3c 17 36 ae 3c
       -0.040715475 -0.046675842 0.007849181 0.021266026
0000e0 f5 c5 61 bd 03 46 22 be 50 2f 4f bc de 1f 9e 3d
       -0.055120427 -0.1584702 -0.0126455575 0.07720922
0000f0 a9 bd 51 bf 15 ea 35 3e 25 6f 57 be 27 62 15 bc
       -0.81930023 0.17765076 -0.21038492 -0.00911764
000100 4b 5c bb bd df df 1b 3d 03 b8 a2 3d 3c 6e e9 3d
       -0.09148463 0.038055297 0.07945254 0.11397979
000110 5d d5 03 3d 98 56 03 3e 02 2e 18 3e 72 7d 0e 3c
       0.0321859 0.12826002 0.148613 0.008696901
000120 e3 63 cb bd e4 14 e9 3d d3 90 ba bc f6 24 8c 3d
       -0.09931161 0.11380938 -0.022774136 0.06842987
000130 87 b2 0d 3e b3 aa 0a 3e 08 08 c9 bd ea f3 d1 3d
       0.13837634 0.13541679 -0.09815985 0.10251601
000140 05 04 49 bd 43 0c bd 3d 96 ce 77 3d 23 97 6b 3d
       -0.0490761 0.09230854 0.06049975 0.057517182
000150 6b 20 b0 bd 0c 29 1c bd 3c a5 9f bd d0 90 83 3c
       -0.08599933 -0.038125083 -0.07795188 0.016060263
000160 05 27 75 3c 45 29 1b be 18 ec 82 be 4f bc 83 bd
       0.014962916 -0.15152462 -0.2557075 -0.064324014
000170 59 a6 03 3e e4 ce 0a be 77 cd f7 3c d4 8a af bc
       0.12856425 -0.13555485 0.03024934 -0.021428503
000180 cb d6 32 bc 4e 8d 8d bd 1c bb 9a bd b3 a6 46 3d
       -0.010915468 -0.06911717 -0.075552195 0.04849882
000190 74 5e f3 bc ad 29 88 bd 15 81 eb bd 9b e4 80 bd
       -0.029708125 -0.06648574 -0.1149923 -0.06293603
0001a0 d9 7a 78 bc e1 89 c6 bd 85 0d 1e be ce 36 84 3d
       -0.015166008 -0.09694267 -0.15434845 0.06455766
0001b0 31 c7 d4 bd 04 7a 89 3d 17 d0 c9 bd 20 58 59 be
       -0.10389555 0.06712726 -0.09854143 -0.21225023
0001c0 5d 71 64 3e b6 05 14 be 3e 41 89 be fd b2 c7 bd
       0.2230887 -0.14455304 -0.26807588 -0.09750936
0001d0 98 95 71 bd 3f df 47 bd 74 3b d5 bd 44 45 1b be
       -0.058980554 -0.04879689 -0.104117304 -0.15163141
0001e0 3c 9a d5 bd 10 fe 52 3e 75 84 10 bd e8 bc 7e be
       -0.104298085 0.2060473 -0.03528257 -0.2487675
0001f0 41 17 7c bc 98 ca b0 bd 9f 35 89 3d 01 b6 88 bd
       -0.015386404 -0.08632392 0.066996805 -0.066753395
000200 72 74 a5 bd 71 e4 74 bc 3e 22 ba ba 08 d9 e7 bd
       -0.08078851 -0.014947043 -0.0014200879 -0.11320692
000210 ba b8 c0 3c 11 75 f2 3d 04 fc 81 bc 26 be 8f be
       0.023525584 0.11838735 -0.01586724 -0.2807476
000220 5c e9 fc 3b da ff c5 bd 3d a2 6b bd 52 69 c7 3d
       0.0077182483 -0.096679404 -0.05752777 0.09736885
000230 fa 9d 96 bd c6 75 a8 bd 91 11 9e 3d 45 24 2c bd
       -0.073543504 -0.082255885 0.07718194 -0.042026777
000240 51 10 16 be e4 1b fb bd 7c cc 2c 3d 20 52 0b bd
       -0.14654662 -0.12261179 0.0421872 -0.034013867
000250 61 5d b1 3d 43 08 f8 bd 50 e6 c3 bc fc f3 8f 3d
       0.08660389 -0.12110951 -0.023913532 0.07028958
000260 60 58 a9 bb 18 b8 69 bd 0c c9 ed bd f1 90 c1 bd
       -0.005168006 -0.05706033 -0.11610612 -0.094514735
000270 e1 43 86 bd 93 17 d6 bd f6 f7 e8 3d bc 2c a4 bc
       -0.065559156 -0.10453715 0.1137542 -0.020040862
000280 0c ea 6e 3d ea b3 e6 3d d2 10 76 bd 60 be 40 bd
       0.058328673 0.11264785 -0.060074635 -0.047056556
000290 f0 e5 23 3d d6 61 6b bd e0 b6 b7 3c fe a5 b5 3d
       0.040014207 -0.05746635 0.022426069 0.08869551
0002a0 c0 f2 1a 3d 5f 6f 0f 3e bb 24 09 3e 80 54 8d 3c
       0.03782916 0.14007328 0.13392918 0.017252207
0002b0 6a 81 bb bd 61 83 0f be 00 9b cb ba 88 1e ae 3c
       -0.09155543 -0.14014961 -0.0015533864 0.021254793
0002c0 ea aa a5 bd 44 79 69 3d 52 f7 8a 3d b8 aa fa bc
       -0.0808924 0.057000414 0.06785454 -0.030598983
0002d0 b4 51 e4 bc 46 b6 ba bd 96 bb 47 bd 30 d4 8c bd
       -0.02787099 -0.09116797 -0.04876288 -0.06876409
0002e0 80 0a d9 bb d0 ba 69 3c d6 98 89 3d 61 b8 b8 bd
       -0.006623566 0.014265731 0.06718604 -0.090195425
0002f0 a0 a2 e0 bb 70 5b 77 3c fc 2e 97 3d 38 d1 94 bd
       -0.006855324 0.015097484 0.073820084 -0.07266468
000300 a0 38 3e bd c1 64 0a 3e f4 95 fe bd 90 9c 19 3d
       -0.04644072 0.13514997 -0.12430945 0.037502825
000310 96 5c b1 bd 58 98 c9 3d d4 7e d9 3d d0 e3 98 bc
       -0.086602375 0.098435104 0.10619894 -0.018663317
000320 e6 e6 0e be 50 11 28 bc be 69 9f 3d c0 15 71 3d
       -0.13955268 -0.010258034 0.077838406 0.058858633
000330 c0 7f 86 3b 01 2f d9 bd 88 f3 35 bd d6 f2 bd bd
       0.0041045845 -0.106046684 -0.044421703 -0.09274833
000340 c8 23 b5 bd 50 61 eb bc 21 18 05 3e b0 8e 75 3c
       -0.08844715 -0.028732926 0.12997486 0.014987633
000350 0c ba 24 bd 0c ad 8a bc 86 ab c7 bd bc 63 58 3d
       -0.04021649 -0.016928218 -0.097495124 0.05282949
000360 ac fd a5 3d 80 f6 e1 bc ec ff 73 bd 6c 0c 4b 3d
       0.08105025 -0.02758336 -0.059570238 0.049572393
000370 d2 12 8a 3d 48 f7 9c 3d 50 48 c0 bd c0 b4 00 3c
       0.06741871 0.07664353 -0.093887925 0.007855594
000380 4c e1 d7 bd 00 74 9c 39 22 af f6 3d de 26 fb 3d
       -0.10541019 0.00029841065 0.12045123 0.12263273
000390 9a df a4 bd b0 17 ac bc b0 f1 67 bd 24 57 21 3d
       -0.08050461 -0.021007389 -0.056626976 0.039389744
0003a0 70 bd 41 3c 08 c1 32 3d 1c a7 33 bd 1c f2 4c bd
       0.011824951 0.04364112 -0.04386054 -0.05003558
0003b0 5c 1a c1 3d 34 3b c4 3d ac 7e 8d 3d 29 4e 86 bd
       0.09428856 0.095816046 0.06908926 -0.065578766
0003c0 fc 62 8c 3d e0 dc 14 3d 80 fd 63 bb 3a a6 ca bd
       0.06854817 0.036343455 -0.003478855 -0.098949865
0003d0 e0 e7 8d 3c 18 60 ce 3d f5 db 03 3e 4a 0f 46 bd
       0.01732248 0.10076922 0.12876876 -0.048354425
0003e0 ec ac a5 bd 02 99 8a 3d 40 e0 32 3d 34 b2 b5 3d
       -0.08089623 0.06767465 0.043670893 0.0887188
0003f0 82 49 0d be 72 52 ad 3d a5 c4 04 be f2 73 d8 3d
       -0.13797572 0.08462991 -0.12965639 0.1056899

rnn.weight_hh_l0 f4 [200, 50]
000000 6c cf f2 bc 80 6e b2 3a 78 be e1 bd 54 29 63 3d
       -0.029639922 0.0013613254 -0.11022657 0.055459335
000010 54 1e 95 bd bc c7 e0 bd 72 55 fb 3d b0 f4 05 3c
       -0.07281175 -0.10975596 0.12272157 0.008176014
000020 5c 77 f8 bd fa 7e d3 3d 40 88 08 3b d0 7a 88 bc
       -0.12132141 0.10326953 0.0020833164 -0.016660124
000030 b8 b0 56 3d 68 46 dd 3c 8e 7c 2e bd fc 2d 8c bc
       0.052414626 0.027011111 -0.042599253 -0.01711177
000040 ae df b7 3d 28 f0 8b 3d c4 eb 0c 3d 88 30 2f bd
       0.089782104 0.068329155 0.03440453 -0.042770892
000050 38 6b 38 3d 80 e0 f5 bb e4 8f 2e 3d 00 21 3b ba
       0.045024127 -0.007503569 0.042617694 -0.0007138401
000060 8a bc a2 bd d4 d3 ad 3d 00 bf 1a 3c 44 8d 47 3d
       -0.07946117 0.08487669 0.009444952 0.048718706
000070 78 b9 bb bd 00 61 5f 3c f8 55 4e 3d 8f 54 9a bd
       -0.09166235 0.013633966 0.050374955 -0.075356595
000080 f1 cb 00 3e 6e 98 d6 3d 69 78 ba bd 12 d2 a4 3d
       0.12577797 0.104782924 -0.09104998 0.0804788
000090 80 03 53 bc 82 3c df 3d f5 e2 05 be 88 99 14 bd
       -0.012879252 0.10900213 -0.13074858 -0.03627923
0000a0 6e 4b 5e bd 00 fc aa 39 ee 88 4d bd be 2c f8 3d
       -0.054271154 0.0003261268 -0.050179414 0.12117909
0000b0 96 68 b2 bd 34 7b 5d bd cd b1 01 3e 01 59 06 be
       -0.087113544 -0.054072574 0.12665482 -0.1311989
0000c0 10 eb a3 3d 48 01 87 3d d0 01 dc 3c 3b aa 87 bd
       0.08003819 0.06592041 0.026856333 -0.06624266
0000d0 4e 72 61 bd c0 c5 b8 bd 62 ac fd 3d e0 08 fa 3b
       -0.05504065 -0.09022093 0.12386395 0.0076304525
0000e0 80 d8 5d bc 35 cc bf bd c0 f6 8f bd d2 e1 b1 3d
       -0.013540387 -0.09365121 -0.07029486 0.0868565
0000f0 60 ee 6d bc 00 7a 6a 3d f2 2d df 3d 8c 1d ce bd
       -0.014522165 0.057245255 0.10897435 -0.10064229
000100 d0 a5 01 3d 80 ec 15 bd be 3d df bd 40 36 64 bb
       0.03165227 -0.036602497 -0.10900448 -0.0034822375
000110 40 b7 a9 bd fe ba d1 bd 42 9a d8 3d 5c 0a 11 3d
       -0.08286905 -0.10240744 0.10576297 0.03541027
000120 1c cc a8 bc 4a c9 15 bd e4 f7 3d 3d 88 ff c3 bd
       -0.02060514 -0.036568917 0.046378985 -0.09570223
000130 ec d3 8e bc 60 17 c8 bd 10 75 70 3c c3 09 09 3e
       -0.017435037 -0.097700834 0.014676347 0.1338263
000140 86 10 bc bd 5a f3 0a be 3f 3b 09 3e 30 42 a7 3d
       -0.09182839 -0.13569394 0.13401507 0.08166921
000150 e5 1d 82 bd eb 1e 0f 3e 40 ff ea bb f8 1a ee 3c
       -0.06353358 0.13976638 -0.0071715415 0.029065594
000160 a2 a6 dc 3d d8 dd 07 be ae e9 be 3d 01 3a 02 3e
       0.1077397 -0.1326822 0.093219146 0.12717439
000170 06 c2 fd 3d bf 79 08 3e d2 c5 af 3d d0 e3 7e 3d
       0.12390523 0.13327692 0.08582653 0.062228978
000180 82 51 0d be d6 15 fa 3d 36 1c ff 3d c0 5a 7c 3d
       -0.13800624 0.12211196 0.12456553 0.061609983
000190 a0 f5 a6 3c 3e ed fc bd e0 4f 81 bb 83 9a 01 3e
       0.020380795 -0.12349938 -0.0039462894 0.12656598
0001a0 60 0a 3c bc ea ed f2 3d de 0e 8e bd 66 ce 7f bd
       -0.011477083 0.11861785 -0.069364294 -0.062452696
0001b0 00 4d a3 3c 70 e8 eb 3c 2c 61 be 3d cc db bc bc
       0.019934177 0.028797358 0.09295878 -0.023054026
0001c0 66 c7 04 be 80 90 46 bc 2a 09 83 bd 13 52 05 be
       -0.1296669 -0.012119412 -0.06398232 -0.1301959
0001d0 ca 79 ce bd e6 2d f7 3d a6 4d 78 bd 26 4f 22 bd
       -0.10081823 0.12069301 -0.060620926 -0.039626263
0001e0 e0 46 2d bd 04 98 20 3d f8 6c 9a 3d b8 28 32 3d
       -0.04230392 0.039207473 0.075403154 0.043495864
0001f0 31 f7 de bd 77 bc 08 be d7 85 0b 3e 27 d4 0b 3e
       -0.10886992 -0.13353144 0.13625275 0.13655148
000200 ee 37 f4 3d 99 1c 9b bd e8 a3 81 bd 90 d3 63 3d
       0.1192473 -0.07573814 -0.06330091 0.055621684
000210 26 26 72 bd 48 dd d0 3d 28 1f cb bd 70 09 4c 3c
       -0.059118412 0.10198456 -0.09918052 0.012453422
000220 9c 85 ac bc 0d 6e ae bd 00 0f 54 3d bb b8 84 bd
       -0.021059804 -0.08517084 0.051772118 -0.06480547
000230 5e ba 8d 3d 24 b5 5c bd 26 8a bb 3d 60 ab fd 3c
       0.06920312 -0.053883687 0.09157209 0.030965507
000240 45 b9 99 bd aa ea ca 3d 1f 1e 91 bd 40 a6 d9 3c
       -0.075060405 0.0990804 -0.07085823 0.026568532
000250 8e 12 0c be 7c 89 4c 3d b0 e7 c2 3d 82 89 0a bd
       -0.13678953 0.049935803 0.09516847 -0.033822544
000260 00 42 fd ba 86 ba f8 3d 28 bf 0c bd a1 11 86 bd
       -0.0019322038 0.121449515 -0.03436199 -0.06546331
000270 c0 3c 48 bd f4 7b d0 bd 20 f2 df 3b b3 52 10 3e
       -0.04888606 -0.10179892 0.0068342835 0.14094047
000280 f8 7a e5 3c f4 cd d5 bc 80 6c f6 bc 6c 36 50 3d
       0.028012738 -0.026099183 -0.030081034 0.05083315
000290 f8 3b ae 3c 14 91 9c bc 5e d7 e2 3d 62 3c 30 bd
       0.02126883 -0.019112147 0.11076234 -0.043026336
0002a0 04 88 71 3d 00 76 b1 b9 18 4b e0 bc 5e 76 02 bd
       0.058967605 -0.00033847988 -0.027379557 -0.031851165
0002b0 5b 01 80 bd 1b b1 ab bd cc 5f 45 3d 40 14 42 bb
       -0.062502585 -0.083833896 0.048187062 -0.002961412
0002c0 bc 66 38 3d fe 77 e7 bd 7a 8c ee bd 8e bd d4 bd
       0.04501985 -0.113021836 -0.116478875 -0.10387717
0002d0 f3 24 09 3e d2 90 ff bd ce 28 d5 bd 90 94 29 3d
       0.13393001 -0.12478794 -0.104081735 0.041401446
0002e0 ba 84 23 bd 00 ac 78 3d 56 aa 06 bd a2 ac 09 be
       -0.0399215 0.060710907 -0.03287729 -0.1344476
0002f0 58 d8 c8 bd f8 44 e7 3c 2f a1 0b be 60 85 d1 3c
       -0.09806889 0.028231129 -0.13635705 0.025576293
000300 1e 82 0d be 67 7c 88 bd b8 5b ad 3d 8c b1 a1 3d
       -0.13819167 -0.06664353 0.084647596 0.078951925
000310 f9 2e 05 3e 62 43 3d bd 8c ad 36 3d 00 3d 83 3c
       0.130062 -0.04620684 0.0445991 0.016020298
000320 e8 0b 76 bd bd 37 cd bd ca ec b2 3d a6 d2 89 3d
       -0.06006995 -0.10020397 0.0873657 0.06729631
000330 5d 11 be bd 02 e1 03 bd 6e d7 fc 3d a0 ec 59 3d
       -0.092806555 -0.032197006 0.123457775 0.05320418
000340 e2 9b d5 3d a0 d5 a7 bb c2 04 cd 3d 06 2d a6 bd
       0.10430123 -0.0051219016 0.10010673 -0.08114056
000350 a0 ef 81 bc e8 2c c5 bd c0 8b 29 3d d0 38 13 3c
       -0.015861332 -0.09627706 0.04139304 0.008985713
000360 59 6b e3 bd bb bc 0c 3e b0 57 73 bd 80 d8 0f be
       -0.11104459 0.1374387 -0.059409797 -0.14047432
000370 f4 47 cb bc d4 42 96 3d 50 d0 fb bd ec 14 83 bd
       -0.024814583 0.07336965 -0.12295592 -0.06400475
000380 00 22 49 3a d6 00 ca bd 88 e5 e8 bd fc c3 cc bd
       0.0007672608 -0.09863441 -0.113719046 -0.099983186
000390 9e bd ec 3d 94 fd f6 bd 90 09 8f 3d 3a 9f 6c bd
       0.11559604 -0.12060085 0.06984246 -0.057769038
0003a0 20 cd 81 bb 41 ef 01 3e 10 0e dc bd 31 31 be bd
       -0.0039612204 0.12688924 -0.1074487 -0.09286726
0003b0 78 9b e5 3c cc 76 58 bd 2e e4 d1 3d ea 68 f3 3d
       0.028028235 -0.05284767 0.102486 0.11885245
0003c0 f8 98 c9 3d c0 17 1c bb c5 5f 09 3e 48 31 b9 bc
       0.098436296 -0.0023817867 0.1341544 -0.022606507
0003d0 e0 51 68 3d 32 ef 8d bd 88 cf 74 bd 1e 04 7d bd
       0.056718707 -0.069303885 -0.05976823 -0.061771505
0003e0 00 e0 cd 38 d2 08 44 bd b4 d6 9a bc 06 6b fa 3d
       9.816885e-05 -0.047859974 -0.018901207 0.12227444
0003f0 00 17 e2 bd 18 3d f1 bd b0 b8 17 3c 84 e1 77 bd
       -0.11039543 -0.11779231 0.0092603415 -0.060517803

rnn.bias_ih_l0 f4 [200]
000000 64 fd 7e 3d bd 44 42 bd c1 6c f1 bd ab d3 6a 3d
       0.06225337 -0.047428835 -0.11788321 0.05733077
000010 74 a2 b8 bd 3f 4a f5 bd 55 dc 0e 3e c4 7d db bd
       -0.090153605 -0.11977052 0.13951237 -0.10717347
000020 b3 a2 c6 3c 0a 4e 0f 3e c1 d6 09 be 32 db 9d bd
       0.024247503 0.13994613 -0.13460828 -0.07707824
000030 01 65 e6 bc 57 bb 86 3d 62 d2 c4 3d 9f 48 38 3e
       -0.028124334 0.06578701 0.0961044 0.17996453
000040 b1 17 eb bd c2 6b 86 3d 81 05 5c 3d a2 2d 89 bd
       -0.11479128 0.06563522 0.053716186 -0.06698157
000050 d3 eb 6c be 73 64 d1 3d 89 29 0d 3e 13 fb 8a bd
       -0.23136835 0.10224237 0.13785376 -0.0678617
000060 51 1e 13 3e 2f de 8f bc 35 c5 66 3a dd e5 b1 3d
       0.14367034 -0.017562 0.000880319 0.08686421
000070 d3 22 f2 bd 66 b8 a5 3d f3 af c2 bd a7 a9 3a bd
       -0.118230484 0.08091812 -0.09506216 -0.04557195
000080 47 f5 1a be 94 cb aa 3d ee 53 9e bd a3 f2 d9 3d
       -0.15132628 0.08339611 -0.07730852 0.106419824
000090 74 89 ef bc 09 bf 1b 3e e1 87 ef 3d c2 cc db 3d
       -0.029240347 0.15209593 0.11695839 0.10732414
0000a0 2c da b7 3d f1 78 e3 3c bd a9 ae bd 4e d0 00 be
       0.0897716 0.02776763 -0.08528469 -0.12579462
0000b0 1d 61 33 3d 1d 14 7e bd 55 3a 0f be 29 f5 81 bd
       0.043793786 -0.0620309 -0.13987096 -0.06345589
0000c0 cf 0e 66 3d f0 9b 12 be 5e 32 9c bd ce 88 bc 3d
       0.056166466 -0.14317298 -0.07626794 0.09205781
0000d0 ac 9d 01 be be af d5 3d c6 dc 99 3d 9c 42 49 3d
       -0.12657803 0.10433911 0.07512812 0.04913579
0000e0 c0 f2 11 bd f4 e7 85 3d ce ab b4 3d d0 00 0d be
       -0.035631895 0.06538382 0.08821832 -0.13769841
0000f0 ea 4f c0 3d 37 d2 c2 bd b0 64 67 3d 71 2b 82 bd
       0.093902424 -0.095127515 0.056492507 -0.06355942
000100 92 6a 89 3d 08 93 50 bd d6 a1 d2 bd 78 e1 2f bd
       0.0670978 -0.05092147 -0.10284774 -0.042939633
000110 94 7a b9 bc 61 9a d9 bd e0 fc 8c bb 70 1f b9 3d
       -0.022641458 -0.106251486 -0.004302606 0.09039199
000120 c2 3c a1 bd e0 74 9c bb 3e f8 a7 3d 7d 28 03 3e
       -0.07872917 -0.004774675 0.08201645 0.12808414
000130 60 fc 76 bd 4d f1 04 3e 1c ba 8f bd da 81 7c bd
       -0.060299277 0.12982674 -0.070179194 -0.061647274
000140 c8 50 db bc 80 73 1f 3c aa cb cc 3d 34 8a 92 3d
       -0.026771918 0.009732127 0.09999783 0.071552664
000150 1e 33 8c 3d cc 34 b6 bc 80 c7 d3 3a 56 8d a3 3d
       0.06845687 -0.022241972 0.0016157478 0.07985942
000160 68 13 9e bc 6e ea b4 bd c8 5f c1 bd a9 fe 04 be
       -0.019296363 -0.088337764 -0.09442097 -0.1298777
000170 20 7c c8 3d 0a ce bd 3d 23 a4 9a bd fc c8 3e 3d
       0.097893 0.092678145 -0.07550838 0.046578392
000180 c0 20 2b bd 02 0e 22 bd 48 10 69 3d 6c 64 cb 3d
       -0.04177928 -0.03956414 0.056900293 0.09931263
000190 78 ab a8 be 0c 07 0e 3e d1 39 b0 bd 84 e3 3c 3c
       -0.3294332 0.13869876 -0.086047776 0.011528853
0001a0 53 5f d5 3c f9 8e 96 bd 6b b0 d5 bd 65 c1 9a 3d
       0.02604643 -0.073514886 -0.1043404 0.07556418
0001b0 82 ff fd bc 62 75 20 be fa da 93 bd 05 7d a0 3d
       -0.031005625 -0.15669778 -0.07219501 0.078363456
0001c0 e5 7a b0 bd 12 4b 7c bd 27 ab 98 3d 24 5d 97 bc
       -0.0861719 -0.06159503 0.0745452 -0.01847703
0001d0 23 ce c7 bd 2a 3d a5 bb 6b 1c fe bd c1 9d ce 3d
       -0.09756114 -0.0050426917 -0.12407764 0.10088683
0001e0 23 8a 21 be 45 6f 95 bd 25 b6 4a 3d fc 21 00 3e
       -0.15775351 -0.072966136 0.049490113 0.12512964
0001f0 4d 94 3d bc 15 47 cd 3d 4d 05 9d 3d 34 86 d5 bd
       -0.011571002 0.100233234 0.07667027 -0.10425988
000200 3c b2 cf 3d 40 42 00 3d 43 94 3c bd 19 dd b6 ba
       0.101414174 0.03131318 -0.04603983 -0.001395139
000210 a1 bd 7c 3d 41 17 aa bd d6 39 6f 3d 0d 14 f1 3d
       0.06170428 -0.083052166 0.058404766 0.117714025
000220 79 30 91 3d bf 2a 95 bc 56 2a b9 bd 12 2e 28 bb
       0.070893236 -0.01820886 -0.09041278 -0.0025662226
000230 ba 67 51 3b 40 31 e3 bd 7c 08 c4 bd c1 5a f4 3d
       0.0031952695 -0.11093378 -0.09571931 0.119313724
000240 74 e7 9a bd 90 4b 24 3e 20 d7 0a be 42 f2 f9 bd
       -0.075636774 0.1604445 -0.13558626 -0.1220441
000250 f1 12 be bc 9b 78 0f be d1 6a cc be 3a 5a 18 be
       -0.023202391 -0.14010851 -0.39925244 -0.14878169
000260 09 53 9c bb a3 77 d8 3d 29 00 df bb 09 d4 11 bc
       -0.0047706407 0.10569694 -0.006805439 -0.008900651
000270 fe 3a ec 3d 7e f9 87 bd d3 3d 86 bd 14 27 89 bd
       0.11534689 -0.06639384 -0.06554761 -0.06696907
000280 48 66 ea 3d a0 1c c4 3d 47 85 7d bd 71 78 c4 bd
       0.1144529 0.09575772 -0.06189468 -0.09593285
000290 c3 47 c2 3d 19 de 8a bd 39 e3 8e 3d 89 05 0f 3e
       0.09486344 -0.06780643 0.06976933 0.13966955
0002a0 85 a5 08 bd ee 26 00 be b1 e6 f0 bd bb de 99 3d
       -0.033360977 -0.1251485 -0.11762751 0.075131856
0002b0 7e 1f 7b bc 53 ec 44 3d d0 e4 72 bd a3 09 0c be
       -0.015327333 0.04807694 -0.059300244 -0.13675551
0002c0 62 63 fa 3d f5 a6 12 3e 06 f3 ef bd 3e 80 52 bd
       0.12225987 0.14321502 -0.11716275 -0.051391833
0002d0 36 61 92 bd 15 e6 17 3d c8 63 76 3b f0 bc d4 3c
       -0.07147448 0.037084658 0.0037596095 0.025968999
0002e0 c7 b0 75 bd a1 e5 e0 3c c1 cb 18 bc 7a 39 1c 3e
       -0.05998304 0.027453246 -0.0093259225 0.152563
0002f0 cc 5e 9d 3c 56 d5 3c bc 65 d1 9f bd f1 c8 c9 bc
       0.019210242 -0.011525473 -0.07803611 -0.02463195
000300 f3 a8 b1 bc 93 f2 2c bc 98 87 48 3d 45 3f 19 3e
       -0.021687007 -0.010555881 0.048957437 0.14965542
000310 3b a4 b7 3d 95 4d 09 3e 70 11 f3 3d 92 9d b2 bd
       0.08966871 0.13408501 0.1186856 -0.087214604

rnn.bias_hh_l0 f4 [200]
000000 a3 bb 4e bd 21 60 5a 3d 1a 70 cd bd c4 f1 4a bd
       -0.050471913 0.053314332 -0.10031147 -0.049546972
000010 a7 42 b8 3d a8 e7 07 3e 29 8b 10 3e 11 65 3c 3d
       0.08997088 0.13271964 0.14115585 0.045994822
000020 37 bb 02 3e ff 29 e4 bd 9d c3 0b be 63 11 df bc
       0.1276673 -0.111408226 -0.1364884 -0.02722997
000030 cf b9 0d 3d cb b0 ca 3b 61 cd b8 3d 47 fd 3c bd
       0.03460103 0.006185626 0.09023548 -0.04613998
000040 8f 78 be 3c da c9 68 bd ed 92 5d 3d 38 75 a1 bd
       0.023250846 -0.056833126 0.054095197 -0.07883686
000050 99 80 b5 bc 84 a2 30 3e c1 81 22 3d 9c 60 7f bc
       -0.022156047 0.17249495 0.039674524 -0.015586998
000060 19 e5 0e 3e f0 d2 c4 3d 0c 5d 89 bd e5 84 33 3d
       0.13954581 0.09610546 -0.067072004 0.04382791
000070 64 49 a6 bd b2 99 8e bc cf f6 e2 3d f3 96 5e 3c
       -0.08119467 -0.017407272 0.11082231 0.013585794
000080 46 d7 97 bc fa 67 24 3d b6 41 49 bd ad 3a 83 bd
       -0.018535268 0.040138222 -0.049134932 -0.06407676
000090 af cf c9 3d f3 ea 60 3e 73 87 d8 bd 78 98 6a 3d
       0.098540656 0.21964626 -0.1057271 0.05727431
0000a0 9e 24 86 bc f2 fb f5 3d 00 a5 33 3c d8 28 1a 3e
       -0.016374882 0.120109454 0.010964632 0.15054643
0000b0 93 f9 fa 3d e6 e3 c9 3d f0 bd 4c 3d 75 43 df bd
       0.12254634 0.09857921 0.049985826 -0.10901538
0000c0 19 e4 19 be 29 26 db bd 01 11 98 bd 10 5f c6 bc
       -0.15028419 -0.10700638 -0.07425118 -0.024215251
0000d0 64 30 91 3d 04 ab 2f 3d 9e 19 28 bd fc ce 88 bd
       0.07089308 0.042887703 -0.041040055 -0.06680104
0000e0 0c 5a 06 bd 78 e6 1b 3d 38 84 7c bd 54 6d ba bd
       -0.03280072 0.03806159 -0.06164953 -0.09102884
0000f0 6c ed a7 3d 84 dd 02 be 16 c8 89 3d d2 06 9f 3d
       0.081995815 -0.12779814 0.067276165 0.07764973
000100 96 34 9c bd 28 b6 57 3d 40 9e 8c bb 00 5c d3 3b
       -0.076272175 0.052663952 -0.004291326 0.0064501762
000110 f0 b6 80 3c ea 26 75 bd ea 0f a6 bd 86 98 6a bd
       0.015712231 -0.059851564 -0.08108504 -0.057274364
000120 0c 2c e1 bd 98 a6 a0 3d 54 bc 28 bd 0e c4 bb 3d
       -0.109947294 0.07844275 -0.04119523 0.09168254
000130 be 1f 8b bd 2d e0 0d be 96 bf dd 3d c0 27 8f 3b
       -0.06793164 -0.13855048 0.10827558 0.0043687522
000140 40 84 63 3d ed 74 0a 3e 83 d4 8d bd 3e 19 ac 3d
       0.055546045 0.13521166 -0.06925299 0.08403252
000150 4f d0 b3 bd 88 dd 85 bc 55 eb 0f 3e b4 f6 c3 bd
       -0.08779966 -0.016340986 0.14054616 -0.09568539
000160 e0 e9 e1 3c 2a b0 e6 bd 02 b2 ec 3d 98 89 91 bc
       0.02757734 -0.112640694 0.1155739 -0.017765805
000170 b2 b5 9e 3d 5c e1 3e bd e0 74 ed bd 21 d7 c3 bd
       0.077494994 -0.04660164 -0.11594558 -0.09562517
000180 a0 3e d4 3d 96 10 66 bd 4e 63 ee 3d 14 a8 4d bd
       0.10363507 -0.05616816 0.116400346 -0.05020912
000190 04 e8 6e be 3a 03 d1 3d 07 a0 a7 3d 1b 65 94 bd
       -0.23330694 0.102056935 0.0818482 -0.07245847
0001a0 0c 36 dd bd 18 4c 11 be 47 b1 8c 3d c1 00 9a 3d
       -0.10801324 -0.14189184 0.068697505 0.07519675
0001b0 af 2d d1 3d a2 92 b1 bd 3a 5e 88 bd ff 4a ef bd
       0.102137916 -0.08670546 -0.06658597 -0.11684226
0001c0 60 e4 23 3d 65 af 30 bd 98 9a 8b bd f1 d7 d9 bd
       0.040012717 -0.04313602 -0.06816596 -0.10636891
0001d0 02 29 c4 bc 74 82 a6 3d 87 74 96 3d 3a 45 be bd
       -0.023945335 0.08130351 0.073464446 -0.09290548
0001e0 5c 03 51 bc bf 19 e2 bd 47 51 9f 3d 3a bb 87 bb
       -0.012757149 -0.11040067 0.07779174 -0.004142192
0001f0 ba 89 a2 3b 55 97 92 bd f7 3e 87 bd 61 f2 d7 bd
       0.004960266 -0.071577705 -0.066038065 -0.10544277
000200 29 fc 43 3d 51 0b ca 3d 7d 40 4b bc ec 60 f7 bd
       0.0478479 0.0986544 -0.012405512 -0.12079033
000210 28 fd 1d 3d 6c 13 96 3d 28 a4 2f bd 71 b3 5f bc
       0.038571507 0.07327923 -0.04288116 -0.013653622
000220 42 9f 5e 3d 09 cd 15 be 35 7a 25 bd 6b 29 ac 3c
       0.0543511 -0.14628996 -0.04039975 0.021015843
000230 59 43 af 3c 12 ba fa bb 5e 8d de 3d bb 0c b5 bd
       0.021394419 -0.007651576 0.108668074 -0.08840319
000240 79 34 06 3e ae 84 55 3e 77 3c 0d 3e 2c 58 50 bc
       0.13105954 0.20851395 0.13792597 -0.012716334
000250 20 eb a3 bd 74 5c bc 3d 0a 7d da be 0b 17 6a bc
       -0.08003831 0.091973215 -0.42673522 -0.01428772
000260 22 36 84 bc 81 eb 83 3d 8a a8 57 3c 2b 2b fd 3d
       -0.016139094 0.06441403 0.013162741 0.12361749
000270 c3 9c 00 3e 9d 06 c3 bd 08 ca a7 3d 02 45 08 3e
       0.125598 -0.09522746 0.08192831 0.13307574
000280 68 5d 95 3d 53 c3 51 bd 5d 26 a8 3c 37 20 93 3c
       0.072932065 -0.051211666 0.020526106 0.017959697
000290 5e 09 21 3e 86 45 58 3d 21 a2 91 bd 10 d1 87 3c
       0.1572623 0.052800678 -0.07111002 0.016579181
0002a0 2d d9 c2 3d 4a 6c 0d 3e 7b 1d c4 bd cb 5d 5b 3d
       0.09514079 0.1381084 -0.095759355 0.053556245
0002b0 62 22 c8 3d fb 29 da bd 1c 78 b2 bd 27 c4 33 bd
       0.09772183 -0.106525384 -0.08714315 -0.043888237
0002c0 4b a9 32 3b ec a3 5c 3d 13 3a 7e bb b1 9a 97 3c
       0.002726155 0.053867266 -0.003879194 0.01850638
0002d0 7a 26 c4 bb ce 3e 5d bd b8 48 19 bd b3 11 bb bd
       -0.005986032 -0.054014973 -0.037422866 -0.09134235
0002e0 8b 07 ea bd ae 39 d7 bc e7 61 71 bd de 2e 42 3e
       -0.1142722 -0.026272621 -0.058931258 0.18963191
0002f0 04 c3 db 3d 4e 0b c6 3d cc 4a 06 3e f8 5d 91 bd
       0.10730556 0.09670125 0.1311447 -0.07098001
000300 a2 b2 e5 bd b2 b7 dc 3d db 10 2e 3d 6d 37 a8 bd
       -0.11215712 0.107772246 0.042496543 -0.08213697
000310 c4 24 32 3d 81 62 88 3d ef 84 ad 3d aa 71 6d 3d
       0.043492094 0.06659413 0.08472621 0.057969727

rnn.weight_ih_l1 f4 [200, 50]
000000 af f9 b8 3c 8c cc d6 bc 19 17 be 3d 8d 1f 75 3d
       0.022579996 -0.026220582 0.09281749 0.059844542
000010 7f 7d 00 3e 9e 27 fe bb ae 78 19 3c 52 23 ba 3d
       0.12547873 -0.0077561876 0.009367151 0.09088768
000020 a2 91 03 be dc 95 91 bd ca 9f fb bd ff ba cd bd
       -0.12848523 -0.071086615 -0.12286337 -0.10045432
000030 01 6f c8 3d 13 64 1b be 7d f5 2b bd eb f1 35 bd
       0.09786797 -0.15174894 -0.041982163 -0.044420164
000040 1c f8 1b 3e bd 09 7d 3c 3f b8 85 3d e0 53 16 3e
       0.15231365 0.015444216 0.06529283 0.14680433
000050 de 81 03 3e e0 6c 25 be 5a fa c0 bd ec 5a 60 bd
       0.12842509 -0.16154814 -0.09422751 -0.05477421
000060 81 3f 37 3d 99 08 12 bd 66 23 47 bd 64 ac ef 3d
       0.044738296 -0.03565273 -0.048617743 0.11702803
000070 3f d6 6c bd 68 6c 73 bd b5 ed 31 bd 97 6c bc 3d
       -0.05782151 -0.059429556 -0.043439586 0.09200399
000080 17 e8 f6 bd 26 d3 2d 3d ad f3 de bd 87 fa 12 3e
       -0.120559864 0.042437695 -0.10886321 0.14353381
000090 21 c9 c9 3d 9c 02 5c be c6 94 12 bc 5d a8 05 be
       0.098528154 -0.2148537 -0.008946603 -0.13052507
0000a0 25 76 ae bb 9d 56 e1 3d bc 5c 81 3c 7e 88 31 bd
       -0.0053241425 0.11002848 0.01579129 -0.04334306
0000b0 56 32 00 be f1 13 9b bd 6a 3d 5e bd de e7 5e 3d
       -0.12519202 -0.07572163 -0.054257788 0.054420345
0000c0 fe ce d4 3c 82 f4 3e bd 31 b5 09 3f f4 60 e2 3d
       0.025977608 -0.0466199 0.537921 0.110536486
0000d0 c1 0e 44 bd 0c cd 87 3d c7 d6 95 bd c7 5e 47 bd
       -0.047865633 0.066309065 -0.07316356 -0.04867437
0000e0 fa a5 13 bd 99 a0 18 3c 26 fd 42 be 73 a1 84 3d
       -0.03604696 0.009315633 -0.19041881 0.064761065
0000f0 8c 3b 3a 3d d8 d1 9e bd 87 8c 81 bc e1 c5 33 be
       0.045466945 -0.07754868 -0.015814079 -0.17555954
000100 aa 28 55 be 95 b2 ba 3d 4b db 6b 3e f1 8a 5e bd
       -0.20816293 0.09116093 0.23032872 -0.054331724
000110 9f 2c 97 3d b5 15 68 bd dd 27 b6 3e 51 d3 1b be
       0.07381558 -0.056661326 0.35577288 -0.1521733
000120 ab 92 25 3d 95 39 79 bd e8 15 8d 3e f2 99 80 3c
       0.040423077 -0.06084593 0.27555776 0.015698407
000130 c7 aa 42 bc ae 4f 0a 3e 8a 73 5a 3d a5 ac ee bd
       -0.011881537 0.13506958 0.053332843 -0.11654023
000140 16 58 16 3c e7 a1 91 3d 0e 4a 27 3d 49 fe 5c 3e
       0.009176275 0.071109585 0.04084211 0.21581377
000150 07 92 a0 3c c9 fa 30 3d b3 72 44 bd d1 6f 40 be
       0.019600881 0.043207917 -0.04796095 -0.18792655
000160 c4 08 ca 3d 3c 8c 25 be 95 91 2d 3e 3e 8a bf 3d
       0.09864953 -0.16166776 0.16950066 0.093525395
000170 21 bd d4 3d f2 bd a7 3d 1b 6a 90 3d 1f cf 3f 3c
       0.10387636 0.08190526 0.07051488 0.011707096
000180 7d 6f 2c bd 04 47 b7 bb 70 c8 0d be 27 3d 08 3c
       -0.04209851 -0.0055931825 -0.13845992 0.008315361
000190 9e 9f 31 3f b4 b6 d0 3d ee f0 da bd 08 de 8e bd
       0.6938418 0.10191098 -0.10690485 -0.06975943
0001a0 d8 cf 10 3e a7 08 db bd 3c 42 70 3e 9e 27 61 3d
       0.14141786 -0.1069501 0.23462766 0.054969423
0001b0 90 be 28 3d 87 a1 13 3d da f0 39 3c 0b 5e 72 3d
       0.04119736 0.036042716 0.011348927 0.059171718
0001c0 21 fa 69 be cc 2f c6 bd b8 1f 56 be 0c c3 8a 3e
       -0.22849323 -0.09677085 -0.20910537 0.27101934
0001d0 52 ba cb 3e 0c 8d d9 3d 04 5a d0 3d 7a 17 93 bd
       0.3979059 0.10622606 0.10173419 -0.07182212
0001e0 30 b3 66 3f 71 52 d9 bd 6f 38 97 3c 00 59 0f 3e
       0.9011717 -0.106114276 0.018459527 0.13998795
0001f0 fd aa 8f 3e 7f 21 0e bd ea 1f 8b 3d 01 19 e2 3d
       0.2806014 -0.034699913 0.067931965 0.11039925
000200 4a c5 a5 bd c7 62 de 3d 08 a4 3d bc e8 f5 ed 3e
       -0.080942705 0.10858684 -0.011574753 0.46476674
000210 ea a2 cb 3d 6e 2d 5e bc 61 b1 bb bd 99 8d 0e bd
       0.09943183 -0.013560636 -0.09164692 -0.034803007
000220 89 c9 9c bd 6b 5a 1e 3d ff 3c ff 3d 94 86 5f be
       -0.07655627 0.038660448 0.12462806 -0.21828681
000230 fd 6d 5d 3e 53 05 53 3f 9a 0d c3 3d 1c fe 3d 3e
       0.21623988 0.8243 0.09524079 0.18553966
000240 4b 6c 6d be f6 31 09 3d 07 9a b0 3d 15 90 cb bd
       -0.23185842 0.033494912 0.086231284 -0.09939591
000250 9a b5 a0 3d 10 2f 0f be 35 d5 e3 3c 38 6e c8 bc
       0.07847138 -0.13982797 0.027811626 -0.024466619
000260 b4 03 f5 3d 65 10 c4 3c bd 55 db 3d b6 e5 24 bd
       0.11963597 0.023933599 0.10709713 -0.040258132
000270 0e e3 0e be 86 35 ff 3c 40 4c 56 bd 52 be 9e bd
       -0.13953802 0.031153452 -0.05231881 -0.077511445
000280 bd ea c8 bc 07 c4 a8 3c 52 0d 9b bc cb cc 17 be
       -0.024525994 0.020601286 -0.01892725 -0.14824216
000290 4c 21 01 3d ad 27 be bc 8a 1f a3 bd a2 9c 46 bd
       0.031525895 -0.023212278 -0.07965 -0.04848922
0002a0 bc 65 ca bb ba 09 d0 bd 00 1b 9a 3e ce 92 22 bd
       -0.0061766785 -0.10158105 0.30098724 -0.039690785
0002b0 00 33 f2 3d b4 31 a2 3c 85 79 5b bd a9 54 d0 3c
       0.11826134 0.01979909 -0.053582687 0.025430994
0002c0 45 ed 94 3a b3 bd f9 3d 5a fd fd bc 59 16 cf 3c
       0.0011362216 0.121943854 -0.031004597 0.02527921
0002d0 1f 31 09 3d ae 6c ef bc c3 be 0a 3e 98 f6 1a bd
       0.03349411 -0.029226627 0.13549332 -0.037832826
0002e0 b0 28 01 3e 14 8a eb 3d 60 c4 92 bc 83 2f 92 bd
       0.12613177 0.11500946 -0.017915905 -0.071379684
0002f0 72 fc de 3c 33 f3 43 3d e5 21 2f 3c 81 03 e1 bd
       0.027219985 0.047839355 0.010689233 -0.109869964
000300 a5 c4 2b bc 16 b4 72 3d 86 f3 98 bd 65 5f 14 3b
       -0.010483895 0.059253775 -0.074683234 0.0022639867
000310 df 51 80 3d 4b 56 ea 3d aa d3 ac 3c 3c 73 02 be
       0.06265616 0.1144224 0.021097023 -0.12739271
000320 35 1c 54 be 7c 5e 6c bd f5 94 6b bd 8f 64 3b 3c
       -0.20713885 -0.057707295 -0.057515103 0.011437549
000330 31 47 b4 bd ab 21 a4 bd a6 65 cb bd 9f 91 d2 3d
       -0.08802641 -0.08014234 -0.09931497 0.10281681
000340 9c 6f a2 bc 52 c2 58 3d a0 06 ea 3d 02 09 30 3d
       -0.01982861 0.052919693 0.11427045 0.04297734
000350 6d bb 0d bd cc 13 b5 bd f6 d6 4e 3d 2d 0d 93 3d
       -0.03460257 -0.088416666 0.05049797 0.071802475
000360 5e f5 0c be 31 4d 74 3c 3f 05 99 bd aa 0e d2 bb
       -0.13765475 0.014910982 -0.07471704 -0.0064104395
000370 49 1b 11 be 35 59 12 3d b4 bb d5 bc ea d4 0a 3e
       -0.14170565 0.035729606 -0.02609048 0.13557783
000380 f4 fc 18 bd 00 92 a8 3d 78 48 56 3d a4 48 3f 3d
       -0.03735061 0.08230972 0.052315205 0.046700135
000390 52 fa 9a 3c 33 a7 52 3d cc c8 d6 bd f5 98 0c be
       0.01891819 0.051428985 -0.10487518 -0.13730223
0003a0 b2 fc 04 be ab 1a 5e bd 7f 59 ec 3d 8c 7d 56 bd
       -0.1298702 -0.05422465 0.115405075 -0.052365825
0003b0 70 87 98 bd 55 57 98 3d 17 f4 5f 3d 4e 4e 6e 3d
       -0.07447708 0.07438532 0.05467614 0.058180146
0003c0 6a 0b b0 bd 24 ac 84 bd b0 44 1e bd 68 41 11 3e
       -0.08595927 -0.06478146 -0.038639724 0.14185107
0003d0 2c 8a d2 bd 7d 38 07 bd bc b1 91 3b 4f 13 88 bd
       -0.102802604 -0.033012856 0.0044462364 -0.06644308
0003e0 9a c2 88 bd 91 47 f5 3d 01 7f 63 3e 0f 53 19 3d
       -0.06677742 0.11976541 0.22216417 0.037432726
0003f0 22 0b 80 3d 1c 46 41 3b 27 05 0f 3e 22 3b a4 bd
       0.062521234 0.0029491251 0.13966809 -0.08019091

rnn.weight_hh_l1 f4 [200, 50]
000000 d8 65 7b 3d 49 49 b4 bd b0 e5 f2 3c 08 7b cc 3c
       0.061376423 -0.088030405 0.02965054 0.02496101
000010 34 96 a4 bd 50 c6 8e bc f6 bf dc bd 9c b7 03 3d
       -0.080364615 -0.017428547 -0.10778801 0.032157525
000020 00 79 f6 bb 81 81 83 bd 61 bb 03 3e f0 77 f4 bc
       -0.0075217485 -0.06421185 0.12864448 -0.029842347
000030 40 ed 20 bc 00 30 06 38 90 a7 22 3c 90 47 03 bc
       -0.00982219 3.1992793e-05 0.009927645 -0.008012667
000040 00 e6 b0 39 f2 7f e3 3d dc 66 89 3d 16 b3 fb 3d
       0.000337407 0.11108388 0.06709072 0.12290017
000050 60 99 40 3c 36 6e e4 bd 20 82 12 bc fa 6a 09 be
       0.011755317 -0.111538336 -0.008942157 -0.13419715
000060 e0 c6 26 bc 7c b7 32 3d 80 3f 5b bb a8 3c a9 3c
       -0.010179251 0.043632016 -0.0033454597 0.020658806
000070 06 a8 de 3d 00 a2 9c 39 d0 77 2b 3d c0 d8 a8 bb
       0.10871892 0.00029875338 0.04186231 -0.0051527917
000080 c3 1e 0d 3e c2 ad e7 3d b8 96 21 bd a1 c8 e7 bd
       0.13781266 0.113124385 -0.039450377 -0.11317564
000090 7c 49 48 bd d2 7e de 3d 40 cb 4f 3c 78 b5 b0 3d
       -0.048898205 0.10864033 0.012682736 0.086283624
0000a0 86 5f 82 3d 2e 2f b0 bd c0 c2 82 bc 8c 17 f2 bc
       0.06365876 -0.08602749 -0.015962005 -0.029552244
0000b0 02 a6 ff 3d 80 f1 94 3d a6 ee dc 3d 00 d3 8c 3a
       0.12482835 0.07272625 0.10787706 0.0010744035
0000c0 6e 70 7b bd fb 12 0e be 00 11 88 3a 08 5a 6a 3d
       -0.06138652 -0.13874428 0.0010381043 0.057214767
0000d0 79 9f a1 bd d3 13 0b 3e c8 99 02 be 79 f2 01 3e
       -0.07891745 0.13581781 -0.12753975 0.12690152
0000e0 0a 1e 8f 3d 54 95 f6 bc 00 9c 1e 3a 8e 72 80 bd
       0.06988151 -0.030100502 0.00060504675 -0.062718496
0000f0 ac 40 0d be 5e 6a 28 bd d4 4f 7a 3d e8 2b 92 3c
       -0.13794202 -0.041117065 0.061111286 0.017843202
000100 40 fc 40 3c 90 bd 8d 3d 60 bd 68 3d c4 b0 5b 3d
       0.011778891 0.06920922 0.056821227 0.053635374
000110 3c fe c2 3d da 58 a9 3d ec 7c 78 3d 34 07 12 3d
       0.095211476 0.082689 0.06066601 0.0356514
000120 30 db 39 3d 76 45 b4 bd 25 72 f9 bd 20 f4 76 3d
       0.04537505 -0.08802311 -0.121799745 0.06029141
000130 0b a9 0d 3e 3f 2e c2 bd 5c 8c a3 bd 9c eb 18 3d
       0.13834016 -0.09481477 -0.07985756 0.03733407
000140 f6 24 00 be 15 86 c7 bd f1 73 00 3e 8f 16 e2 bd
       -0.125141 -0.09742371 0.12544228 -0.11039459
000150 70 a1 4f bc 96 b7 d5 3d f0 2c 35 3d c6 6c 18 bd
       -0.012672767 0.10435407 0.04423231 -0.03721311
000160 b2 1d 8c 3d d4 b4 db bc 38 f9 9e 3c 2a 26 b6 3d
       0.068416014 -0.026819624 0.019405946 0.08893998
000170 70 e8 cc 3d ae 55 03 be 1b 88 09 3e 00 fa 0a 3b
       0.100052714 -0.12825653 0.13430826 0.002120614
000180 70 6c 79 3d 3c 48 b5 3d 18 ce 28 bd b0 2d cb 3d
       0.06089443 0.08851668 -0.04121217 0.099208236
000190 34 67 d6 3d f2 5c fc 3d 90 be 7b 3c aa cb 44 bd
       0.10468903 0.123224154 0.015365258 -0.04804579
0001a0 34 b1 ea bd 31 0a 07 be 2a b1 a6 bd 6a 19 e3 3d
       -0.1145958 -0.13187481 -0.0813926 0.11088832
0001b0 21 ec 0c 3e 9c 0b a8 bd f8 04 ec bc 80 62 9b bc
       0.13761951 -0.08205339 -0.028810963 -0.018967867
0001c0 54 0f cf bd 80 2e d5 3b 49 33 88 bd 79 65 0d 3e
       -0.101103455 0.0065057874 -0.06650407 0.1380824
0001d0 56 22 fe 3d 50 a0 f3 bc 0a ed e2 3d 9a 81 9c 3d
       0.12408893 -0.029739529 0.11080368 0.07641907
0001e0 e6 50 84 bd 00 30 07 3b 80 f3 5b 3b b0 97 38 3c
       -0.06460743 0.0020627975 0.0033561885 0.011266634
0001f0 00 25 d7 3a 05 3b 03 3e 70 49 f7 3c 44 20 90 bc
       0.0016414225 0.12815483 0.030186385 -0.01759351
000200 ef 16 9a bd 68 50 57 3d b8 1f a0 bc 8e 0e e2 3d
       -0.075239055 0.052566916 -0.019546375 0.11037932
000210 2a 34 d7 3d 58 6d c7 bd 32 40 f4 3d b4 5b 55 3d
       0.105079964 -0.097376525 0.11926307 0.052089408
000220 2e 9d dc 3d 28 04 30 3d 52 bf 89 3d 96 51 52 bd
       0.10772167 0.042972714 0.067259446 -0.051347338
000230 1c 00 6e 3d a0 1f 06 bc 20 ca ac bd b0 3b 66 3c
       0.058105573 -0.008186251 -0.0843699 0.014052317
000240 88 a6 98 3c 7c 47 1c bd bc b0 b9 bc 94 17 42 3d
       0.018634096 -0.03815411 -0.022667281 0.047385767
000250 c0 64 c9 3b 4a 62 e7 3d bc 66 b4 bd 4c c2 c8 bc
       0.0061460435 0.11298044 -0.088086575 -0.02450671
000260 21 f2 ef bd 80 33 3b 3d 6a 71 34 bd e4 65 a4 3d
       -0.11716104 0.04570341 -0.044053473 0.080272466
000270 70 2c d7 3d 90 bf 86 bc d0 5c f1 bd 0b 5f 99 bd
       0.10506523 -0.016448766 -0.11785281 -0.07488831
000280 88 2b e6 3c f5 03 0d 3e 62 0a be bd e0 06 dd bb
       0.02809693 0.1377104 -0.09279324 -0.0067452043
000290 80 bb 24 3d 0e 0e b6 3d af 5f 9f bd b8 98 99 3c
       0.040217876 0.088893995 -0.07781922 0.01874958
0002a0 bc 9d 4e 3d cc 89 11 bd 18 7b f6 bc 28 dc 8d 3d
       0.050443396 -0.035531804 -0.030087993 0.06926757
0002b0 b0 0e 09 3c 6e d2 6d bd 90 6a 50 3d 96 f6 80 3d
       0.008365318 -0.05806201 0.050882876 0.062970325
0002c0 26 7a e2 3d 00 fa a4 b9 a0 9f 9c 3d d0 50 01 be
       0.11058454 -0.00031466782 0.076476336 -0.12628484
0002d0 f1 80 0b 3e c0 34 0e 3c 52 41 c2 3d f4 79 cd bc
       0.13623406 0.008679569 0.09485115 -0.025082566
0002e0 1c 0b dd bd af a8 e9 bd d6 4e f3 3d 06 78 a4 bd
       -0.107931346 -0.11409127 0.11880271 -0.08030705
0002f0 e4 1d 90 3d e8 21 c1 3c a0 6c 58 3d 8c 8c fb bd
       0.07036951 0.023575738 0.052837968 -0.122826666
000300 26 3c fd 3d 9e 57 59 bd a2 b3 94 bd b2 34 42 bd
       0.12364988 -0.053062074 -0.07260825 -0.047413535
000310 94 ee b5 bd 30 7f c0 3c e0 3c 74 3c ea 13 a6 3d
       -0.08883396 0.023498148 0.014907092 0.08109267
000320 36 d6 c9 3d 75 44 f7 bd 86 f4 43 bd c1 e9 8b bd
       0.098553106 -0.12073604 -0.047840618 -0.068316944
000330 24 d7 ff bd 47 c2 0f 3e 4e a6 cb bd f8 2d da bd
       -0.12492207 0.14038955 -0.099438295 -0.10653299
000340 00 da da bb 40 fe 63 bb a8 5b 81 3d 4d 82 0a 3e
       -0.0066788197 -0.0034788996 0.0631631 0.13526268
000350 d4 4e 40 bd c0 a4 bb bb a0 9f d9 bb 21 f6 00 be
       -0.046950176 -0.005726427 -0.0066413432 -0.1259389
000360 60 bf cd 3b 42 2d f3 bd 90 f2 3a bc 51 9e 0e be
       0.006278917 -0.118738666 -0.0114103705 -0.1392758
000370 3a aa fb bd 20 2d cb bd 09 ba 09 3e 10 87 4f 3c
       -0.122883275 -0.09920716 0.13449873 0.012666479
000380 9c 8c f7 bc af 17 89 bd db ec e1 bd f4 39 f4 bc
       -0.030218415 -0.066939704 -0.11031505 -0.02981279
000390 ae a9 df 3d 58 66 df 3c 1a ba ae bd ee 0a b4 bd
       0.10921036 0.027270481 -0.0853159 -0.08791147
0003a0 5a e4 93 3d 36 9e d3 bd 6a ad 9b bd d2 14 e8 bd
       0.07221289 -0.10332911 -0.076014355 -0.11332096
0003b0 45 c9 c2 bd f8 30 87 3d 10 13 97 bc 08 7c 9e 3d
       -0.09511045 0.06601137 -0.018441707 0.07738501
0003c0 19 b3 00 3e bf 3f 02 be 70 3d 8c bd 57 92 09 3e
       0.1256832 -0.1271963 -0.06847656 0.1343473
0003d0 f6 bd de 3d 5c c6 e5 bd 7e 81 05 be ba fe 84 bd
       0.10876076 -0.11219475 -0.13037679 -0.06493898
0003e0 40 13 51 3d 4f 0d a6 bd e6 fa 0d bd a0 73 7a 3c
       0.05104375 -0.08108007 -0.034663104 0.015286356
0003f0 18 66 ae 3c 20 94 58 bc 86 03 5b bd 04 0a 41 bd
       0.021288916 -0.0132189095 -0.053470157 -0.047128692

rnn.bias_ih_l1 f4 [200]
000000 6a f2 da bd 00 7c 83 bc 56 c6 07 be cc e7 72 3c
       -0.10690768 -0.016050339 -0.13259253 0.0148257725
000010 33 48 1d bd 53 e4 06 bd 14 b3 d5 bd 49 fe a2 3d
       -0.038398933 -0.03293259 -0.10434547 0.07958657
000020 af 0a be 3d c5 48 09 be 93 4c 8c bd 68 ae ae bd
       0.092793815 -0.13406666 -0.06850543 -0.08529359
000030 83 65 07 bd fe 86 08 be ce 91 01 bc 39 a7 66 3d
       -0.033055793 -0.13332745 -0.007908298 0.05631182
000040 f5 e6 c6 3d 2a b2 8b bd 97 fd d9 bd f5 0f bc 3c
       0.0971202 -0.068210915 -0.106440715 0.022956828
000050 26 3f c8 bd 19 75 aa 3d d9 68 01 be 43 75 1d be
       -0.097776696 0.08323116 -0.12637652 -0.15376763
000060 73 39 fb be 1d ee 11 bd 5a 1f f3 bd 7c 09 44 3d
       -0.49067268 -0.035627473 -0.11871214 0.047860608
000070 e5 87 f6 3c f0 7b ad 3c c2 05 00 be e2 c0 04 3e
       0.030094096 0.021177262 -0.12502196 0.12964204
000080 1a 26 32 bd b2 60 b7 3d ca 3e aa bd 69 0b 96 3a
       -0.043493368 0.0895399 -0.08312757 0.0011447492
000090 3d 41 f0 bd 10 64 52 bd 7c a0 fd 3d 1a c0 01 3c
       -0.11731193 -0.05136496 0.123841256 0.007919336
0000a0 6d 8b 09 be d0 0d 00 3e 48 7d e0 3d e3 8d 0d 3d
       -0.13432093 0.12505269 0.109613955 0.03455914
0000b0 88 ce f4 3d f3 3b eb bd b0 fd d7 3d a4 a5 02 3d
       0.11953455 -0.11486044 0.10546434 0.03189625
0000c0 0f d7 ac bd 67 16 79 bc 9c f5 ca bc 08 89 51 bd
       -0.08439457 -0.015203095 -0.024775319 -0.051156074
0000d0 6c 0f 20 bd 1e d7 cd bd b4 1f 9a bd 24 2d 45 bd
       -0.039077207 -0.10050796 -0.07525578 -0.048138753
0000e0 c0 86 df bb 24 87 04 bd f5 d0 fb bd bb 23 07 3e
       -0.0068214834 -0.032355443 -0.12295715 0.13197224
0000f0 50 4f 1d 3c f5 21 0e be ba 10 f2 3d 3e e7 a3 bd
       0.009601429 -0.13880141 0.118195966 -0.0800309
000100 cc cf 61 3d fc 30 e5 bd 6e 05 00 bd a7 ca 09 3e
       0.05512981 -0.11190984 -0.03125518 0.13456212
000110 d6 67 0c be 34 5d d5 3d 8a 47 cf 3d 9c 49 81 3d
       -0.13711485 0.10418168 0.10121067 0.06312868
000120 94 9d 5d 3d 58 87 e2 bc 02 ef a6 3d e0 2c b4 bb
       0.054105356 -0.027652428 0.08151056 -0.0054985136
000130 16 71 28 bd cc 53 0a 3d 0c 2e de bc a0 d9 8f bc
       -0.041123472 0.03377132 -0.027121566 -0.017559826
000140 04 d8 59 bd 80 51 81 ba 3c e8 d4 bd 8b c0 00 be
       -0.053184524 -0.0009866208 -0.10395858 -0.1257345
000150 00 17 bd 3b 98 e5 e5 3c 72 46 d6 3d 62 a2 de 3d
       0.005770564 0.02806358 0.10462655 0.10870816
000160 50 26 31 bc 3c cd 35 3d 7a e3 f0 3d 12 5f cb 3d
       -0.010812357 0.04438518 0.11762138 0.099302426
000170 a8 a4 c6 3c 04 88 d1 3d 82 3c 85 3d 70 0e 75 3c
       0.024248436 0.10231021 0.065056816 0.014957055
000180 a8 d3 ae bc f6 75 9d 3d 9b 1f db bd 86 2d a5 3d
       -0.02134116 0.07688515 -0.10699388 0.080653235
000190 7e 79 e0 3d 21 d7 80 bd 3d 2a b8 bc f7 a3 26 3c
       0.10960673 -0.062910326 -0.022481078 0.010170928
0001a0 62 ad c2 bd f5 45 2e 3d 9d d1 cd bd 42 4a 8b 3d
       -0.095057264 0.042547185 -0.10049746 0.06801273
0001b0 e9 44 d6 3d c2 f1 c2 bd 2a 94 4e bd 10 1a 2e bc
       0.10462362 -0.09518768 -0.05043427 -0.010626331
0001c0 16 e2 08 be da 0e 0e be c5 77 bc bd 44 ea a0 3d
       -0.13367495 -0.13872853 -0.09202532 0.078571826
0001d0 ad bb a2 bc 4d d6 ac 3c 5e c5 be bd 57 81 79 bd
       -0.019864881 0.02109828 -0.093149886 -0.060914364
0001e0 3e 0f 62 bc 28 84 ce bd 99 1d d3 3d 55 3f 1c 3d
       -0.013797579 -0.100838006 0.1030838 0.038146336
0001f0 24 0c b0 3d 75 c6 20 bd 3b d8 8e bd 2b a3 ac bb
       0.08596066 -0.039251763 -0.069748364 -0.0052684746
000200 bd 13 60 3d 76 4e 9a 3d 33 8a ec bd 9b 1f 26 3d
       0.054706324 0.075344965 -0.11549797 0.040557485
000210 c6 77 f1 3d 5d 1d a7 bd 5f f6 9b 3d c0 16 0d bd
       0.11790423 -0.081598975 0.07615351 -0.034445524
000220 cf b5 b9 3d 6b 52 0d 3d dc ea c3 3d 9e b8 94 bd
       0.0906788 0.034502428 0.0956628 -0.072617754
000230 66 6e 74 3c 52 ba 2a 3c 1d 0d 10 bd 78 e4 a2 3d
       0.014918899 0.010420399 -0.035168756 0.07953733
000240 ae 05 34 bb 02 22 04 3d 51 32 c2 3d dc 59 c8 3d
       -0.0027469206 0.032258995 0.09482253 0.09782764
000250 de 64 f1 3b 6e df 03 be 26 87 c1 bc ef 4b 97 3c
       0.0073667606 -0.128782 -0.023624014 0.018468825
000260 e8 d3 f2 3b 4f 0d 05 3d 01 db cb bc cb 0a 66 3c
       0.007410515 0.032483395 -0.024884703 0.014040659
000270 5a 8c 20 3d 40 d1 ac bd 79 dc 97 3c 12 b4 f4 bd
       0.03919635 -0.08438349 0.018537747 -0.11948408
000280 d5 ba 66 3d 2c c0 b2 3d 98 a9 04 be 60 2d b2 bc
       0.05633052 0.0872806 -0.1295532 -0.021750152
000290 ef 69 ba 3d 62 af 00 bd 2e ff 52 bd 71 ef 30 3c
       0.091022365 -0.031417258 -0.05151289 0.010799275
0002a0 bc 98 1a bd 4c 25 fa 3d d2 79 06 be 2c 2e f6 bc
       -0.037743315 0.12214145 -0.13132408 -0.030051313
0002b0 36 45 7b bd 94 09 63 bd ed 8d e7 be 62 89 cc 3b
       -0.0613453 -0.055429056 -0.45225468 0.0062419632
0002c0 c5 44 76 bd 7b 58 d5 bd 74 a6 e7 3d fc 98 d0 bd
       -0.060124177 -0.10417267 0.11311045 -0.101854295
0002d0 99 15 69 bd 02 55 d1 3d 73 38 34 bd c2 fa d6 3d
       -0.056905363 0.10221292 -0.043999147 0.10497047
0002e0 d8 f0 13 3e 4f 09 12 bb 60 f3 16 3c fd 64 c2 bd
       0.14447343 -0.002228338 0.009213299 -0.09491918
0002f0 b2 7d bf 3d 07 50 13 be 01 be a2 bd 3c 0d 40 3c
       0.09350146 -0.14385997 -0.079463966 0.011721905
000300 d5 08 ba bd 7f 95 e9 3d 2e a5 05 be 92 31 e8 3d
       -0.09083716 0.11405467 -0.13051292 0.1133758
000310 7a 76 e5 3c 14 2a 87 bd 57 e7 7f 3d 32 6d 53 3d
       0.028010596 -0.06599823 0.062476482 0.05161781
