NTK/models/pinn_model2d_2.pth (torch, 11567 bytes, 8 tensors)

l1.weight f4 [30, 3]
00000000: b78a 4bbe df1b 2b3c cd80 85be 8294 07be
00000010: eaca 123d 95ec 8a3e ac96 17be e0e2 6a3e
00000020: 635e 5bbf 33b6 093e b2c0 f93e c5a3 96bc
00000030: 3cc2 bf3c 2386 e53e b487 9a3e 109a 523d
00000040: 1dea bcbe f2d5 27be be85 b3bc 0909 1d3c
00000050: 3a59 00bf c23a 17be 72b7 cf3e 3b5d 6bbd
00000060: 80f9 69bd 59d9 f13e 4df8 7fbe 357f a7bd
00000070: 99d8 713e e93d ffbe f98b 8abe 3f83 3d3e
00000080: 7b4f d3be 3a87 193e ed62 d8be ec4c 30be
00000090: 2bbb 093e d3b5 d5bd 8f68 a9be 648b 37be
000000a0: 44a5 d93e d305 18bd ce7e 983e 4cc8 733c
000000b0: e2d3 163e 0c64 5bbd d742 cc3e d94e ba3d
000000c0: 986f 3abc 7687 91be 3ddd 1ebe 2a31 f4bd
000000d0: 445a 233f 446a bbbe 6d2b bdbd e7b4 bbbc
000000e0: f2ca e63e c046 98bd 6377 cc3e e95a 0d3f
000000f0: f1d1 81be 53cc 99be cda1 87bd 8b92 603c
00000100: 4815 7f3e 6622 bbbc 7023 1e3d 6686 9bbe
00000110: 93ba 013d 67c3 563b c087 1b3c 3b2e ca3e
00000120: a6cf 143e a799 643e 302a 1abe 2fc4 43be
00000130: 06e2 e63e 5988 aebd cf63 513e a085 2e3f
00000140: 49e9 0d3f 81fe 83be c054 cdbe 857a 553f
00000150: a5b3 513e f9a9 9c3e d6cb 213f 0277 2fbe
00000160: dedb b63e ba64 273f
-0.19877134 0.010443657 -0.2607483 -0.13240245 0.035838045 0.27133623 -0.1480357 0.22938108
-0.856909 0.1344841 0.48779827 -0.018388638 0.023408048 0.448289 0.30181658 0.051416457
-0.36897364 -0.16390207 -0.02191436 0.009584674 -0.5013615 -0.14768508 0.40569645 -0.05746196
-0.057122707 0.47236136 -0.24997063 -0.0817856 0.23617782 -0.4985192 -0.27059916 0.18507098
-0.41271576 0.14992991 -0.42262974 -0.17216843 0.13450305 -0.10435071 -0.33087584 -0.17924267
0.425089 -0.03711493 0.29784244 0.014879297 0.14729264 -0.05356221 0.39894745 0.0909707
-0.011379145 -0.2842366 -0.15514083 -0.1192344 0.6380961 -0.36604512 -0.092367984 -0.02291341
0.4507671 -0.074353695 0.39934835 0.5521684 -0.25355485 -0.300387 -0.06622658 0.013706814
0.24910462 -0.02284355 0.038608015 -0.30375975 0.03167207 0.0032770277 0.009492815 0.39488396
0.14532337 0.22324239 -0.15055156 -0.19117807 0.45094317 -0.085221 0.2044823 0.68172646
0.5543409 -0.2578011 -0.40103722 0.83390075 0.20478685 0.3059843 0.63201654 -0.17135242
0.3571462 0.6538807

l1.bias f4 [30]
00000000: cb13 e3bb 755e 443e a433 13bf 6e14 cdbe
00000010: 168c a3bd 9e93 c43d ba44 b93e 5ede 543e
00000020: a154 11be 481b 8abe 4970 863d 42d8 45be
00000030: 0816 0d3e cd9b 1b3f 0b1b 9bbc b2db 843e
00000040: 6382 dd3d 546b a3be ad11 6fbd bb8b c2bd
00000050: edba 083f d6ea 4c3d 238e c0bd 6c1b 0abe
00000060: 9eff d73e 7988 babe ebb2 503e 057b 09bf
00000070: 25aa fa3e d7c2 acbd
-0.0069298497 0.19176657 -0.5750067 -0.4005465 -0.07985704 0.09598468 0.36185247 0.20787951
-0.1419244 -0.2697394 0.065643854 -0.19320777 0.13777936 0.6078461 -0.018933794 0.25948864
0.10815885 -0.31917822 -0.058366466 -0.09499308 0.53410226 0.050028645 -0.094021104 -0.13487023
0.42187208 -0.36432245 0.20380752 -0.5370334 0.48957935 -0.084356

l2.weight f4 [30, 30]
00000000: ba36 89bd 0dec c7bc 9819 753e 1119 20be
00000010: 5fbb 28be 69e6 5b3d 899b 553e b673 3f3e
00000020: 2bb9 71be 2402 c33d 7698 c03d b4b3 94be
00000030: 76b4 bcbd 892d 0cbe b647 ff3c 1e21 eebd
00000040: 243d 61bc 2237 90be e1f0 9abe 201f a53e
00000050: 63a3 1f3e 146b bb3b 0aec 163e 01fe 3fbc
00000060: 9c05 2dbe 592d ad3d ea05 6d3e b330 bdbb
00000070: 3238 48be b485 253b 683d 27be 127a 8dbe
00000080: 1430 5a3e b49b 833e 4e1b 95be 6ddc 1dbe
00000090: f4cd ed3e 7ccc 4a3d c545 063f d295 923e
000000a0: ef22 3ebe abc5 9fbe dc6e 58be f9aa bc3e
000000b0: 18e8 2c3d 8ea2 a53c 1db2 6b3d db65 19bd
000000c0: 6e6e b5be 71bd 77be 267f edbd e50b 133f
000000d0: 3d02 24be a05b 4e3e f793 9b3e 830b 103e
000000e0: 471f dabd 0d45 9abe ca81 973d c941 573d
000000f0: 48b2 13be d16e 893e af77 90be e4c7 33be
00000100: 1a89 4a3e 5642 83be 3903 153e fb5c 2cbe
00000110: fafd bcbe a7c8 7fbd bb21 ae3d 6b42 90be
00000120: 9ca9 d93d e59c fdbd 1285 00be 9eeb ac3d
00000130: b04b 0abe ebaa 5fbe 7651 b13c 66d0 963e
00000140: 7399 433e a1ae 97bc b5a3 5dbe 2ec9 65be
00000150: c515 113d 2151 13be 25a6 9e3e cfd0 85be
00000160: 6209 eabd ed1f f73d d2f6 833e 05bd 9cbd
00000170: 0ec0 963d 1c31 f6bd 0996 ae3d 68d0 923c
00000180: 5c28 093f cd72 babd 5b81 283d 76eb 323e
00000190: 00ee 96be 0b8c 1dbe f232 a33d f136 3f3d
000001a0: ba51 5cbe ea35 833e d041 2a3e 1493 b1bd
000001b0: 8dce 98be 9836 813e b244 363e 16f4 873d
000001c0: 0f4b b53e 3b13 b1bd 9bb7 3dbe f8cb f73d
000001d0: 0034 873e b713 e5be 43f9 413e bacb 003d
000001e0: ab3b 71be d53f a03e a39a 16bb ff3f 9f3e
000001f0: 62a3 203e 69ab a8be 0e06 913e 08f6 18be
00000200: da92 92be cd14 183d a684 d1bd 1ffd fe3c
00000210: 9d18 08bd b136 7b3e 7b5f 22be 27b9 91bc
00000220: cd14 143e 1ca1 61be a616 3dbe 9a75 973d
00000230: accd 093e 146f 613e b8f9 223e 7ec2 5bbd
00000240: 11f3 9bbe 214b f73d 0f5f 6fbe a6cf 4bbe
00000250: 3ac0 afbe 7df1 a9be 38f9 8fbe 6be0 c33e
00000260: 32c6 84be 91f4 6dbd 6dcb 2bbe e9fc 5ebe
00000270: d275 9b3d ac04 b4bd 5fe4 8abe 4028 163e
00000280: bdbc 35be 9cc5 97be 2785 52be ff93 313e
00000290: fba2 e63c 5b60 14bd c377 81be 2610 053e
000002a0: 7404 033e f509 893d b9bd 183e 948d adbb
000002b0: f847 a4be e053 dc3d e6ca 0dbe 1fad 8cbd
000002c0: 7670 bc3d 45c9 be3e 712f 903e ebc7 b4bd
000002d0: f019 823d 90f8 11be 9381 80bd 3071 d2be
000002e0: 42da 4e3d d671 8a3e 6341 ed3d d176 2abe
000002f0: 1d9c b1bd 37c7 75be 7901 703e 3aee 6e3e
00000300: 0bce 733e 00ef 4bbe c133 05bd c0e0 0b3e
00000310: c341 603e 93f6 f33d 233e 22be 1c31 1bbe
00000320: 1ac7 843e 43df e13d e9c6 623e 2a33 873e
00000330: c492 a1be 7b0f 72be 7b15 8e3e b7b4 8bbd
00000340: 5883 1c3e dc4c 08bb e4f7 ee3d c711 863e
00000350: e2df 0dbe b5bc 0abe 1cc0 963d 0b15 233e
00000360: fa23 4cbe d577 6a3e b2db 22be 58f5 34be
00000370: 5975 52be 2965 923e 9f88 133e 0e50 0bbe
00000380: de09 78bd 9c9e 13be c98b 89be 5f8f 0f3e
00000390: 5b1d c23e c027 28be c15b 3d3e 0df0 423e
000003a0: 1e45 a2be 3b51 b73e 11cd a7bd df20 48be
000003b0: 6d4e a23e 9069 a4be f760 0b3d 71d7 b6be
000003c0: 698b 54be 07af ac3e 4eca 6fbd 1694 4a3e
000003d0: 09f5 b43e 2ff8 113e 6bf0 5ebe de72 89be
000003e0: 2caa 59be 0455 07be a9ae 313e 7883 183e
000003f0: a398 88be 62c5 0fbd 8eb7 b53d c74d 973d
-0.066998914 -0.02440455 0.23935544 -0.15634562 -0.16477726 0.053686533 0.20860113 0.18696484
-0.23605792 0.09521893 0.094040796 -0.29043353 -0.09214108 -0.13689245 0.031162124 -0.1162741
-0.013747487 -0.28167063 -0.302619 0.3225031 0.15589671 0.005719552 0.1473848 -0.011718274
-0.16896671 0.08455915 0.23146787 -0.0057736277 -0.19552687 0.0025256695 -0.16332018 -0.27632195
0.21307403 0.2570473 -0.29122394 -0.15416117 0.46446192 0.049511418 0.5245021 0.2862993
-0.18568014 -0.31205496 -0.2113604 0.36849192 0.04221353 0.020219114 0.05754291 -0.037450653
-0.35435814 -0.2419336 -0.11596517 0.57440025 -0.16016479 0.2015214 0.30386326 0.14066891
-0.10650497 -0.30130807 0.07397802 0.052552972 -0.14423478 0.2684236 -0.2821631 -0.17556721
0.19778863 -0.25636548 0.1455201 -0.16832344 -0.3691252 -0.062447216 0.08502527 -0.28175673
0.106280535 -0.12383441 -0.12550762 0.08443378 -0.13505435 -0.21842544 0.021645289 0.2945587
0.19101505 -0.018515887 -0.2164448 -0.22440025 0.03542115 -0.14386417 0.30986133 -0.2613587
-0.11427571 0.12066636 0.25774246 -0.0765324 0.0736085 -0.120210856 0.08524711 0.017921641
0.5357721 -0.09103928 0.041138988 0.17472634 -0.29478455 -0.15385453 0.079687014 0.046683256
-0.21515551 0.2562707 0.16626668 -0.08670631 -0.29845086 0.25236964 0.17799643 0.066383526
0.35408828 -0.08646246 -0.18527071 0.12099451 0.2640686 -0.44741604 0.18942742 0.03144429
-0.23557918 0.312987 -0.0022980354 0.31103513 0.15687326 -0.32943276 0.28324932 -0.14937603
-0.28627664 0.037129212 -0.10230379 0.031126557 -0.033226598 0.24532582 -0.15856735 -0.017788483
0.1446106 -0.22034115 -0.18465671 0.073954776 0.13457364 0.22015029 0.15915573 -0.05365228
-0.30458882 0.120748766 -0.23376106 -0.1990343 -0.34326345 -0.33192053 -0.28119826 0.38257155
-0.2593246 -0.058094565 -0.1677682 -0.21776165 0.07590832 -0.087899536 -0.27127358 0.14663792
-0.17747779 -0.2964295 -0.20558606 0.17341612 0.028153887 -0.036224704 -0.25286683 0.12994441
0.12794667 0.06691352 0.14916123 -0.0052964184 -0.32086158 0.107581854 -0.13846931 -0.06868958
0.09201138 0.3726293 0.28161195 -0.08827194 0.063526034 -0.14254975 -0.06274714 -0.4110198
0.050501116 0.27039975 0.11584737 -0.16646887 -0.08672354 -0.24001776 0.23438062 0.23333064
0.23809068 -0.1991539 -0.03252006 0.13659954 0.21900086 0.11912265 -0.15844016 -0.15155452
0.25933152 0.11028912 0.2214619 0.26406223 -0.31557286 -0.23638718 0.27750763 -0.06821578
0.15284479 -0.0020797765 0.11668375 0.26185438 -0.13854936 -0.13548549 0.07360861 0.15925996
-0.19935599 0.22897275 -0.1590412 -0.17671716 -0.20552577 0.28592804 0.14407586 -0.13604757
-0.060556285 -0.14415973 -0.2686446 0.14019535 0.3791302 -0.16421413 0.18492033 0.19036885
-0.31693357 0.3580416 -0.0819341 -0.1954379 0.3170046 -0.32111788 0.03402802 -0.35711244
-0.20756306 0.33727285 -0.058542542 0.19783053 0.35343197 0.14254831 -0.217714 -0.2684545
-0.21256322 -0.13216025 0.17351784 0.14893901 -0.26678953 -0.03510035 0.08872901 0.07387882

l2.bias f4 [30]
00000000: 8ea5 bfbc 3e72 713e 7dfe 77bc 7abd 34bd
00000010: 875e c6bd 44c5 423d f5cf 20ba 717f 013d
00000020: 20c7 6c3d 0ac5 7f3c ac1d ce3c 75f4 e03d
00000030: a4d4 c3bd 90eb d6bb cf42 95bb 7a26 f2bd
00000040: da58 813d 23c5 dd3d 8f61 b43d e19b a1bd
00000050: 18a8 203e 1257 d0bc 7b56 28be fc33 bc3d
00000060: 4193 bfbd d58f 15bd 5031 903c be6e a13d
00000070: 24dc 44bd a666 723e
-0.023394372 0.23578736 -0.015136358 -0.04412601 -0.096859984 0.04755141 -0.00061345036 0.03161568
0.057807088 0.015610943 0.025160633 0.109841265 -0.09562042 -0.006558843 -0.0045550833 -0.11823745
0.06315775 0.108286165 0.0880767 -0.0789106 0.15689123 -0.025432143 -0.1643924 0.09189603
-0.09354258 -0.036514122 0.017601639 0.078824505 -0.048061505 0.2367197

l3.weight f4 [30, 30]
00000000: ba17 37bd 10b3 8d3e eb53 fdbd 6d59 663e
00000010: 30f5 30be 9677 5abe 8fe8 813e 9d56 bc3e
00000020: 96f2 763e b420 903e 67f3 3a3e 18dc ef3d
00000030: 19ca 9dbd 69f6 6ebc ddf1 853c 7c69 96be
00000040: 6ccc 5a3e dace 92bd fc65 853e 648f 7abe
00000050: dd2d 78be e0d5 8c3e 4468 0f3e 4dbc 583e
00000060: 2820 2f3e f4b0 a4bd b743 4e3e befc c9bb
00000070: 91e9 7ebe fbb0 343e 8216 1c3e 2222 813e
00000080: 1d32 1cbd 751d fbbd 39fc 593e 9663 59be
00000090: 0053 a13e 16a3 bfbc e421 d5bd 6ffa 28bd
000000a0: 0341 58bd 8969 05be 4c32 7f3e d55e 333b
000000b0: 860e 5dbd e203 953e a92e a33d 0434 e7bd
000000c0: bca1 a43d f590 bdbd a5b1 ecbd 654c 4abe
000000d0: 9fe9 153c 0dad 6a3e 2e67 88bd c2ae 1bbe
000000e0: 1aac 6b3e 3058 babd c1b7 d83d ca9b f23d
000000f0: 641d c23e 1242 2bbc 01f7 a23e 16e2 94bd
00000100: 2649 d23e 3070 e4bb c990 473e fb35 0e3d
00000110: e7fd 8fbe 241b f93d b023 7c3e 78ba d9bd
00000120: 0c4a 253e 01ea bf3d 009f 85be 7cd7 e7bc
00000130: 3192 c13e 9d0f a13e 6810 b93e 2da5 84be
00000140: f158 a03e 9688 38be a940 7bbe dd6f 96be
00000150: a83e e1be 4e0f 613e 7945 603e 40af 60be
00000160: 8d10 6c3e 95b4 8ebe 13b2 08bf 1b60 a0bd
00000170: 3d42 513e 8221 7a3b aa3c 01bf 89cf 543e
00000180: 70e9 7dbc 1a4e 6f3e 4867 da3e 41b6 5cbe
00000190: aa5f 7fbe b6f8 e23d 206b af3c 0554 133e
000001a0: 4cf3 d53d ba7d a2be a1b9 0e3f 9ee2 923e
000001b0: 7613 94be 5391 873e 5c50 023e 6853 c2be
000001c0: 0e5f 9c3d a3bb 2fbe f08d 723e f2c4 c03e
000001d0: e0c6 513e ea2f 903d 9a07 a2be 61b0 14be
000001e0: c96e 0ebe 50c7 b0be 6ec7 8c3e 137d bfbd
000001f0: fb1b 93be 92fb 38bd 4e5d 213e dfd6 c4bd
00000200: 99ad 0abe 40b5 163e a752 973e f0a6 e33e
00000210: 0519 42be 2c57 dc3e bf31 443e 4bb2 b43e
00000220: 86bd a8be a036 9fbe 4f69 39be 9824 11be
00000230: 0c1a 16be b448 7bbe d30e c1bd 61db 513e
00000240: e11e 26be 270a b2bd 6c50 70bd 45d6 d3bd
00000250: c3cd 6c3e 34b0 253e 8a95 f0bd 2036 64be
00000260: 83ae 463e ea1d 92be b914 82bb ea9e 8f3e
00000270: 9668 073d 88fb aabb 60e9 753e 784c a53d
00000280: 3e9e 993e af41 4ebe daf1 24bc b2b8 c73e
00000290: 8f90 8b3e efd2 203e 4d54 27be 2050 40be
000002a0: 7eaa 99bc cd34 c2bc bca2 48be 91fb 93be
000002b0: 2043 c0be 77c4 78be e568 56be 4761 85be
000002c0: 07ce 833d 8c29 7bbe 2197 aa3e 96dc 2c3c
000002d0: c737 90bc b713 92bc fcfa 7b3e 3dcb a03e
000002e0: d06e 0f3e c5d6 003e 4edc 563e b211 fd3d
000002f0: 0026 5a3e 0c2b 71bb b281 4cbe 19d1 203e
00000300: 67a0 13bd 6c7f 833e e53e a83c 6c19 adbe
00000310: 8afa 503e 2bf0 67bd a98a 763d 6f89 cb3b
00000320: 26b5 f6bd 1c65 753d 91a2 983d 7936 fdbb
00000330: 52d3 ad3d 700c 3b3e 0d4a 9bbe 7a9d 64bd
00000340: aa65 e6bd 087f 11bc 3f3c afbe a681 df3e
00000350: 6f51 243f ef5c 91bd 80c3 0abf f334 fd3e
00000360: d07b 113d 38b5 293e cb7c 1c3f eb02 21bf
00000370: 1f67 83bc 5e68 ed3e 7a51 a43d 1c72 d73e
00000380: c59f c73e 78df 9fbe d56b a4bc 4c58 02be
00000390: fd98 10bf f313 72bd 2f62 e3be a3a7 ddbc
000003a0: 261b aa3e 5f79 21be edbd 363e d661 863d
000003b0: daf7 623e 5e72 b8be 40e9 86bd 6af1 0d3d
000003c0: 2247 94be 3db9 783e 83b1 253e cb39 30be
000003d0: 8885 2bbd 7602 873d 7884 9f3e 49ad 4f3e
000003e0: f30a 62bc c55a 57be 1fd5 8c3e c88a 913e
000003f0: 9819 9f3d bcf0 4e3e 5b5e 25be 3ef9 3fbe
-0.04470036 0.27675676 -0.12369522 0.2249505 -0.17281032 -0.21334681 0.2537274 0.3678483
0.24115977 0.2814995 0.18256913 0.117119014 -0.07704563 -0.014585116 0.016350681 -0.29377353
0.21367043 -0.0716836 0.2605437 -0.24468762 -0.24236245 0.27506924 0.14004618 0.21165581
0.1710211 -0.08041564 0.20143019 -0.0061641624 -0.24893786 0.17645638 0.15242961 0.25221354
-0.03813373 -0.12261478 0.21287622 -0.21229395 0.31508636 -0.023393195 -0.10406855 -0.041254457
-0.052796375 -0.1302854 0.2492153 0.0027369757 -0.05396893 0.29104525 0.07967884 -0.11289218
0.08038661 -0.09256164 -0.115573205 -0.19755705 0.009149938 0.22917576 -0.06660305 -0.15203384
0.2301487 -0.09098852 0.10581923 0.11846121 0.37913048 -0.010452764 0.31829074 -0.07269685
0.41071433 -0.0069713816 0.19488825 0.03471945 -0.281234 0.1216338 0.24622989 -0.10631269
0.16141528 0.093708046 -0.2609787 -0.028300993 0.37806848 0.31457224 0.3614533 -0.2590727
0.31317857 -0.18020853 -0.24536385 -0.2938222 -0.43993115 0.21978495 0.21901502 -0.21941853
0.23053189 -0.27872148 -0.5339672 -0.07830831 0.20435424 0.0038166945 -0.5048319 0.20782293
-0.01549755 0.23369637 0.42656922 -0.215539 -0.24938837 0.11082594 0.021413386 0.1438752
0.10446796 -0.31736547 0.55752 0.2868852 -0.28921098 0.2647806 0.12725967 -0.3795426
0.07635318 -0.17161421 0.23686957 0.37650257 0.20486021 0.07040389 -0.31646425 -0.14520408
-0.13909449 -0.34527063 0.27495903 -0.09350028 -0.28732285 -0.04516179 0.15758249 -0.09611296
-0.13542785 0.14717579 0.29555246 0.444633 -0.18954857 0.43035257 0.19159602 0.35292277
-0.32957095 -0.31096363 -0.18106578 -0.14174116 -0.14658374 -0.24539453 -0.094266556 0.20493843
-0.16222717 -0.08693343 -0.058670446 -0.10343603 0.23125367 0.16180497 -0.11747272 -0.22286272
0.19402508 -0.28538448 -0.0039697555 0.2805093 0.033058725 -0.005217973 0.24014807 0.08071226
0.30003542 -0.20142244 -0.0100674275 0.390081 0.27258727 0.15705465 -0.16340752 -0.18780565
-0.018758055 -0.023706818 -0.19593328 -0.28902867 -0.37551212 -0.24293695 -0.20938452 -0.2605078
0.06435781 -0.24527568 0.33318427 0.010550639 -0.017604722 -0.017831666 0.24607462 0.31405059
0.14007115 0.12581928 0.20982477 0.12356891 0.21303558 -0.003679934 -0.1997135 0.15704764
-0.036041643 0.25683153 0.020537803 -0.33808458 0.20408073 -0.056625526 0.06019083 0.0062114517
-0.1204627 0.05991088 0.07452882 -0.007727441 0.08487572 0.18266463 -0.30329934 -0.055814244
-0.1124986 -0.008880384 -0.34225652 0.436536 0.6418676 -0.07097804 -0.5420456 0.4945446
0.035518467 0.16573036 0.6112792 -0.6289508 -0.016040383 0.46368688 0.08023353 0.42079246
0.38989082 -0.3122518 -0.02007095 -0.12728995 -0.5648344 -0.059101056 -0.44410846 -0.027057474
0.33223838 -0.15768956 0.17845888 0.065616295 0.2216486 -0.36024755 -0.06587458 0.03465406
-0.2896052 0.24289413 0.16180997 -0.17209546 -0.041875392 0.06592266 0.31155753 0.20280947
-0.013796556 -0.2103072 0.27506348 0.28426194 0.077685535 0.2020902 -0.16149275 -0.18747422

l3.bias f4 [30]
00000000: 928a 19bb 5027 27bd 6b90 a4bc 5e11 28bd
00000010: 7a98 41bd 2116 f2bc 9864 24bc b6e9 d43c
00000020: a983 9f3c b0d0 843d 4493 01bc b77e 29be
00000030: 993d 4fbd c93b 873d 890d 703c df92 d4ba
00000040: e5f0 5f3c c5c0 a8bd 21b6 cabd cc32 313d
00000050: b604 85bd 6912 5abc 28ad 58bd 3bd9 a83b
00000060: 330a 04bd f4cb 7abd f2a3 52bd df3b d43c
00000070: 905f d8bc f784 fa3c
-0.0023428542 -0.040808976 -0.020088395 -0.041032188 -0.047264554 -0.029551568 -0.010033749 0.025990348
0.01947196 0.064851165 -0.007908646 -0.16552244 -0.050595853 0.066032 0.0146516645 -0.0016218087
0.013668274 -0.08239893 -0.098980196 0.043261334 -0.06495039 -0.013310053 -0.05289951 0.005152849
-0.03223629 -0.06122966 -0.05142588 0.025907455 -0.026412755 0.03058098

l4.weight f4 [2, 30]
00000000: dbb9 2fbc 7079 b13e 8bc5 7c3e 24f2 993e
00000010: c512 a73d ef61 c9be 6109 eebe b916 873e
00000020: f2b1 da3e 68bd 5dbe b274 96bd 050f f0be
00000030: d272 2a3e 00b6 023f a755 64be a095 34be
00000040: 2b77 e6be 5817 283e ba2e 7a3e 49c2 cbbe
00000050: fd77 e9be 0c77 b0be c2fd fd3e d7ab 2e3e
00000060: abde 363e 819c f7be 563e 483d a0a3 cd3e
00000070: 5da2 363e 073d 593e d064 cc3d 0d1d 00be
00000080: 5b4d c2be 074c dd3e ef0c ab3e b7e2 ca3e
00000090: ed97 47bd 130b 11bb bc7c 813d baad 4ebe
000000a0: edd8 8a3e b7d0 9d3e 4f42 0bbe d2c7 4c3d
000000b0: c56a 13bd cfd4 c63e b52e fbbe b1cb 01bf
000000c0: 4c45 8cbd 7782 6ebd 0182 793e fddf a7be
000000d0: ed91 1dbe 3e0b c53e 5cba 15be 97f0 cdbe
000000e0: 836e 42bc 5873 4dbe eabb e1be 3066 3e3e
-0.010725464 0.34662962 0.24684732 0.3006755 0.08157877 -0.3933253 -0.4649153 0.26384524
0.42713886 -0.21654284 -0.073464766 -0.4688646 0.16645363 0.5105896 -0.22298299 -0.17635202
-0.45012793 0.16415155 0.24431887 -0.39796665 -0.45599356 -0.34465826 0.49607664 0.17057739
0.17858379 -0.4836159 0.048887573 0.40163898 0.17835374 0.21214686 0.09980166 -0.12511082
-0.37949643 0.43222067 0.33408305 0.39626095 -0.048728872 -0.0022131845 0.06322619 -0.20183459
0.27118626 0.308233 -0.13599513 0.04999525 -0.035990495 0.38834235 -0.49059072 -0.50701433
-0.06849155 -0.05822989 0.24365999 -0.32788077 -0.15387698 0.3848514 -0.14621872 -0.40222618
-0.011867168 -0.20063531 -0.4408868 0.18593669

l4.bias f4 [2]
00000000: d881 5bbc a2ce 583d
-0.013397656 0.052931435
