LSTM_for_PDE/codes/models/LSTM_PINN_NS2D.pth (torch, 226109 bytes, 12 tensors)

lstm.weight_ih_l0 f4 [256, 3]
000000 5e b1 2f 3e 06 6e 17 3e 7d 5a af 3e 8a f0 7d bd
       0.17157504 0.14788064 0.34248725 -0.061996974
000010 5e ec 86 bc 6c 6a 06 bf fd e4 45 bd a8 bd 0d be
       -0.01647013 -0.52506137 -0.048314083 -0.1384188
000020 d1 2b 75 bf 7a bc 56 3e 79 b5 4c 3d 31 e5 b7 bd
       -0.95769984 0.20970336 0.049977753 -0.08979262
000030 57 d8 ee 3d ab 58 00 3d c3 a5 aa 3e a0 00 bb 3c
       0.11662357 0.03133456 0.3332959 0.022827446
000040 bb f5 0a 3e a1 a3 a0 3e 18 14 76 3e 12 d4 1f 3e
       0.13570301 0.3137484 0.24031103 0.15608242
000050 b1 4f 6c bd 6f 5f 55 3d 05 d1 aa bb 7d 1d 87 3e
       -0.057693187 0.052092966 -0.0052129054 0.26389685
000060 c3 31 a7 bd 41 09 a6 bd 70 e0 99 3e b5 17 fa bd
       -0.08163788 -0.08107234 0.30054045 -0.12211553
000070 06 f6 0b 3e 2e af 24 bd 1c a9 fb 3d d7 0f bb 3d
       0.13668069 -0.040206127 0.122881144 0.091338806
000080 f3 79 40 bb d4 1d 30 bd dc a7 0f 3e 2a 35 35 bf
       -0.0029369562 -0.042997196 0.14028877 -0.70784247
000090 1e 37 82 3e a8 5f 5b 3e 20 bc 0b 3d d0 6a 93 3b
       0.25432676 0.21423209 0.034114957 0.004498817
0000a0 a2 38 06 3e c1 90 00 3d e7 2c 28 3e b2 07 7e bd
       0.13107541 0.031388048 0.16423379 -0.062019058
0000b0 a7 17 29 3e 26 3e 6d 3f 5c 80 7f 3e fd 06 09 bf
       0.16512929 0.92672956 0.24951309 -0.5352629
0000c0 99 91 6a bc b4 55 6d 3e 16 bd 3c 3e a5 37 f5 be
       -0.01431694 0.23177224 0.18431506 -0.47894016
0000d0 3d 84 9f 3d 82 30 8c 3d 33 c1 97 3d 7a 30 d8 3c
       0.07788894 0.0684519 0.07409897 0.026390303
0000e0 ea ce bd be 20 22 f1 bd 4a d4 bb bd a8 0f 7a bd
       -0.37071925 -0.11774087 -0.0917135 -0.061050087
0000f0 83 a6 8c bd ac 33 0e 3c 8e 7e ab be a8 d0 95 3d
       -0.06867697 0.008679312 -0.3349499 0.07315189
000100 30 9f c2 3d d4 ab 2d bf 35 8a 80 bd 21 06 6d 3c
       0.09503019 -0.67840314 -0.06276361 0.014466793
000110 57 3f e4 3d 47 01 1c 3e 4a d1 ea 3e 31 a6 e4 bd
       0.111448936 0.15234862 0.458628 -0.11164511
000120 2d af 32 bd 95 b4 9d bd b2 45 e3 3e 20 d0 d4 3d
       -0.043624092 -0.07700459 0.4438911 0.10391259
000130 97 27 4d 3e d2 34 c8 bd e9 a1 9e 3d e6 7b 2f 3e
       0.20034634 -0.097757 0.07745726 0.17137107
000140 d7 39 d7 3d 29 97 65 be 02 54 9f 3c cd 90 fc bd
       0.10509079 -0.22420944 0.019449238 -0.12332306
000150 da ec 39 be 99 b8 09 be 5f 68 1f be 8c a6 09 be
       -0.18156758 -0.13449325 -0.15567158 -0.13442439
000160 2e 43 0e 3e 3f ec 94 3e bb 30 0b bf c5 44 7f 3d
       0.13892815 0.2908649 -0.5437123 0.062321443
000170 65 59 e8 bd cb e6 f3 3c ad 58 a4 3d 9a 07 5e be
       -0.11345176 0.029773137 0.08024726 -0.21682587
000180 a3 25 cf 3e 01 98 b7 3d 14 c7 4b be f6 2c fb bd
       0.40458402 0.08964539 -0.19900161 -0.12264435
000190 00 e4 0f 3d 9f 79 d6 be 96 95 2c be 98 c3 e7 3d
       0.035129547 -0.41889665 -0.16853938 0.113166034
0001a0 ee 8d 0b 3f 79 6e 72 3e b9 db 11 be 62 c3 03 3a
       0.5451344 0.23674954 -0.14243974 0.0005026368
0001b0 5d 0e 57 3e d5 f2 92 3e bb 4a 4d be d1 a2 a8 3d
       0.21001573 0.2870089 -0.20048039 0.0823418
0001c0 ae 3c 75 3e 21 bc 20 bf e9 14 0d 3d c0 75 a9 3d
       0.23948929 -0.6278706 0.03444377 0.08274412
0001d0 a2 0a b6 bc 72 a4 90 bd 89 1f f8 3d f8 41 bf be
       -0.022221867 -0.070626155 0.1211539 -0.37355018
0001e0 e4 c5 de 3d 8b ff da 3d 6f db d4 3e 79 3e a4 3c
       0.108775884 0.10693272 0.41573665 0.02004932
0001f0 bd de 8d 3d da 0a 4e 3e 26 a9 8f 3d 27 31 12 3e
       0.069272496 0.20121327 0.070146844 0.14276563
000200 2d ba 75 3e 15 c4 31 3d 8e 48 42 3e fa c6 3a be
       0.23996802 0.04339989 0.1897299 -0.18239966
000210 5b cf 57 3d 94 ff ef 3d 5a 1b 46 3e 66 6e 80 3e
       0.052687984 0.117186695 0.19346371 0.25084227
000220 7c 53 36 3d 96 2d 89 3d 42 0d d1 3d 23 9d ff 3d
       0.04451321 0.06698148 0.10207607 0.12481143
000230 53 58 8a 3d 6e 68 a0 3e 3a b5 66 3d bb 94 c3 3d
       0.06755128 0.31329674 0.056325175 0.095498525
000240 9a a7 a6 3d 7e 0d d1 bd 20 dd a8 3e f7 1e d9 3c
       0.08137436 -0.102076516 0.32981205 0.026504023
000250 98 4d 4f 3e 16 c1 08 bf 90 68 8e 3d cf f8 53 3e
       0.20244443 -0.53419626 0.069535375 0.20700382
000260 ec 25 d1 be 05 54 0e 3e df 17 97 3e 3c 78 25 be
       -0.40849245 0.13899238 0.295104 -0.16159147
000270 8b 40 49 be a6 b8 31 3e 81 04 22 bf 04 f3 ff bd
       -0.19653527 0.17355594 -0.6328812 -0.124975234
000280 5e bc a0 bd cb a6 8e bd 78 ca 6e 3e 5f ec 88 bd
       -0.07848428 -0.06965407 0.23319423 -0.06685709
000290 cc 52 88 39 ba 04 4a be ea 91 b1 3d 92 20 b1 be
       0.0002600163 -0.19728366 0.08670409 -0.34595162
0002a0 13 e0 1f 3d e6 f8 92 3d 31 12 53 be 9e 78 42 3d
       0.039032053 0.0717638 -0.20612408 0.04747831
0002b0 16 f3 1a 3e a4 55 16 3e a4 ff 9a be 44 96 39 3e
       0.15131792 0.14681107 -0.30273163 0.18123728
0002c0 22 c9 2b 3d 86 98 f4 3d c6 51 9c 3e b9 ab 0d be
       0.041939862 0.11943154 0.30531138 -0.13835038
0002d0 97 47 2c 3f 78 a9 29 3e f0 58 32 bf 2e dc 23 3d
       0.6729674 0.16568553 -0.6966696 0.0400049
0002e0 22 9e 20 3e 98 fe e7 be 6d b4 11 be 0a ff c5 3d
       0.15685323 -0.45311427 -0.14228983 0.096677855
0002f0 96 6e 08 bf 19 01 2b 3e 87 de 94 3d 50 cb 52 3d
       -0.5329374 0.16699637 0.07269006 0.051463425
000300 d4 4d df bd 44 f9 a3 3d b8 39 c5 bc d6 1b ea bd
       -0.109035164 0.08006528 -0.024075374 -0.114310905
000310 58 55 a3 3c 78 91 5f 3d d0 a1 48 3d a2 7c a6 3d
       0.019938156 0.05458209 0.04898244 0.081292406
000320 00 75 db bc f6 1d 90 bd 78 ac de bd 60 1f be 3d
       -0.026789188 -0.070369646 -0.108727396 0.09283328
000330 92 0f ef 3d f0 cf 43 3c d8 16 f2 bc 80 97 b8 3d
       0.11672892 0.011951432 -0.029551908 0.09013271
000340 20 02 c9 3c a8 ab c8 bc c0 45 09 bb 30 88 d4 3d
       0.024537146 -0.024495915 -0.0020946115 0.10377538
000350 30 2c 54 3c 12 07 cb bd 88 ca 9a bc c2 b7 cb bd
       0.012949988 -0.09913458 -0.018895403 -0.099471584
000360 78 7e 57 3d 10 5e 2d bd 1c 6b 72 bd 24 d6 18 bd
       0.052610844 -0.042326033 -0.05918418 -0.037313595
000370 c0 bf b0 bc a0 f2 f6 bc 96 fb 90 3d f4 4b 6c bd
       -0.021575809 -0.03014499 0.07079236 -0.057689622
000380 80 c3 0a bc 1c e0 cd bd 70 48 f7 3d b0 c0 92 3d
       -0.008469462 -0.10052511 0.12074363 0.071656585
000390 c8 78 fa bd a4 c3 f6 3d 4a f7 f2 3d 76 5d bf 3d
       -0.122300684 0.12049034 0.11863573 0.09343998
0003a0 a0 94 23 bc e8 43 94 bd 62 13 c7 bd bc 66 88 3d
       -0.009984165 -0.072395146 -0.09720494 0.0666022
0003b0 38 dd 09 3d 18 2d b5 bc aa 0d c7 3d b2 aa e4 bd
       0.033658236 -0.022116229 0.09719403 -0.1116537
0003c0 5c 59 bd bd 3a 63 af 3d 46 d9 cf 3d 7a 94 fc bd
       -0.092455596 0.08563848 0.101488635 -0.12333007
0003d0 e8 dd e0 3c 98 43 5f 3d 44 8d dc 3d 9c 48 ff 3d
       0.027449563 0.05450782 0.10769132 0.12465021
0003e0 44 73 d5 bd d8 24 e5 3c 90 0e 79 bc dc d7 db bd
       -0.10422376 0.02797167 -0.015201226 -0.10734531
0003f0 40 09 f8 bd a8 58 5a 3d 40 1f dd bb d6 f9 8c bd
       -0.12111139 0.053307205 -0.00674811 -0.0688359

lstm.weight_hh_l0 f4 [256, 64]
000000 b0 0e 04 bd 90 fb b5 3c e6 3b c8 3d 78 76 ba bd
       -0.03224057 0.02221468 0.0977705 -0.09104627
000010 e0 25 b2 3d b8 f9 ef 3d 4c 40 14 bd 70 fb 27 bd
       0.0869863 0.11717552 -0.03619413 -0.041011274
000020 d2 64 b1 3d 18 8e 9c 3d 3c e2 13 3d 62 dc c8 bd
       0.08661808 0.0764429 0.036104426 -0.0980766
000030 7a ad b8 3d d8 f0 4b 3d ac 99 d4 3d 3c 1f 25 bd
       0.09017463 0.049790233 0.10380873 -0.04031299
000040 ac d1 37 3d 90 af 52 3d a8 b2 d6 3c b8 7e ee bc
       0.044877693 0.05143696 0.026208237 -0.029113159
000050 60 32 71 3c 1a 5a 84 bd 48 12 1c bd 50 6b 87 bd
       0.014721483 -0.06462498 -0.03810337 -0.06612265
000060 58 b0 38 3d d8 f5 2b 3d 7e 94 b4 bd 9c 52 be 3d
       0.04509005 0.0419825 -0.08817385 0.092931
000070 00 ec 44 39 d2 04 c3 3d f8 98 88 3d 90 c1 27 3d
       0.00018779933 0.09522404 0.066698015 0.04095608
000080 98 f2 c7 bc 40 34 c3 3c 8e 01 ec bd 20 21 59 bd
       -0.02440767 0.023828626 -0.11523734 -0.053010106
000090 8c 7c 1e 3d 64 2d e6 bd a0 db ef 3b 74 c9 a4 3d
       0.038692996 -0.11239126 0.0073198825 0.08046237
0000a0 44 64 d2 3d 8e 8b bf 3d 40 a2 ac bb a6 4d eb 3d
       0.102730304 0.0935279 -0.005268365 0.1148942
0000b0 14 1f 2e 3d e6 c3 f4 bd 40 ff 5a 3b 40 74 82 bc
       0.042510107 -0.11951427 0.00334163 -0.015924573
0000c0 14 7b fd bd 2e 60 eb bd 50 88 30 bd f0 1d 1d bd
       -0.12376991 -0.11492954 -0.043098748 -0.03835863
0000d0 68 3c 5d bd 52 68 85 3d c6 6d ff 3d a0 53 bd 3d
       -0.054012686 0.06514038 0.124721095 0.09244466
0000e0 34 af da 3d 5c ac 1c bd 28 b3 dd 3d ae eb aa bd
       0.106779486 -0.038250312 0.10825187 -0.083457336
0000f0 d0 e4 5a 3d 88 05 96 bc ce 48 9b bd 60 59 77 bd
       0.05344087 -0.018313184 -0.07582246 -0.06038797
000100 20 c7 b2 3c ee 94 9b 3d 2a be ca 3d 18 bf be 3c
       0.021823466 0.075967655 0.09899552 0.02328448
000110 86 e9 93 bd 6c 90 c4 3d b4 39 88 bd 2c 20 69 3d
       -0.072222754 0.09597859 -0.06651631 0.056915447
000120 d4 be c7 3d 20 07 fc bb 16 e0 9c 3d 40 7c 90 bc
       0.097531945 -0.007691279 0.076599285 -0.017637372
000130 dc ca 78 bd b0 3b be bd 14 bb 0c 3d ee 9d a4 3d
       -0.060740337 -0.09288728 0.0343581 0.08037935
000140 c0 bb 36 bd 70 5b 43 3c 36 33 d3 3d e0 6b 3f 3d
       -0.044612646 0.011923656 0.10312502 0.046733737
000150 cc de da bd b0 08 18 3c 60 f6 c7 3d 5e 20 f0 3d
       -0.106870264 0.009279415 0.09763789 0.117249236
000160 c0 76 c5 bb 68 ff 46 3d 8a fd 9c bd c4 1d a0 3d
       -0.006026119 0.048583418 -0.07665546 0.07818177
000170 62 93 83 3d 04 bb 9a bd bc ae f9 bd 20 b2 d8 bb
       0.064245954 -0.07555202 -0.12191531 -0.006613031
000180 d4 4b bc bd 94 c5 1e 3d 7c 3f f4 bd 66 1c b3 3d
       -0.091941506 0.038762644 -0.11926171 0.08745651
000190 ba e7 b2 bd 68 27 c8 bc c0 7e 00 bd de bc c1 3d
       -0.087356046 -0.024432853 -0.03137088 0.09459852
0001a0 c0 ce 77 bb d4 c9 4b bd 60 c1 f0 bd 40 6c 46 3b
       -0.0037812442 -0.049753025 -0.11755633 0.0030276924
0001b0 18 98 c1 3c a8 2c fb bc 68 7c 4b 3d 20 c9 49 3c
       0.023632094 -0.030660942 0.04967919 0.012316018
0001c0 c6 57 8f bd e4 88 4f 3d de 7f 96 bd da 8d f7 3d
       -0.06999163 0.05066766 -0.073486075 0.12087603
0001d0 2c 97 a7 3d 58 9a 9d bd d8 23 11 bd 00 b7 dd bc
       0.081831306 -0.07695454 -0.035434574 -0.0270648
0001e0 e0 74 d2 bb 18 03 08 3d 36 d0 e7 bd 68 52 86 bd
       -0.006422624 0.033206075 -0.1131901 -0.065586865
0001f0 18 84 22 3d 98 ce f8 3d 7c 03 11 bd fc fb 22 bd
       0.039676756 0.1214878 -0.035403714 -0.039791092
000200 2c a6 04 bd f0 13 b4 3c a8 c3 5a 3d e0 3c 42 3d
       -0.032385036 0.021982163 0.05340925 0.047421336
000210 20 dc 29 bd 80 5d 51 bc b0 da 85 bd 0a 0f a8 3d
       -0.041469693 -0.01277864 -0.06535852 0.082059935
000220 6a 77 b7 bd 12 82 d7 3d 98 4d c6 bc b4 34 2f 3d
       -0.08958323 0.10522856 -0.024206921 0.04277487
000230 40 24 a4 bd b0 9c e7 3c 98 41 c1 bc 60 ae bc 3d
       -0.08014727 0.028272957 -0.023590848 0.09212947
000240 60 f7 fe bd ec 51 bb bd 88 b7 f6 bd 2c 0a 04 bd
       -0.12449527 -0.09146485 -0.120467246 -0.032236263
000250 d0 4e 45 3c 9c b5 b3 3d 78 83 d9 bd 24 19 d7 bd
       0.012042716 0.087748736 -0.10620779 -0.10502842
000260 90 37 5e bd 8e d9 c2 bd ba 12 86 bd 24 7c 0c 3d
       -0.054252207 -0.095141515 -0.065465406 0.034298077
000270 ca 6b 9b bd bc e3 44 bd b0 d9 69 bd d8 a4 e5 bc
       -0.075889185 -0.048068747 -0.05709237 -0.028032705
000280 74 46 24 bd 8a bd fb bd 10 0c 9c bc 1c 1d 26 3d
       -0.04010625 -0.12292011 -0.01904872 0.040555105
000290 e4 b8 a3 3d a0 71 62 3c 40 9b 5b 3c 70 68 5b 3d
       0.079942495 0.013821036 0.013403714 0.053566396
0002a0 76 95 99 bd 32 4c bf 3d d0 21 89 bd 44 35 64 bd
       -0.074992105 0.09340705 -0.06695902 -0.05571486
0002b0 ac 22 35 3d c4 8f 43 bd d0 e7 a5 bc 0a de 9b 3d
       0.04422252 -0.047744527 -0.020252138 0.0761071
0002c0 22 d6 8a bd f8 b6 8a bc c8 06 81 bc 1a e5 f0 bd
       -0.06779124 -0.01693295 -0.015750304 -0.11762448
0002d0 70 d9 b9 bc 46 fc a3 bd 22 f9 9c bd e6 f8 96 bd
       -0.02268669 -0.08007102 -0.07664706 -0.07371692
0002e0 c0 80 9e 3d f8 c0 32 bd 90 a4 03 bd 6c 44 5f 3d
       0.07739401 -0.04364106 -0.03213936 0.05450861
0002f0 6c fe 19 3d ba 09 82 3d 4e da cc bd 92 01 a1 bd
       0.03759615 0.063495114 -0.10002576 -0.07861628
000300 8a 2a c4 3d 96 3a 92 3d d8 51 f4 bd da ef 90 bd
       0.09578426 0.07140081 -0.11929673 -0.07076998
000310 c0 bd 03 3d de 38 d5 bd a0 6c 6b bd 84 0a d6 bd
       0.03216338 -0.10411237 -0.05747664 -0.104512244
000320 14 ba 43 3d f0 d6 3f bd bc f8 0a 3d 68 89 b0 bc
       0.04778488 -0.04683584 0.033928618 -0.021549895
000330 60 c9 d5 bd 04 10 a4 3d 4a 38 aa bd 90 b1 4d 3d
       -0.104388 0.08010867 -0.083115175 0.050218165
000340 18 04 c2 bd a2 a5 bc 3d a0 e3 f3 3d e0 59 53 3d
       -0.09473437 0.092112795 0.119086504 0.051599383
000350 58 af a2 bd 42 be 90 bd b0 c1 d0 bd e8 76 8d bc
       -0.079436004 -0.07067539 -0.10193193 -0.017268613
000360 74 08 10 3d 46 64 8d bd 18 59 b6 3d 88 68 c9 3c
       0.03516431 -0.06903891 0.08903712 0.024585977
000370 9c 51 b7 3d 68 69 c1 bd 90 10 41 bc 80 95 0e 3d
       0.08951113 -0.09443933 -0.011783734 0.034810543
000380 c8 52 fe 3d ec 78 21 bd e0 6c 75 3c 7a 64 dd 3d
       0.12418133 -0.03942196 0.014979571 0.1081018
000390 aa e2 a6 3d 98 0c ae 3c 3e d6 9f 3d 00 e2 a1 3a
       0.081487015 0.02124624 0.07804535 0.0012350678
0003a0 e8 b7 5f bd 0c 81 50 3d 90 a4 25 3c 28 df f9 3d
       -0.054618746 0.05090432 0.010110036 0.12200767
0003b0 98 e7 b6 3d d6 19 b1 bd e4 a0 f9 3d 0e 55 8e bd
       0.08930892 -0.08647506 0.121888906 -0.06949817
0003c0 78 ab cb bc 14 36 5d bd b6 8b ec 3d c0 fe 9b bc
       -0.024862036 -0.05400665 0.11550085 -0.019042373
0003d0 24 e6 0e 3d 78 a2 35 bd 0c be 76 bd c2 80 ee bd
       0.034887448 -0.044344395 -0.060239837 -0.11645652
0003e0 34 07 8f 3d c8 bb 16 3d 3c b9 1f bd d0 52 fb bc
       0.06983796 0.036800176 -0.038995013 -0.030679137
0003f0 fc d4 94 bd f8 fd d6 3c 20 ad 97 bc 70 8e bd bc
       -0.07267186 0.026244149 -0.01851517 -0.023139209

lstm.bias_ih_l0 f4 [256]
000000 0a dc c7 3e 21 c9 93 3e 99 45 b6 3e 2f ca 7b 3e
       0.39035064 0.28864387 0.35599974 0.24588846
000010 bc 6a c3 3e 4a a5 13 3f 1c 5c ac 3e d5 43 b4 3d
       0.3816737 0.57674086 0.33664024 0.088020004
000020 16 37 45 3e 01 b4 42 3e 16 2f f0 3e b1 53 e9 3e
       0.19259295 0.19013979 0.46910924 0.45571664
000030 61 82 31 3f bc da ed 3e 56 d5 7e 3e a6 2d a5 3d
       0.6933957 0.46455944 0.24886069 0.080653474
000040 d2 1e bf 3e f8 3a 90 3e b8 f9 98 3e 82 12 e2 3d
       0.37328202 0.2816999 0.2987802 0.11038686
000050 59 21 8a 3e 09 ae 0d 3f 6c af 43 3e 65 01 33 3f
       0.26978567 0.5534368 0.19109887 0.69924
000060 1f 33 df 3e 5f e7 ca 3e 0e be 57 3f 92 e2 c8 3e
       0.4359369 0.39629647 0.84274375 0.3923536
000070 c2 02 23 3e f1 c3 80 3e 30 86 03 3e a6 a5 4a 3e
       0.15919021 0.2514949 0.12844157 0.19789752
000080 c0 27 d8 3e 02 dd 0e 3e fb 12 9f 3e 9b a3 52 3e
       0.42217827 0.13951495 0.31069168 0.20570223
000090 d1 03 c7 3e 74 5b e5 3e 2e bb 05 3f 4d a5 cd 3e
       0.388701 0.44796336 0.5223874 0.40165177
0000a0 86 7c 6d 3f 25 b1 80 3e 38 22 06 3f a1 d5 e0 3e
       0.9276813 0.2513515 0.52395964 0.43912986
0000b0 d9 2d 11 3e f6 0d 89 3e f4 b0 a5 3e b5 dc a2 3e
       0.14177646 0.26768464 0.32361567 0.3180901
0000c0 bc cb 11 3e f8 54 57 3e 6d 4e a6 3e 1e 09 c5 3e
       0.14237875 0.21028507 0.3248171 0.38483518
0000d0 12 55 cb 3e f6 a3 e6 3d a2 40 25 3e 3c 47 98 3e
       0.3971334 0.11261742 0.16137937 0.29741848
0000e0 3b 44 8d 3e 78 46 86 3e 66 4c 9d 3e c5 34 57 3f
       0.27591118 0.26225638 0.3072235 0.84064895
0000f0 4c c1 bd 3e 45 2f a3 3e 5b d5 a5 3e ee 02 ec 3e
       0.37061536 0.31872 0.3238934 0.46095985
000100 c6 68 c9 bd 14 07 65 bd 3c 6a ef bd 80 55 96 bb
       -0.09834437 -0.055914953 -0.116901845 -0.004587829
000110 d4 c9 06 bd 9a af b4 bd aa fc d9 bd ae 49 cd bd
       -0.032907322 -0.08822556 -0.10643895 -0.10023819
000120 00 e4 68 b9 f2 7c d3 3d ae 02 8a 3d 88 ff cd 3c
       -0.00022210181 0.10326566 0.06738792 0.02514626
000130 78 27 44 3d b8 3d b4 bd 76 fa f6 bd de 71 c9 bd
       0.047889203 -0.088008344 -0.120594904 -0.098361716
000140 40 88 12 3b 78 39 8d 3c 62 3b 9d 3d dc ec 12 3d
       0.0022359043 0.017239317 0.07677342 0.035870418
000150 6e 78 c7 3d 08 a2 e6 3c d8 22 2d bd 2a 34 ff bd
       0.09739767 0.028153434 -0.042269558 -0.124611214
000160 c4 5c f8 bd 8e d4 ab bd cc c7 f4 bd 74 41 96 3d
       -0.12127069 -0.08390151 -0.11952171 0.07336703
000170 66 2e 80 3d a2 f1 ec 3d 68 75 2c bd 62 98 ad 3d
       0.0625885 0.11569525 -0.042104155 0.0847633
000180 38 7b e2 3d 10 20 d7 bd d0 34 e3 bd ca 9a 99 3d
       0.11058658 -0.10504162 -0.110940576 0.07500227
000190 10 96 ce 3c ea af e6 3d c0 1e 99 bd 2e 72 fa 3d
       0.02521804 0.11264022 -0.07476568 0.12228809
0001a0 52 f0 80 bd c0 7d 29 3d 60 6a df 3d 0e 4a 90 3d
       -0.062958375 0.04137969 0.10908961 0.07045375
0001b0 00 4b 53 ba 0c 5d 83 3d 2c ce 0e 3d 98 08 95 bd
       -0.0008060187 0.06414232 0.03486459 -0.0727703
0001c0 f8 6e 3b 3d 7c 98 ac bd 00 6e 4a bd 60 a9 f4 3c
       0.045760125 -0.084275216 -0.04942131 0.02986592
0001d0 bc af b0 bd f8 2d 5f bd c8 49 a2 3d 84 56 d8 bd
       -0.08627269 -0.0544872 0.07924229 -0.105633765
0001e0 ce 53 f8 bd 00 e2 62 3d 1e 88 ee 3d 96 87 de bd
       -0.121253595 0.05539131 0.11647056 -0.10865705
0001f0 30 7e c0 3d b8 7c 67 3d a8 ab a5 3d 18 c5 a8 3d
       0.09399068 0.056515425 0.080893815 0.08240718
000200 65 1c 29 bd 98 f6 0c be f9 22 82 be 2f 48 06 bc
       -0.041286845 -0.13765943 -0.25417307 -0.008195921
000210 e0 cc 0d be f4 4e 46 be b4 90 2f bd 64 4e 35 3e
       -0.13847685 -0.19366056 -0.04286261 0.17705685
000220 a3 fe 6f 3e 17 67 fe bd 2f 71 b6 3c 75 91 73 be
       0.2343698 -0.124220066 0.022270767 -0.23785956
000230 75 b4 64 3d fe 2e ea bd 3c cb 53 be 6a 7b 12 3e
       0.05583616 -0.11434744 -0.20682997 0.14304891
000240 f8 d5 2f bd 39 c5 30 bd ba 39 18 3d df 17 07 3e
       -0.042928666 -0.043156836 0.037164427 0.131927
000250 1b f7 48 3e ac 5c 45 3e bc 24 61 bd 75 32 40 bd
       0.19625513 0.19273633 -0.054966673 -0.04692312
000260 96 a6 2b be dd 24 e2 3d c4 dd 9c bd 1a 73 81 bd
       -0.16762766 0.11042187 -0.07659486 -0.06320782
000270 b0 b1 2f 3e c1 e0 24 3e c9 c1 8a 3d da 77 9d 3d
       0.17157626 0.16101362 0.06775243 0.076888755
000280 2d 59 90 bd ff f8 32 be 47 4c f9 bd 90 38 de 3c
       -0.07048259 -0.17477797 -0.12172752 0.02712658
000290 f3 94 19 3a 01 4f 28 3e e5 cb ee bd 10 c6 48 bd
       0.0005858682 0.16436388 -0.116599835 -0.049017012
0002a0 92 26 9b bc e6 27 36 bd f9 50 ab 3d 0e 94 99 3e
       -0.01893929 -0.044471644 0.08365054 0.2999577
0002b0 3f a7 13 be 37 f6 0f be fc fb f4 ba 54 e2 df 3c
       -0.14419268 -0.14058767 -0.001869082 0.027329601
0002c0 c9 61 1f be da 40 f5 3d 78 09 82 3b 2e e2 03 3d
       -0.15564646 0.1197526 0.003968414 0.032198124
0002d0 cf df 26 3e 87 44 6a be 44 d6 06 be 5c 65 d9 3b
       0.16296314 -0.22877704 -0.13167673 0.0066343974
0002e0 6a d7 8c be 07 3e b6 bd fb 86 d6 3d 2b 11 17 bd
       -0.27508098 -0.088985495 0.10474964 -0.036881607
0002f0 e5 e8 ba 3d 90 6c 09 3e 4e cb 4a be 97 2c f0 3d
       0.09126452 0.1342032 -0.19804117 0.11727255
000300 a7 fc 8b 3e f7 84 d5 3e 06 55 1b 3f 0b 57 bc 3e
       0.27341196 0.41703007 0.6067661 0.3678516
000310 1f 04 cd 3e e1 fe 03 3f 7a 00 82 3e a8 93 18 3e
       0.40042207 0.5156079 0.2539099 0.14900076
000320 3f cf 10 3e db bb 4b 3e ad 76 d1 3e bc 68 00 3f
       0.14141558 0.1989588 0.40910855 0.5015981
000330 8c 73 2a 3f 61 be ed 3e 0c da 12 3e 5f 66 67 3e
       0.6658256 0.4643431 0.14340991 0.22597645
000340 31 88 c1 3e 3f 56 95 3e 18 e9 be 3e c4 1f 99 3d
       0.37799218 0.29167363 0.3728721 0.07476762
000350 75 33 65 3e 20 e7 f6 3e 0c e9 8a 3e cb eb 3f 3f
       0.2238291 0.4822321 0.27130926 0.74969167
000360 4c 4b ac 3e 31 b6 b3 3e c8 f7 1f 3f 0e e2 98 3e
       0.33651197 0.3509994 0.6248746 0.29859966
000370 68 dd 89 3e 08 83 a5 3e 7e ce 87 3d 82 49 97 3e
       0.26926732 0.3232653 0.06631182 0.2954827
000380 f7 e9 ab 3e 58 26 5c 3e 72 1b e8 3e 05 60 46 3e
       0.3357694 0.21499002 0.4533344 0.19372566
000390 eb d0 e3 3e 91 52 a8 3e a5 0b 21 3f 70 b4 cb 3e
       0.4449533 0.32875493 0.62908393 0.397861
0003a0 43 58 19 3f e2 44 ea 3e 64 5a bd 3e 38 07 d9 3e
       0.599003 0.45755678 0.36983025 0.4238832
0003b0 7b a7 39 3e ec 84 6c 3e 1d 0f 01 3f a4 e7 5f 3e
       0.18130295 0.2309758 0.50413686 0.21865708
0003c0 b9 96 39 3e 9d 68 05 3e 2e 1e d2 3e 52 85 ba 3e
       0.18123902 0.13028188 0.4103865 0.3642984
0003d0 0e 4a 1a 3f 10 33 12 3e c5 fa 78 3e 9c 82 95 3e
       0.6026925 0.14277291 0.24314411 0.2920121
0003e0 8b fd cd 3e e2 15 c8 3e 07 1a 7d 3e 9a ee 41 3f
       0.402325 0.39079195 0.2471696 0.757547
0003f0 cd 27 dc 3e cb b1 8d 3e 0f 5d d0 3e 94 0e bc 3e
       0.42999116 0.27674708 0.40695998 0.36729872

lstm.bias_hh_l0 f4 [256]
000000 24 87 4e 3e 97 18 b9 3e c9 4e 05 3f 45 56 c4 3e
       0.2016874 0.36151573 0.5207334 0.38347068
000010 2b 77 19 3f 4f 51 1c 3f e4 0a 66 3e 13 44 30 3e
       0.5994746 0.6106157 0.22465092 0.17213468
000020 12 f2 80 3e 64 dd 69 3e 3f c6 c9 3e da 15 d9 3e
       0.25184685 0.2283836 0.39409062 0.42399484
000030 9c 97 1a 3f e5 80 ea 3e 6e ad af 3e fe 42 4d 3e
       0.6038759 0.45801464 0.34312004 0.20045087
000040 63 c0 dc 3e a6 4c 81 3e d5 1c 46 3e 40 81 7d 3e
       0.4311553 0.2525379 0.19346936 0.24756336
000050 09 bc 75 3e 85 27 d3 3e 74 6f d4 3e af 5a 15 3f
       0.23997511 0.41241089 0.41491282 0.583415
000060 4f 4a a9 3e c1 07 e2 3e 58 6a 39 3f 6a d9 9c 3e
       0.33064505 0.4414654 0.7242789 0.30634624
000070 c6 ea 57 3d ec 04 d0 3e 9b b0 a6 3d 42 02 84 3e
       0.05271413 0.40628755 0.081391536 0.25782973
000080 3b 25 e3 3e e8 66 12 3e 71 fe e1 3e 1e db b7 3e
       0.44364342 0.14297068 0.44139436 0.3590936
000090 d0 1c f8 3e 2c 4d d8 3e f1 05 15 3f b0 cf 22 3e
       0.48459482 0.42246377 0.5821219 0.15899539
0000a0 f0 83 56 3f fe b6 e6 3e c4 66 fd 3e cb 3c cc 3e
       0.8379507 0.45061487 0.49492466 0.3989013
0000b0 6a e3 bb 3e e7 df 47 3e 66 73 b7 3e 26 a5 82 3e
       0.3669694 0.19519006 0.3583023 0.25516623
0000c0 0a 25 db 3d 20 1e 8d 3e 85 4c c1 3e 9d d5 fb 3e
       0.10700424 0.27562046 0.37753692 0.49186411
0000d0 5e dd f0 3e 62 63 48 3e 91 a2 6f 3e c1 e8 80 3e
       0.4704389 0.19569162 0.23401858 0.25177577
0000e0 29 ec b4 3e 8b 9d cd 3e ca d7 e7 3d dc 5d 57 3f
       0.35336426 0.40159258 0.11320455 0.84127593
0000f0 dc 57 ca 3e 91 91 8a 3e 85 28 bc 3e 7d 20 9b 3e
       0.39520156 0.27064183 0.36749664 0.30298224
000100 44 85 72 bd 72 59 d6 3d b4 8b 84 bd a0 dd e0 3b
       -0.059209123 0.10466279 -0.06471959 0.0068623573
000110 58 45 9a 3c b0 09 bd 3d b0 50 7a 3d 60 a1 6a 3c
       0.018831894 0.09230363 0.061112106 0.014320701
000120 ac fd 7c 3d b2 e1 9a 3d b8 e6 2c bd fa 65 d2 3d
       0.061765358 0.07562579 -0.042212218 0.10273357
000130 f2 0a 9d 3d 68 ee 0b 3d 58 1e 3b 3d f8 d5 db 3c
       0.07668103 0.03416291 0.045683235 0.026835427
000140 d0 98 43 3d 64 6e 34 3d 90 91 a4 3c 30 b8 63 bd
       0.047753155 0.04405059 0.02008894 -0.055595577
000150 38 34 d8 3d 80 f8 05 3c 50 9c e1 bd 5c 7c e8 3d
       0.10556835 0.008176923 -0.11016142 0.11351845
000160 00 c3 db bb 98 80 d0 bd 38 c5 dd bd 4c 40 71 bd
       -0.0067065954 -0.10180777 -0.10828632 -0.05889921
000170 94 29 5e 3d ae b2 ac 3d 4c 1b 4f 3d 08 1a 7d 3d
       0.05423887 0.08432518 0.05056314 0.061792403
000180 80 82 3f bc 68 e6 1f bd 10 e7 64 bd 32 b4 ed bd
       -0.0116888285 -0.039038092 -0.05588442 -0.11606635
000190 c0 38 87 bd 64 de 20 3d 96 6f b1 3d e4 1d db bd
       -0.06602621 0.03927459 0.086638615 -0.106990606
0001a0 02 b2 f9 bd 5e 51 df bd 30 68 94 3c 8c 7c 18 bd
       -0.121921554 -0.109041914 0.018116087 -0.037228152
0001b0 74 8b 99 3d 7c 7c e2 3d c0 d7 34 bd a0 92 28 3d
       0.07497302 0.110589 -0.044151068 0.041155457
0001c0 54 b2 1c 3d b8 03 8b bd 40 63 6d bb a4 6b e1 3d
       0.038256004 -0.06787819 -0.0036222488 0.11006859
0001d0 7e 69 9b bd 18 e6 9a bd 7e ae 9a bd 74 ae 6c 3d
       -0.075884804 -0.07563418 -0.07552813 0.05778356
0001e0 70 74 70 3c d0 00 35 bc c0 0b c4 3b 58 a7 8c bc
       0.014676198 -0.011047557 0.005982846 -0.01716964
0001f0 ce c5 b6 bd 48 28 99 3c d4 75 3e 3d 94 e7 af 3d
       -0.08924447 0.018695965 0.04649909 0.08589092
000200 44 6f 00 be 9c 2d c1 bd 99 31 86 be 0c 72 5f 3b
       -0.12542444 -0.094325274 -0.26209715 0.0034095077
000210 1f 97 77 bc 20 2e 10 be 09 a9 8b 3c c6 eb ad 3d
       -0.015111714 -0.14080095 0.017048376 0.08492236
000220 fc 4a a1 3e a6 58 08 3b 48 ae 0e bc af 56 78 be
       0.3150252 0.0020804792 -0.008708544 -0.24251817
000230 1e cb 6b bc de fa a7 3d e5 92 61 be 0e 32 47 3d
       -0.014391689 0.08202146 -0.22028692 0.04863172
000240 86 98 6b bd 3b d0 bd bd f0 b3 c0 3d 0f 09 83 bd
       -0.057518505 -0.092682324 0.0940932 -0.06398212
000250 a8 a5 e7 bc f7 32 60 3e 2f 26 17 bd c1 df 85 3d
       -0.028277233 0.21894442 -0.03690165 0.06536818
000260 bb dc 38 be b5 01 86 bd fc 35 bb 3c 60 d0 70 3d
       -0.18052952 -0.06543294 0.02285289 0.058792472
000270 5b 42 70 3e 15 a1 87 3d 34 bb 67 3e 48 49 a9 bd
       0.23462813 0.06622521 0.22630006 -0.082659304
000280 fd ea 27 bd b8 f2 69 be 08 54 5f be 6f 00 0b 3d
       -0.040995587 -0.22846496 -0.21809399 0.03393596
000290 7e b9 e5 3c 5c 25 1b 3e 4e e7 a9 3d 34 5a db bd
       0.028042551 0.1515097 0.08296071 -0.10710564
0002a0 49 12 2d be ad e2 ff bd fc ea 72 3d 6b d6 a6 3e
       -0.16901506 -0.12494407 0.05930613 0.32585463
0002b0 44 1c 83 3d 25 78 ad 3d e2 47 dc 3d 42 75 77 bd
       0.064018756 0.084701814 0.10755898 -0.06041456
0002c0 03 b8 39 be 8d 8f 34 3e bb d6 37 be 13 49 3d 3d
       -0.18136601 0.17632885 -0.17953007 0.046212267
0002d0 02 80 1c 3e a2 a5 64 be c9 45 f6 bd 3b 08 b1 bd
       0.15283206 -0.22328809 -0.12025029 -0.08644148
0002e0 9b 4d 88 be c8 19 9d bc 78 13 8a 3d b4 78 ed bb
       -0.26621708 -0.019177333 0.067419946 -0.007247055
0002f0 36 f3 62 3e 71 8a 52 bd 0f ca 6b bd 3b 5d 24 3a
       0.2216309 -0.05140156 -0.057565745 0.0006269996
000300 95 93 7c 3e 34 aa bc 3e 86 88 fc 3e 55 6d 3c 3e
       0.24665673 0.36848605 0.4932291 0.18401082
000310 a8 6c fa 3e 7c 1f d3 3e 41 96 b0 3e f1 2a f5 3d
       0.48911023 0.41234958 0.34489635 0.11971081
000320 5e b1 9a 3e 74 1e c9 3e 3c 45 09 3f 73 38 0e 3f
       0.30213445 0.39281046 0.5362127 0.55554885
000330 d8 0c 04 3f 24 c9 ad 3e 24 31 59 3e ab 3f ec 3d
       0.515821 0.3394252 0.21210152 0.11535581
000340 81 70 3f 3e 54 14 59 3e a7 64 88 3e 32 a2 80 3e
       0.1869526 0.21199161 0.26639292 0.25123745
000350 bc a4 9e 3e 99 ba 03 3f f6 e6 af 3e b9 71 10 3f
       0.30985057 0.514566 0.34355897 0.56423527
000360 9d c4 05 3f 2c c6 06 3f 0f 14 50 3f 2f b1 18 3e
       0.52253133 0.52646136 0.81280607 0.1491134
000370 0c b4 68 3e a5 23 80 3e 2c dd 5d 3e 3b 3e cc 3e
       0.22724932 0.25027195 0.21666402 0.39891228
000380 cf e2 9b 3e 9c 8a 13 3e 5a 87 d9 3e 35 77 ab 3e
       0.3044648 0.14408344 0.42486078 0.33489385
000390 77 f4 00 3f f5 8c fa 3e 61 b6 fc 3e 90 3e a9 3e
       0.50373024 0.48935667 0.49357894 0.33055544
0003a0 ba e4 25 3f 17 8f f9 3e ba ad be 3e d5 61 05 3f
       0.64802134 0.4874198 0.37241918 0.52102405
0003b0 f5 a0 7d 3e 46 40 8f 3e 7d 57 9f 3e e9 4d 97 3e
       0.24768431 0.27978724 0.31121436 0.29551628
0003c0 57 e0 8a 3e 46 5b 2b 3e b6 8a 8c 3e 83 b6 da 3e
       0.27124283 0.16734037 0.27449578 0.4271737
0003d0 3c 8e 1b 3f 5a ce d7 3d 4d c7 cd 3e d1 dc 59 3e
       0.6076391 0.10537405 0.40191117 0.21275641
0003e0 49 ee 74 3e 15 0b f7 3e e2 86 0f 3e da dc 3f 3f
       0.23919024 0.48250642 0.14016297 0.7494637
0003f0 5a f7 da 3e ca 91 9e 3e f0 d0 d4 3e 6c 05 b4 3e
       0.4276684 0.30970603 0.41565657 0.35160387

lstm.weight_ih_l1 f4 [256, 64]
000000 8e a3 db bc f0 d7 cd 3d 3b f9 4c be 6d e8 f8 3d
       -0.026811387 0.100509524 -0.20016949 0.12153707
000010 3c 3f aa bd 40 5e f7 bd 8f 88 a8 bd 02 c2 b2 3d
       -0.08312842 -0.12078524 -0.082291715 0.0872841
000020 0c 76 49 3e 0d 6a e2 bd 1e 3f 0d bc 64 ef 8f 3c
       0.19673938 -0.11055384 -0.008621005 0.017570205
000030 da 08 0f 3e 27 22 ab 3c 57 ef 97 bc e4 55 e7 bc
       0.1396822 0.020890309 -0.018546743 -0.028239198
000040 e8 81 1c be 24 eb 1c be 28 7c 98 bd 9c fa b9 3b
       -0.1528393 -0.15324074 -0.07445556 0.005675627
000050 85 ef 5b 3d 1b 12 21 3d c9 39 28 bd 5f 55 a4 3d
       0.05369522 0.039323907 -0.041070733 0.08024096
000060 03 2c 79 be 6e 2e e9 bc 02 ab 32 bd ec ca ad ba
       -0.24333195 -0.028464522 -0.043620117 -0.0013259328
000070 2e da 82 3d d7 85 0a 3e 08 7b 3a 3e 66 70 ee 3d
       0.06389271 0.13527618 0.18210995 0.11642532
000080 50 d1 f8 3d 4e 30 6e be 21 69 d1 bc 0c 6b ee bd
       0.12149298 -0.23260614 -0.025562825 -0.11641511
000090 16 00 f4 bd c1 26 6a bd 4e 9a 6e be 54 e6 a2 bd
       -0.11914079 -0.057165865 -0.2330105 -0.07954088
0000a0 9f 5a 42 be 53 e9 14 be 5c 18 8a 3e 78 f0 7a 3d
       -0.18979882 -0.14542131 0.2697171 0.061264485
0000b0 83 cb c8 bd 17 31 0c be ac f2 b8 3b 60 b2 33 3c
       -0.09804442 -0.13690601 0.005644163 0.010967821
0000c0 8f fb 74 be 44 e0 7d 3d 40 ab 51 3b 1d c9 fe 3b
       -0.23924087 0.061981454 0.0031992942 0.0077754394
0000d0 2d ae 2c bd d4 11 3e be 37 e9 d7 bd 27 da ba bd
       -0.042158294 -0.18561488 -0.10542529 -0.091236405
0000e0 60 93 ec bd b7 9b fc bc c6 26 81 3b 31 89 80 bd
       -0.11551547 -0.03083597 0.0039413897 -0.06276167
0000f0 06 02 80 3d 27 1b 03 be 4c a9 a6 3d 49 92 42 bc
       0.06250386 -0.12803327 0.081377596 -0.011875697
000100 af a4 3d 3d 5b 2e ef 3d 09 cb 13 be 90 e1 0e 3d
       0.046299633 0.116787635 -0.1443292 0.034883082
000110 16 9b 3d be 45 f4 23 bd d9 d4 e9 3c f2 bc 08 3e
       -0.18516192 -0.040027875 0.028543876 0.13353327
000120 b8 8f 55 3d cb 5e 1f 3d 2d aa 63 3d 09 a3 5e bd
       0.052139014 0.03890876 0.055582214 -0.0543547
000130 e4 e1 22 3d 69 29 0a 3e 45 92 ea bd db dd e3 3c
       0.039766207 0.13492359 -0.1145368 0.02781575
000140 1d 74 cf 3c 71 39 9e 3c 02 93 a3 bd f9 30 a7 bd
       0.025323922 0.0193145 -0.07987024 -0.08163638
000150 75 8c 73 bd 14 c4 d6 3d ee fa 67 3c 0b 5d ca bc
       -0.059460122 0.10486618 0.014158947 -0.02470257
000160 c7 74 75 3d fc 3d 42 bd ed 6c de bc c3 b1 b1 bd
       0.05992582 -0.047422394 -0.02715155 -0.086764835
000170 06 2e 87 3d 90 50 9d 3d 9c 7e fb bd 2b 0b 13 bd
       0.06600575 0.07681382 -0.12280008 -0.035899322
000180 5f ad 6d bc 65 04 b3 3c fb d6 00 be 71 65 a5 bc
       -0.014506667 0.021852681 -0.12582009 -0.020189973
000190 cf 7d 87 bd 67 83 53 3d 32 3f 54 be 6c fe e5 bd
       -0.06615793 0.051638987 -0.20727232 -0.11230168
0001a0 6f 97 01 3d 1b d0 83 bd 33 4e 97 bd 58 35 01 bc
       0.03163856 -0.06436177 -0.07387962 -0.007886253
0001b0 95 8e 5c 3d 97 4e 85 3d f0 2f b0 3d ea b1 28 3d
       0.053846914 0.065091304 0.08602893 0.041185297
0001c0 0c e2 a0 3c ef 07 e4 bd 1b 75 af bd 40 80 03 be
       0.019639038 -0.11134326 -0.08567258 -0.12841892
0001d0 7d 73 1b be 68 ea 8f bd b6 32 5c bd 8f 37 fc bd
       -0.15180774 -0.07027131 -0.0537593 -0.123152845
0001e0 d2 2a e5 bd e2 40 da bc 95 82 88 3d 2a 28 0d bc
       -0.11189808 -0.026642267 0.066655315 -0.008615533
0001f0 22 3c 5d 3d b6 fb 24 be 58 9e c1 bd 0e 98 b6 3d
       0.054012425 -0.16111645 -0.0945403 0.08915721
000200 27 7a 1e be 46 82 19 3c d9 33 54 be 9d 16 39 3d
       -0.15476285 0.0093694385 -0.20722903 0.04518758
000210 d8 8c d6 bd 18 5d 3e bd a4 39 49 be 8d 3c 94 3d
       -0.104760826 -0.0464755 -0.19650894 0.07238112
000220 d2 48 2e 3e d7 fb e8 bc 55 55 84 3d 1d f1 6f be
       0.17019966 -0.0284404 0.06461588 -0.23431821
000230 65 86 81 bd ac 87 42 3e 00 bb 62 be 5c e9 34 be
       -0.06324462 0.18997067 -0.22141647 -0.17667145
000240 a8 27 05 be ad 59 1a be fe fa 88 3c b0 ca e8 3d
       -0.13003409 -0.15073271 0.016721245 0.113667846
000250 b8 6a 03 be 05 63 df 3d 52 ed c8 bc 57 56 fd 3d
       -0.12833679 0.10907558 -0.024527226 0.12369984
000260 74 ba e4 bd f6 a9 b4 3d cf 67 3e be 6b 8d 40 3e
       -0.111683756 0.0882148 -0.18594287 0.18803947
000270 97 73 ec 3d be 35 26 3e e4 3a 14 3e b5 49 b2 3d
       0.115454845 0.16231439 0.1447559 0.08705465
000280 46 dd ca 3d 92 ae ee bd d4 53 74 bd cc 43 1b 3e
       0.09905486 -0.116543904 -0.059650257 0.15162581
000290 17 71 c7 bb 54 7d 1f 3e 70 d1 a3 bc ae a7 f7 3b
       -0.0060864794 0.15575153 -0.019997329 0.007557831
0002a0 ab 57 39 be 39 76 85 bd 7d 23 80 3e 37 25 7b 3e
       -0.18099849 -0.0651669 0.25027075 0.24525915
0002b0 76 32 8d bd c3 ca c3 3b 50 7f fc 3d ce c5 94 3c
       -0.0689439 0.005975099 0.123289704 0.018160727
0002c0 00 f2 c9 bd 4b 72 03 3d 7c 44 c7 bd f6 07 f2 bd
       -0.09860611 0.03209142 -0.09729859 -0.11817925
0002d0 95 d7 0e 3e 46 7b 20 be 1e 5e ef bd de 3c 91 bd
       0.13949426 -0.15672025 -0.11687873 -0.070916876
0002e0 6a 16 3d be d8 cf a1 bd 86 d2 25 3e 28 53 0c be
       -0.18465582 -0.07900971 0.1619359 -0.13703597
0002f0 94 0e 68 3e 01 ca 93 bd 3c 7f 90 bd df 31 a8 3d
       0.22661811 -0.072162636 -0.07055518 0.08212637
000300 3a a6 88 be da b2 c7 be dd 2c 09 bf 73 dc 95 be
       -0.2668932 -0.3900364 -0.5358408 -0.29269752
000310 41 53 95 be 8b c0 7f be 0c ae c3 3c 66 15 07 3f
       -0.2916508 -0.24975793 0.023886703 0.52767026
000320 61 be 05 3f 5e 7e b2 38 1c 23 c9 3d 99 e1 b7 be
       0.5224362 8.511239e-05 0.0982115 -0.35914305
000330 db 7e c6 bd cf 39 91 3c 37 7b df be 9a d0 00 be
       -0.096921645 0.01772776 -0.43648693 -0.12579575
000340 0f a0 ad bd e3 03 91 be 7a 57 4e 3e 1a 6d 6b 3e
       -0.084777944 -0.28323278 0.20150557 0.22990838
000350 92 47 3b 3e c1 44 d6 3e 46 30 c8 bd 30 78 13 3d
       0.1828902 0.4184933 -0.097748324 0.03600329
000360 9d 14 ef be b3 76 0e 3e 3f ab 3f be 16 d4 14 3d
       -0.46695414 0.13912468 -0.18717669 0.036335073
000370 8d f2 ca 3e 24 e1 b3 3e 7c d4 e1 3e 43 4b 10 be
       0.39638177 0.35132706 0.44107425 -0.1409121
000380 3d a2 b3 bd 46 fc a0 be 32 ef bf be b8 43 b7 3d
       -0.08771179 -0.3144247 -0.3748718 0.08948463
000390 f8 db 8a 3e 7f 4c 05 3f e9 07 4a be 9d f2 60 be
       0.27120948 0.5206985 -0.1972958 -0.2196755
0003a0 20 8d c2 be ea e3 ea bd d0 59 0e 3e d1 dd d6 3e
       -0.37998295 -0.114692524 0.13901448 0.41966107
0003b0 9f d1 db bd 15 57 5d bd bb 41 b7 3d a2 c5 e5 bd
       -0.107333414 -0.054038126 0.08948084 -0.11219336
0003c0 93 f4 8a be 18 59 c0 3e 48 e3 d9 be 1b aa d1 3d
       -0.2713972 0.37567973 -0.42556214 0.10237523
0003d0 6e e0 a1 3e de 42 9c be 57 b4 f1 be cf ef 81 be
       0.3161654 -0.30519766 -0.472079 -0.25378272
0003e0 e9 9c 06 bf 21 e4 40 be f7 6c 6d 3e bd 56 04 bc
       -0.52583176 -0.18837024 0.23186098 -0.008077321
0003f0 2d 86 e3 3e 55 52 10 bd ad f4 89 be 39 ba 3b 3e
       0.44438305 -0.035234768 -0.26944485 0.18332757

lstm.weight_hh_l1 f4 [256, 64]
000000 2a d4 a6 bd 9a 23 cd 3d be 3a 9c 3d 74 d4 15 3d
       -0.08145936 0.10016556 0.07628392 0.036579564
000010 28 ed b1 3c 92 7e f0 bd a4 54 43 bd 7c a6 fb bd
       0.02171953 -0.11742891 -0.04768814 -0.12287614
000020 60 e9 12 3c a4 08 73 bd b0 95 0f 3d d8 05 51 3d
       0.008966774 -0.059334412 0.035054862 0.051030964
000030 18 5b bb 3c e0 4d 18 3d fc 58 d9 3d 48 43 d1 bd
       0.022870585 0.037183642 0.106126755 -0.10217911
000040 18 ad ad bc ca d0 cb bd aa 7c d3 bd 68 58 59 3d
       -0.021200702 -0.09951933 -0.10326512 0.053062826
000050 e0 69 3f 3c 72 d3 e3 bd 72 c7 d7 3d 10 76 21 3d
       0.011682957 -0.11124314 0.10536088 0.039419234
000060 5e 02 f8 bd c8 83 ae 3d 00 44 47 ba dc a3 7f 3d
       -0.121098265 0.08521229 -0.00076013803 0.062412128
000070 f2 4a cc bd 58 cd 24 bd be 8b e7 3d 64 2d c1 bd
       -0.09975232 -0.040234894 0.113059506 -0.09432486
000080 60 2d 0b bd 70 87 8c 3c 72 c9 91 bd 6a 58 be bd
       -0.03397882 0.017154425 -0.07118501 -0.092942074
000090 7e 62 b5 bd 3c 16 dc 3d 00 6a da 3c 52 3f d0 bd
       -0.088566765 0.10746428 0.026661873 -0.101683274
0000a0 40 7d 22 3d 0e 87 b7 3d c8 93 2e bd 10 ce f5 3d
       0.03967023 0.089613065 -0.042621404 0.12002194
0000b0 3c 16 c8 bd 68 84 ac bc 10 5c 7d 3d 9c 29 99 bd
       -0.09769866 -0.02105923 0.061855376 -0.074786395
0000c0 90 9c e4 3c 2c 92 04 3d c8 3f 76 3d 86 e2 f8 3d
       0.027906686 0.032365963 0.06011942 0.12152581
0000d0 0a 3f 80 3d 5e d7 8c 3d a4 b6 48 bd f8 7f e0 bd
       0.06262024 0.068770155 -0.049002305 -0.10961908
0000e0 98 86 bd 3c 28 74 99 bd 18 5c 63 bd 0a 0b c9 3d
       0.023135468 -0.07492858 -0.05550775 0.09816559
0000f0 60 96 56 3d a6 43 8f bd d0 41 0f 3c 50 ca 98 bc
       0.052389503 -0.06995325 0.008743718 -0.018651158
000100 b8 af ca bc d4 b5 e6 bd f8 ad 19 bd c8 eb e2 bc
       -0.024741992 -0.1126515 -0.037519425 -0.02770032
000110 00 40 95 3c a4 1d b0 3d d4 cd dd bd 18 78 96 bc
       0.018218994 0.085994035 -0.10830274 -0.018367812
000120 38 ff ff bc b0 66 ac bd 00 b8 b1 3d b0 39 a6 3d
       -0.031249627 -0.084180236 0.08677673 0.08116472
000130 62 91 db bd c0 ab 1f 3c 8c 95 4e bd 80 9a 71 3c
       -0.10721089 0.009745538 -0.050435588 0.014746308
000140 58 ce a1 3c c8 4a a4 bd bc 28 ec 3d 48 28 ae 3c
       0.019751713 -0.08022076 0.11531207 0.021259442
000150 60 76 3a 3d 7c 56 69 3d fe f0 84 3d 80 05 e7 3a
       0.045523047 0.056967244 0.06491278 0.001762554
000160 28 da fe 3c a4 7a 61 3d 80 d5 e8 bc 74 4b 7b 3d
       0.031109884 0.0550486 -0.028422117 0.061351255
000170 24 5f 32 3d 24 b8 8d bd 5c d9 63 bd 60 37 bc 3d
       0.043547764 -0.06919888 -0.055627212 0.091902494
000180 40 7a c7 bc f8 b5 02 3d d4 52 f2 3d a6 4d ee bd
       -0.024350286 0.03191182 0.118322045 -0.11635904
000190 a0 71 ef bd 44 bf a7 3d 20 28 b9 3c f4 a0 17 bd
       -0.11691594 0.08190778 0.02260214 -0.03701873
0001a0 90 6b d7 bc 40 47 d3 3b d0 d5 a1 3c 56 fd b7 3d
       -0.026296407 0.0064477026 0.019755274 0.08983867
0001b0 28 f1 fb 3c 40 6f 44 bb 68 1f f9 3d e8 51 cb bc
       0.03075464 -0.0029973537 0.121641934 -0.02481933
0001c0 d2 6e df 3d 10 7b d8 3c 18 fe a0 bc 60 33 e8 bc
       0.10909809 0.026425868 -0.019652411 -0.02834481
0001d0 c0 83 b4 3d c4 e3 7c 3d 78 da b1 bc 5c 82 ab bd
       0.08814192 0.06174065 -0.02171062 -0.083744735
0001e0 da ee f4 bd 68 70 ee bd 94 6b d6 bd a6 2d fb bd
       -0.1195962 -0.116425335 -0.10469738 -0.12264566
0001f0 1c e3 de 3d 0c a5 23 bd e0 f7 f2 3b d8 40 c7 bd
       0.108831614 -0.039952323 0.007414803 -0.09729165
000200 bc f6 32 bd 08 9c 40 bd f8 2e 56 3d 80 55 3f bc
       -0.043692335 -0.047023803 0.052290887 -0.0116781
000210 0c 87 27 bd ac 82 0b 3d d0 e7 1d 3c 4e ea d5 3d
       -0.040900275 0.034060165 0.009637788 0.10445081
000220 34 d4 39 bd 68 02 95 bd 30 71 5c 3d f4 f2 d9 3d
       -0.04536839 -0.072758496 0.05381888 0.10642043
000230 94 64 23 3d 58 85 61 bd b0 40 19 bd a8 94 8b bd
       0.03989084 -0.055058807 -0.037415206 -0.06815463
000240 20 64 cd bd fc 76 36 bd b0 61 1e 3c 5c 20 6e bd
       -0.10028863 -0.044547066 0.009666845 -0.05813633
000250 d0 fa 59 bc 14 27 4b bd 00 dd df 3a 26 30 bf bd
       -0.013304427 -0.049597815 0.0017079413 -0.093353555
000260 00 41 18 bd e8 c9 c1 bd a2 bf 99 3d 2a 97 8c bd
       -0.037171364 -0.09462339 0.07507254 -0.0686477
000270 94 b0 10 3d 40 76 54 bc ce c4 bd bd c0 80 55 3c
       0.035324648 -0.012967646 -0.09266053 0.013031185
000280 3c e4 f9 bd c6 cb b2 bd 40 e9 41 bb 26 a5 c8 bd
       -0.122017354 -0.08730273 -0.002958849 -0.097971246
000290 b2 06 ee bd 30 b1 ad 3d 20 20 cd 3d 1c 19 71 bd
       -0.11622371 0.084810615 0.10015893 -0.058861837
0002a0 48 c9 c5 3c f8 68 a9 3c d0 da c1 bd da c2 a3 bd
       0.02414383 0.020679936 -0.09465563 -0.07996149
0002b0 14 6b 50 3d 40 3e 68 3d e4 32 50 bd aa bf c6 3d
       0.050883368 0.05669999 -0.050829783 0.09704526
0002c0 70 b3 d6 3c f2 58 b0 3d b4 aa 74 3d 0a e1 f0 bd
       0.02620861 0.08610715 0.059733108 -0.11761673
0002d0 c0 56 73 3d 3a e4 95 bd 62 43 d8 3d d0 e6 53 bd
       0.059408903 -0.073189214 0.10559727 -0.05173379
0002e0 46 c0 a6 3d 70 ae 81 3d d4 69 5f bd b6 e6 ea 3d
       0.08142142 0.063320994 -0.054544285 0.11469786
0002f0 aa fe a2 3d 9c c3 75 3d 60 b4 ce bb d6 55 dd bd
       0.079587296 0.060001 -0.0063081235 -0.108073875
000300 c0 15 32 3c fc 68 e1 3d 5a 19 f3 bd a0 37 23 bc
       0.010869443 0.11006352 -0.1187007 -0.0099619925
000310 f2 62 a4 3d 68 66 e9 3c f4 2b ac bd e0 64 b1 bb
       0.08026685 0.028491214 -0.08406821 -0.0054136366
000320 fe e0 98 bd e0 d7 e0 bc e0 19 85 3d b0 89 0b 3c
       -0.07464789 -0.027446687 0.06499076 0.008516714
000330 34 89 e0 bd b0 6f 5b bd ac 0d 2d 3d 12 22 90 3d
       -0.109636694 -0.05357331 0.042249367 0.070377484
000340 28 42 06 bd 24 38 ec bd d0 5c ec 3c d0 b5 82 bd
       -0.032777935 -0.115341455 0.02885285 -0.06382334
000350 08 40 09 3d 48 df c6 3c f0 27 8b bc 08 4f 39 bd
       0.03350833 0.02427639 -0.016986817 -0.045241386
000360 f6 8d f6 bd 08 2a 1c bd d0 fa 9a bc 20 b5 8d 3d
       -0.12038796 -0.03812602 -0.018918425 0.069193125
000370 10 e7 be bd 28 87 b1 bd b2 14 b2 bd 7e 5c da 3d
       -0.093214154 -0.08668357 -0.086953536 0.10662173
000380 d0 f6 8b bd 3e 03 d4 3d 40 a1 75 3c 0c 31 73 3d
       -0.06834185 0.10352181 0.014992058 0.059372947
000390 ac 97 d4 bd 78 4b a4 bd 1e 70 8d 3d 90 59 ba bd
       -0.103804916 -0.08022207 0.0690615 -0.09099114
0003a0 ca 23 c7 bd 00 a5 c0 bd 9a 3a ed 3d 7e 7e ee bd
       -0.09723623 -0.09406471 0.11583443 -0.1164522
0003b0 e0 f9 13 bc 58 4f e3 bc 80 2e 2e bd 00 94 66 3c
       -0.009031743 -0.027747795 -0.042524815 0.014073372
0003c0 c4 67 84 3d 18 04 d7 3c d0 21 7c bc ec 17 00 bd
       0.06465104 0.02624707 -0.015388921 -0.031272814
0003d0 c8 2e 85 3c 2a b8 de bd a8 47 4f bd 0c f9 96 3d
       0.016257659 -0.1087497 -0.050605446 0.07371721
0003e0 20 dd 5d bc c0 90 bb bc dc d6 39 3d 8c 2a d8 bd
       -0.01354149 -0.02289617 0.04537092 -0.1055499
0003f0 32 a3 d1 3d 40 7c ff bd 28 0b e1 bc d4 05 08 bd
       0.10236205 -0.12474871 -0.02747114 -0.033208683

lstm.bias_ih_l1 f4 [256]
000000 74 2d a0 3d 85 58 b5 3d 10 9d bb 3d 9a fc dc 3e
       0.078211695 0.088547744 0.09160817 0.4316147
000010 e7 53 70 3e eb a6 3b 3d 88 24 cd 3d 72 0f 05 3e
       0.23469506 0.045813482 0.100167334 0.12994173
000020 8a c4 42 bd a1 a8 06 3e 3c 79 0e 3f 7e be 6b 3d
       -0.047550716 0.13150264 0.5565374 0.057554714
000030 0a 84 fd 3d c3 c1 02 3e 74 ee 0d 3e 23 8a 8b 3e
       0.123787 0.12769227 0.13860494 0.27253827
000040 d1 9e 1e 3e 04 36 7c 3c 58 19 d2 3d 01 0d f3 3e
       0.15490271 0.015393738 0.1025874 0.4747086
000050 03 49 e8 3e b5 da e5 3d a5 e5 53 3d 73 d4 76 3d
       0.45368204 0.11223356 0.051732678 0.0602612
000060 0b 5e 0a 3d fc fa 07 3e fd cc 41 3e e0 6f 07 3f
       0.033781093 0.13279337 0.18925853 0.5290508
000070 28 ca 45 3d 40 da 40 3e 27 90 f2 3d 85 75 9b 3e
       0.048288494 0.18833256 0.11843901 0.30363098
000080 9c da e3 3e 13 6b 8b 3d 2e 72 01 3e 29 86 e1 3e
       0.44502723 0.06807532 0.12641212 0.4404767
000090 b9 2d 02 3e 00 ba ee 3e a8 b9 87 3e 48 f6 e7 3c
       0.12712754 0.46626282 0.26508832 0.028315678
0000a0 7a 80 9a 3e 49 fe 82 3e eb c8 52 3e 1b e3 84 3e
       0.30176145 0.2558463 0.20584457 0.25954518
0000b0 8f ea 5f 3e a1 78 46 3d 3b 2b a6 3e cc ec 7c 3e
       0.21866821 0.048454884 0.32454857 0.24699706
0000c0 20 62 1b bd b2 a6 57 3c c7 da 0e 3e ec b3 14 3c
       -0.037935376 0.013162302 0.13950644 0.0090761
0000d0 d6 39 49 3d de 46 35 3e 52 95 30 3d 9a ad 4c 3d
       0.049127422 0.17702815 0.043111153 0.049970247
0000e0 0a 02 af 3e dd 7c b6 3d a0 9d bc 3e 7f 7a 21 3e
       0.34181243 0.089105345 0.36839008 0.15769385
0000f0 7e dd 63 3e 71 c7 22 3e df 05 1a bd b2 e5 b3 3e
       0.22252461 0.15896393 -0.037603255 0.3513618
000100 3c af 60 bd ca f9 97 3d 72 f7 c5 bd 64 46 76 3d
       -0.054854617 0.0742069 -0.09666337 0.060125723
000110 78 41 8a 3c 20 61 2d bd 80 9d 49 bc 86 50 86 3d
       0.016876921 -0.042328954 -0.012305617 0.065583274
000120 4c 4e 98 bd 80 15 29 3c 7a 69 fa 3d bc 81 16 bd
       -0.07436809 0.010320067 0.12227149 -0.036744818
000130 90 1d 41 3d dc d4 9e bd 98 bf 87 3c 90 02 90 3c
       0.047147334 -0.077554435 0.016570851 0.017579347
000140 e2 23 94 3d a4 1c 93 3d 70 56 a0 3d 40 e4 0c bb
       0.072334066 0.07183197 0.07828987 -0.0021498352
000150 f2 f4 82 3d ca e3 be 3d c0 8e a9 3d 80 e9 99 bc
       0.06394376 0.09320791 0.082791805 -0.0187881
000160 f0 4a b1 bc 8a 29 c5 3d f0 be 34 3d 36 73 e7 3d
       -0.021642178 0.096270636 0.044127405 0.113012716
000170 90 b1 54 3c dc bb 5d 3d 86 ea ed 3d dc 5e 60 bd
       0.012981787 0.054134235 0.116169974 -0.054777965
000180 c0 e9 33 3d f0 34 66 bd 8c ab f6 3d e0 f6 b1 3d
       0.043924093 -0.05620283 0.12044439 0.08689666
000190 c4 da 78 bd 40 13 c5 3d b8 60 47 bd 94 b6 58 bd
       -0.060755506 0.09622812 -0.048676223 -0.052908495
0001a0 e8 f2 66 3d 64 95 85 bd 50 a0 f3 bd c4 b2 0a bd
       0.056383997 -0.065226346 -0.118958116 -0.03386189
0001b0 74 12 87 bd 0a f9 92 bd 30 2b 3f bc 46 84 ca bd
       -0.065953165 -0.07176407 -0.011668012 -0.098885104
0001c0 8c 5a 9a bd a6 7d 95 bd e0 93 9e bd e4 d2 eb 3d
       -0.07536802 -0.07299356 -0.07743049 0.115148336
0001d0 40 a5 b9 bc 7e 95 e4 3d 40 4a 61 bd 14 81 07 3d
       -0.022661805 0.11161326 -0.05500245 0.033082083
0001e0 00 cd e0 bc 60 ee f3 bd 34 b6 c7 3d 86 a0 db 3d
       -0.027441502 -0.11910701 0.09751549 0.10723977
0001f0 f8 86 56 bd a0 58 97 3d b6 b5 e6 3d 08 cd e6 3c
       -0.05237481 0.07389951 0.11265127 0.028173938
000200 97 b3 e2 bd 7b e7 b1 bd db 8f 94 bd 1d b7 b2 3d
       -0.1106941 -0.086867295 -0.07254001 0.08726332
000210 bf d7 8a bc 83 4a 1c 3d 7a 42 90 bc cf 0d f4 bd
       -0.016948579 0.038156997 -0.017609823 -0.11916696
000220 fe 4e e6 3d 24 b1 72 bd 0e 8c c0 3d e7 98 f5 bd
       0.11245535 -0.059250966 0.09401713 -0.119920544
000230 6c 07 c1 3d 27 68 a2 3d a6 27 f2 3d 00 53 de bd
       0.09425244 0.07930022 0.118239686 -0.10855675
000240 11 70 a0 ba f2 53 e1 3b 9e 9a 81 3d 97 8b 42 3d
       -0.001224043 0.006876462 0.06328319 0.047496404
000250 3b 56 1d 3d 1f 9f 33 3e 61 4a 1d bd 9b 9e 31 3d
       0.038412314 0.17541169 -0.03840101 0.04336415
000260 00 cc bf bd 72 a9 c4 bd c9 fe 27 bd 71 41 b3 bd
       -0.09365082 -0.09602632 -0.041014466 -0.08752716
000270 2b 3c 06 bd 08 b1 17 bd dd db c4 bb 37 6b ca bd
       -0.032772224 -0.037034065 -0.006007655 -0.09883731
000280 0d 93 f8 bc f6 12 34 3d 5a 03 0b 3d ab 04 2b 3d
       -0.030343557 0.043963395 0.033938743 0.0417525
000290 84 57 c1 3d ec c3 3d 3d 13 b0 aa bd 4e 65 03 be
       0.094405204 0.046329424 -0.08334365 -0.12831613
0002a0 8d 76 e0 3c 77 a6 bd bc bb cc bd bc d5 fc c0 bb
       0.02740028 -0.023150666 -0.023168912 -0.005889515
0002b0 7a a6 b5 3c e3 8b 0f ba c7 dd 98 bd 8f 06 b0 bd
       0.022174109 -0.0005475862 -0.07464176 -0.08595001
0002c0 46 f5 10 be 3f bb 2a bd c6 ab f1 3d 52 b7 96 bd
       -0.14156064 -0.041682478 0.11800341 -0.07359184
0002d0 7e 67 ce 3d f2 9c c8 3d 9d 97 82 bd d4 12 10 be
       0.10078333 0.0979556 -0.06376574 -0.14069682
0002e0 70 47 51 bd 0e 1a 01 3e b3 31 02 3d ba 61 66 bb
       -0.05109352 0.12607595 0.031785678 -0.0035153464
0002f0 1a be 1b 3d 0d 3a cb 3d 30 68 94 3d e7 dd 7a bd
       0.03802309 0.09923182 0.07246435 -0.06124678
000300 29 4e 99 3d 8a 37 5c 3d c9 cd 24 3e fa 87 bb 3e
       0.07485611 0.053763904 0.16094126 0.3662718
000310 40 dc e0 3d 02 e1 cf 3d 91 fd 8e 3e 88 0e a3 3e
       0.10979509 0.10150339 0.2792783 0.31847024
000320 12 a7 6a bd 2e e8 d8 3c 1a 44 bd 3e 87 14 13 3e
       -0.057288237 0.0264779 0.3696602 0.143633
000330 a8 af ac bc ec c7 54 3e a9 28 98 3e 4a bb ce 3d
       -0.021079853 0.20779389 0.2971852 0.10094316
000340 66 ae f4 3d 50 67 5e 3d 58 cc 93 3d 09 30 de 3e
       0.11947326 0.054297745 0.0721671 0.43396023
000350 8b 0d ef 3e d3 2c be bc 52 24 2c 3d fd d9 5b 3e
       0.4669002 -0.023214733 0.042026825 0.21469875
000360 45 3e 09 3e 19 83 63 3e ad c6 79 3e 22 3a c1 3e
       0.1340266 0.22217979 0.24392195 0.37739664
000370 7e e2 bc bc 45 6f 23 3e 78 63 df 3d 9b a3 b1 3e
       -0.023057219 0.15960415 0.10907644 0.34695134
000380 33 03 d6 3e 3b 79 31 3e 6c 47 8f 3e ba e1 e9 3e
       0.41799316 0.17331402 0.27984178 0.45680028
000390 cd 4a 86 3e 68 95 ea 3e 12 fa 05 3e 59 9d 5c bd
       0.26228943 0.45817113 0.13083676 -0.053860996
0003a0 06 29 be 3e 9a c0 20 3e 3c a3 14 3e 89 92 8a 3d
       0.37140673 0.15698472 0.14515394 0.067662306
0003b0 b4 c6 b1 3e 40 36 6f bd f1 2a bb 3e 14 48 8e 3e
       0.3472191 -0.058401346 0.365562 0.27789366
0003c0 e6 f9 22 bd a6 50 99 3c 48 cf f9 3c 35 b8 d6 bc
       -0.039789103 0.018715214 0.030494347 -0.026210884
0003d0 32 f4 04 bd 7c 24 86 3d 46 05 99 3d 54 db 8b 3a
       -0.032459445 0.065499276 0.07471709 0.0010670223
0003e0 f8 c8 d9 3e a5 8e c0 3d e7 b3 e1 3e 9b 70 a2 3e
       0.4253614 0.09402207 0.44082567 0.31726536
0003f0 cf b7 35 3e 1c b2 63 3e b9 07 f9 bb 2b 32 cb 3e
       0.17745899 0.22235912 -0.0075997976 0.39686713
