LSTM_for_PDE/codes/models/LSTM_NS2d_improved.pth (torch, 131189 bytes, 10 tensors)

rnn.weight_ih_l0 f4 [200, 4]
0	0xbe386ce5	-0.1801029
1	0x3e6eafcb	0.23309247
2	0xbd1c1bd6	-0.038112484
3	0x3dee29e4	0.11629084
4	0xbde85359	-0.11344022
5	0x3d97fd3b	0.07421347
6	0xbe044959	-0.12918605
7	0xbd66f179	-0.05638263
8	0x3d4373b6	0.047717772
9	0xbd6a235f	-0.05716264
10	0xbdd27fb9	-0.102782674
11	0xbd80dd88	-0.06292254
12	0xbea6b6b8	-0.32561278
13	0x3d4f6590	0.050633967
14	0x3d582988	0.052773982
15	0xbd8dc714	-0.06922737
16	0x3c239c08	0.009985931
17	0x3d742acd	0.05961113
18	0x3e007a15	0.1254657
19	0x3d755854	0.05989869
20	0x3dda6346	0.10663466
21	0x3dd04036	0.10168497
22	0xbde70cc7	-0.11281734
23	0xbdb84240	-0.08997011
24	0xbc5b7dc4	-0.013396684
25	0xbc1127be	-0.008859573
26	0xbe05a68b	-0.13051812
27	0xbd327541	-0.043568853
28	0xbda56678	-0.08076185
29	0x3da1f175	0.079073824
30	0x3c106d4b	0.00881512
31	0x3c6761a2	0.014122399
32	0xbe6eafd1	-0.23309256
33	0x3d524b3f	0.05134129
34	0xbd06d0f3	-0.032914113
35	0xbda44f95	-0.080229916
36	0xbcc7dcba	-0.024397243
37	0x3e08c77c	0.13357347
38	0xbce77bd7	-0.028257294
39	0x3e53f5c8	0.20699227
40	0xbdcf0bdf	-0.10109686
41	0x3e5a7d48	0.21336854
42	0xbc52c728	-0.012864865
43	0x3e290158	0.16504419
44	0x3d5a55f3	0.053304624
45	0xbdbc0209	-0.09180076
46	0x3c0a655b	0.008447017
47	0xbd82a4a7	-0.06379061
48	0xbdd302fd	-0.10303304
49	0xbe2bfd5a	-0.16795865
50	0x3d33939f	0.043841954
51	0xbc7b6d70	-0.015345916
52	0x3d43f9b5	0.04784556
53	0xbd0b964d	-0.034078885
54	0xbdb7acd8	-0.08968514
55	0x3e0ad6a1	0.13558437
56	0xbde6b1e4	-0.11264399
57	0xbc5dcf33	-0.01353817
58	0xbe2ae8fd	-0.1669044
59	0xbb4241d5	-0.002964129
60	0xbe8d4449	-0.2759116
61	0xbe3eb964	-0.18625408
62	0xbcb60b3c	-0.022222154
63	0xbc18343b	-0.009289796
64	0x3dedfa1e	0.11619972
65	0xbdfa1910	-0.122118115
66	0x3d918847	0.07106071
67	0x3d789cad	0.060696293
68	0x3da95324	0.08267811
69	0xbe377171	-0.17914368
70	0xbd46a3c6	-0.04849603
71	0xbe040cfc	-0.12895578
72	0xbe242849	-0.16030993
73	0xbca2d90e	-0.01987889
74	0x3c07a1c6	0.008278316
75	0xbe4b612b	-0.19861285
76	0x3db35bec	0.08757767
77	0xbd00b1f1	-0.0314197
78	0x3d169edc	0.036772594
79	0xbe4f8103	-0.20264058
80	0xbe74085d	-0.23831315
81	0x3dd5d95b	0.10441848
82	0x3e025783	0.12728696
83	0x3c975357	0.018472357
84	0x3e13a92c	0.14420003
85	0x3d54b909	0.051934276
86	0x3dfa9d41	0.12237025
87	0x3c27d30f	0.010243191
88	0xbe2dbf89	-0.16967596
89	0xbcb0f6ff	-0.021602152
90	0xbc4b1b97	-0.012396715
91	0x3d3deb11	0.046366755
92	0x3dbf381c	0.09336874
93	0x3d1d59e8	0.03841582
94	0x3e01f1bf	0.12689875
95	0x3da6168d	0.0810977
96	0x3e31bd61	0.17357399
97	0x3ddbf65f	0.10740351
98	0x3df21d24	0.118219644
99	0x3c81a55c	0.01582592
100	0x3cc4d0d9	0.024025368
101	0x3e428a6c	0.18998116
102	0x3caadd53	0.020857489
103	0x3e8259a8	0.25459027
104	0x3db2a106	0.08722119
105	0xbddacaaa	-0.10683186
106	0xbc81a25a	-0.015824486
107	0x3da2669c	0.079297274
108	0xbd9455ae	-0.072429046
109	0xbdad6351	-0.08466209
110	0x3d87ac56	0.06624667
111	0xbe2b045d	-0.16700883
112	0xbe282237	-0.16419302
113	0xbdb43482	-0.087990776
114	0xbdd2b254	-0.1028792
115	0xbdf1ba74	-0.11803141
116	0x3c921a03	0.017834669
117	0xbd0b0a0a	-0.03394512
118	0xbe04f4bc	-0.12983984
119	0xbd27a88d	-0.040932227
120	0xbda717fc	-0.081588715
121	0xbe1ea729	-0.15493454
122	0x3d90c8c6	0.070695445
123	0x3e01e7c6	0.12686071
124	0x3d3b9f21	0.045806054
125	0xbd370638	-0.044683665
126	0xbe08e642	-0.13369086
127	0x3cbbf1bc	0.022942416
128	0x3df9e351	0.1220156
129	0x3e7a3e3f	0.24437808
130	0x3d6f9404	0.058490768
131	0xbd7eba41	-0.062189344
132	0xbd36a61f	-0.04459202
133	0xbcc92b48	-0.02455677
134	0xbba3e7d3	-0.005002001
135	0xbe39b546	-0.18135557
136	0xbd507d2e	-0.05090063
137	0xbd94b784	-0.07261565
138	0x3db46622	0.08808543
139	0xbc7c61e2	-0.015404196
140	0xbe7084be	-0.23488137
141	0xbe2f70cb	-0.17132871
142	0x3e345ac0	0.17612743
143	0x3df1e7ba	0.118117765
144	0xbcdcbed1	-0.026946457
145	0x3ce226b3	0.027606344
146	0xbdb7731c	-0.08957502
147	0xbdc871f4	-0.0978736
148	0x3d8c7be9	0.068595715
149	0x3d618465	0.055057902
150	0xbcdbf7e9	-0.026851611
151	0x3db7667f	0.089550965
152	0xbd8a115d	-0.06741593
153	0x3d94175d	0.07231019
154	0x3df6f25a	0.12057944
155	0xbb8972a6	-0.0041945754
156	0x3d00fa75	0.031488854
157	0x3e2dae63	0.16961055
158	0xbd128861	-0.035774592
159	0x3e864994	0.2622801
160	0x3d2f4601	0.04279137
161	0xbdc58533	-0.09644546
162	0xbd17e0b1	-0.037079517
163	0x3d5ad067	0.053421404
164	0xbe6f6287	-0.23377429
165	0xbdb00a40	-0.08595705
166	0xbbba1772	-0.0056790644
167	0x3ce0ed6a	0.027456958
168	0x3d03dc2b	0.03219239
169	0x3da284b3	0.079354666
170	0xbce48f31	-0.02790031
171	0xbddcee58	-0.10787648
172	0xbe04658a	-0.12929359
173	0x3d9f5316	0.07779519
174	0x3d5ebb38	0.054377764
175	0xbcfc81ff	-0.030823706
176	0xbd1e65c4	-0.03867127
177	0xbe0e2ba2	-0.13883832
178	0x3d0338ed	0.03203671
179	0xbda2f74f	-0.079573266
180	0x3bc433c0	0.0059876144
181	0x3da8d606	0.08243947
182	0x3e03548e	0.12825224
183	0x3da591d6	0.080844566
184	0xbdb8b153	-0.09018197
185	0x3c804299	0.015656756
186	0x3b769029	0.0037622547
187	0xbdfea4f8	-0.12433809
188	0x3da73298	0.08163947
189	0xbcc6ba17	-0.024258656
190	0xbd905164	-0.07046774
191	0x3d09d20c	0.033647582
192	0x3e01d48d	0.12678738
193	0x3d2f6f99	0.042831037
194	0xbd68b5dc	-0.05681406
195	0xbdda7e4d	-0.10668621
196	0xbe1eed09	-0.15520109
197	0xbe54f67e	-0.20797154
198	0x3da6db57	0.081473045
199	0xbe58fe27	-0.21190701
200	0xbc40e110	-0.011772409
201	0xbc137870	-0.0090008825
202	0xbd83a848	-0.064285815
203	0xbd738a00	-0.05945778
204	0xbdad3dd6	-0.0845906
205	0xbdb11132	-0.08645858
206	0xbe0390b9	-0.12848176
207	0xbd0a0f3c	-0.033705935
208	0x3df7b67e	0.120953545
209	0x3ad02700	0.0015880764
210	0x3d5e3c10	0.0542565
211	0x3d3b4064	0.045715705
212	0xbd92b730	-0.071638465
213	0x3dc9a314	0.09845558
214	0x3dec85f6	0.115489885
215	0xbbc64be0	-0.0060515255
216	0x3e061eb5	0.13097651
217	0x3e10b0d5	0.14129956
218	0x3db3df5a	0.08782835
219	0x3d948c86	0.07253365
220	0x3d67d608	0.0566006
221	0xbdcf7510	-0.1012975
222	0xbb3ba6c0	-0.0028633326
223	0x3da8de74	0.082455546
224	0xbdc5757e	-0.096415505
225	0xbda0b3e4	-0.078468114
226	0xbd7e34ce	-0.062062077
227	0x3d902f32	0.07040252
228	0xbe0a33ed	-0.1349637
229	0x3da93eee	0.08263956
230	0x3dea701a	0.11447163
231	0x3d4b1020	0.049575925
232	0x3da54e14	0.08071533
233	0x3d0228d0	0.031777203
234	0x3d1b129c	0.037859544
235	0xbe01e132	-0.12683561
236	0xbd8d2bc5	-0.06893114
237	0x3b16e380	0.0023023784
238	0x3e024269	0.12720646
239	0x3d28e690	0.041235507
240	0x3cee7330	0.02910766
241	0x3d956784	0.07295135
242	0x3c2b6ad0	0.010462478
243	0x3e0c1577	0.13680063
244	0xbc59ab90	-0.013285533
245	0x3d4d11c4	0.05006577
246	0xbac03600	-0.0014664531
247	0xbb1ed540	-0.0024235994
248	0xbe0d057a	-0.1377162
249	0x3d490fe8	0.049087435
250	0x3c1aad00	0.0094406605
251	0xbe0a0095	-0.13476785
252	0xbcc237d4	-0.023708262
253	0x3dda73e2	0.10666634
254	0x3d96a050	0.07354796
255	0x3ddac258	0.106815994

rnn.weight_hh_l0 f4 [200, 50]
0	0xbd82f47b	-0.06394287
1	0x3dd47dca	0.10375555
2	0xbdda0449	-0.106453486
3	0x3d2d0790	0.04224354
4	0x39da7800	0.00041669607
5	0xbd699908	-0.057030708
6	0xbdfb0834	-0.12257424
7	0xbdaf2072	-0.0855111
8	0xbd01b754	-0.031668976
9	0xbd9a8f4b	-0.07546862
10	0x3cf673b0	0.030084461
11	0xbcbc5ebc	-0.022994392
12	0x3df2be2e	0.1185268
13	0x3d6b3e18	0.057432264
14	0xbde295bb	-0.11063715
15	0x3dd3e32a	0.103460625
16	0x3c52a130	0.012855813
17	0x3d96c414	0.07361618
18	0xbe008ac6	-0.12552938
19	0x3e09c501	0.13454057
20	0x3d628520	0.05530274
21	0xbdfb56f4	-0.12272444
22	0x3d4c6e6c	0.049909994
23	0xbd3ff788	-0.046866924
24	0x3c44ac40	0.012003958
25	0xbded8cc7	-0.11599117
26	0x3c62b920	0.013838083
27	0x3dac36f6	0.084089205
28	0xba11b000	-0.0005557537
29	0x3cda0be8	0.026617005
30	0x3e030053	0.12793092
31	0x39707400	0.00022931397
32	0xbd70ab42	-0.058757074
33	0x3d141678	0.03615424
34	0x3df7dcb6	0.12102644
35	0x3cd85f88	0.02641274
36	0x3dbb0eb0	0.09133661
37	0xbda5db73	-0.08098497
38	0x3e046f63	0.12933116
39	0xbe08397a	-0.13303176
40	0x3e051fcf	0.13000415
41	0xbded81b8	-0.115970075
42	0xbddb499a	-0.10707398
43	0xbe08a11e	-0.13342711
44	0x3d8eb4d2	0.069680825
45	0xbd126dc4	-0.035749212
46	0xbd965a8c	-0.07341489
47	0xbd2399de	-0.03994166
48	0x3d9c4204	0.07629779
49	0x3e02d661	0.12777092
50	0xbd97c0fd	-0.074098565
51	0xbbc6ec60	-0.0060706586
52	0xbcc70cb4	-0.02429805
53	0xbe0292c3	-0.12751298
54	0x3d5e49cc	0.054269597
55	0xbe09ef8c	-0.13470286
56	0x3ddf2522	0.108957544
57	0xba9a6d00	-0.0011781752
58	0x3d317150	0.043320954
59	0xbbb6e240	-0.0055811703
60	0xbc70ec30	-0.014704749
61	0x3de5268a	0.11188991
62	0x3dd53dc0	0.104121685
63	0xbe0b830c	-0.13624209
64	0x3d465da4	0.048429146
65	0x3da2b0da	0.07943888
66	0x3da48d16	0.080347225
67	0x3e01dcc5	0.12681873
68	0xbe095ee8	-0.1341511
69	0x3c9cc1b0	0.019135326
70	0x3e064d15	0.13115342
71	0x3c932978	0.01796411
72	0xbd10c698	-0.035345644
73	0xbd0a9f7c	-0.033843502
74	0x3dfd11ea	0.123569325
75	0x3d1a67e4	0.037696734
76	0x3d74e494	0.0597883
77	0x3d8d7522	0.06907107
78	0x3c75a030	0.014991805
79	0xbd42bec2	-0.047545202
80	0xbe0b7ed6	-0.13622603
81	0x3d223a40	0.039606333
82	0xbe04229e	-0.1290383
83	0xbd34b4d6	-0.04411777
84	0x3b644b00	0.0034834743
85	0x3d8626da	0.06550379
86	0xbdbfbe0c	-0.093624204
87	0xbc91c848	-0.017795697
88	0x3ce737c8	0.02822484
89	0x3dfcfa66	0.12352447
90	0xbddd3a18	-0.10802096
91	0x3d9727b8	0.073806226
92	0x3dab4c8e	0.08364211
93	0x3e05f915	0.13083299
94	0x3d6f1f3c	0.058379397
95	0xbbdce160	-0.006740734
96	0xbb8d0be0	-0.004304394
97	0x3e073d6f	0.13207029
98	0x3da41458	0.08011693
99	0xbdd51d15	-0.104059376
100	0x3d321cec	0.043484613
101	0xbd37933c	-0.044818148
102	0x3d2e4934	0.04255028
103	0x3d31f040	0.04344201
104	0xbc39f080	-0.011348844
105	0x3ad35c00	0.0016125441
106	0xbd990bda	-0.07472964
107	0xbd4d4aec	-0.05012028
108	0x3e001bb9	0.12510575
109	0xbd8bd980	-0.06828594
110	0xbd79524e	-0.060869507
111	0x3d093454	0.03349717
112	0x3e0b9431	0.1363075
113	0x3dd2e71e	0.10297988
114	0x3df9807a	0.12182708
115	0x3db50ee0	0.08840728
116	0xbca23c44	-0.019804128
117	0xbd97fbbd	-0.07421062
118	0x3d1563c0	0.036472082
119	0xbddf5cfd	-0.10906408
120	0x3d012838	0.031532496
121	0x3da98d72	0.08278932
122	0xbe0b0292	-0.13575199
123	0x3df50606	0.119640395
124	0xbc2a0ed0	-0.010379508
125	0xbcf6f128	-0.03014429
126	0xbdce907f	-0.10086154
127	0x3d7152d8	0.058916897
128	0xbd2cedce	-0.042218976
129	0xbce87388	-0.028375402
130	0x3d483594	0.04887922
131	0x3da8c33a	0.082403615
132	0xbdef7b22	-0.116934076
133	0xbce3c708	-0.027804866
134	0xbd26f208	-0.040758163
135	0x3d7e829c	0.062136278
136	0x3d84a3aa	0.06476529
137	0xbda9cde5	-0.082912244
138	0xbdfe2f54	-0.12411371
139	0xbd55b6fa	-0.052176453
140	0xbe02dc7c	-0.1277942
141	0xbc944da8	-0.018103436
142	0x3d716e0c	0.05894284
143	0x3e0f3861	0.1398635
144	0xbd09d8aa	-0.033653893
145	0xbce993ec	-0.028512917
146	0x3d5b89b4	0.05359812
147	0xbd9ea6e8	-0.077466786
148	0x3dadb308	0.08481413
149	0xbd802836	-0.0625767
150	0xbd46a69c	-0.048498735
151	0xbdcc0a3f	-0.09962892
152	0x3d637d6c	0.055539533
153	0xbd4a710a	-0.04942421
154	0x3d29b618	0.041433424
155	0xbdf17da6	-0.11791544
156	0xbd773ec6	-0.0603626
157	0x3da3e69e	0.08002971
158	0xbd39e1d0	-0.045381367
159	0xbd0127a0	-0.03153193
160	0x3d62de20	0.055387616
161	0x3c441d10	0.01196982
162	0xbd62b914	-0.055352286
163	0x3d8ce578	0.06879705
164	0xbe059c2e	-0.13047859
165	0xbd20c40e	-0.039249472
166	0xbdadb644	-0.0848203
167	0xbbe2ac80	-0.0069175363
168	0x3da6c004	0.08142093
169	0xbd5c49e0	-0.05378139
170	0xbd76d58e	-0.060262255
171	0x3d4f97a8	0.05068174
172	0xbb9c2ca0	-0.004766062
173	0x3d384e10	0.04499632
174	0xbd9341a6	-0.07190256
175	0x3b16fac0	0.0023037642
176	0x3dbf90fc	0.093538254
177	0x3d885980	0.06657696
178	0x3c21b850	0.009870604
179	0x3dace06c	0.084412426
180	0x3d2a7f78	0.04162547
181	0x3dd9bf3a	0.10632177
182	0x3d2fbc1c	0.042904004
183	0x3af02000	0.0018320084
184	0x3d737534	0.059437945
185	0x3c1364c0	0.008996189
186	0xbdb05681	-0.08610249
187	0x3bb804e0	0.0056158155
188	0x3d2063b8	0.0391576
189	0xbdd12516	-0.10212152
190	0x3d289fc8	0.041168004
191	0xbdf41f22	-0.119200006
192	0x3cef2e78	0.029196963
193	0x3dcaea1a	0.099079326
194	0x3dff9172	0.12478913
195	0xbe02e58c	-0.12782878
196	0xbdf31f9f	-0.118712656
197	0xbd82b678	-0.063824594
198	0x3cfe8b78	0.031072363
199	0x3e0f1c75	0.13975699
200	0xbd6cc9e6	-0.057809733
201	0x3c9cc428	0.019136503
202	0x3d98340a	0.07431801
203	0xbd7dfd2e	-0.06200903
204	0xbdd77938	-0.105211675
205	0x3d4b0ba4	0.04957165
206	0x3dd73422	0.105079904
207	0xbdc824b6	-0.09772627
208	0x3b84ba00	0.0040504932
209	0x3d7546c8	0.059881955
210	0xbd2f86fa	-0.042853333
211	0xbdab0bac	-0.083518356
212	0x3b2f5800	0.0026755333
213	0xbd4c5048	-0.04988125
214	0x3c09edd0	0.008418515
215	0x3d43cf00	0.047804832
216	0x3d65d16c	0.056107923
217	0x3de40332	0.11133422
218	0x3c8cae00	0.017172813
219	0xbcdfc348	-0.027314797
220	0x3c97d3b0	0.018533558
221	0x3d19f56c	0.03758757
222	0xbce2bdf0	-0.02767846
223	0x3dcd4170	0.10022247
224	0x3d7a51f8	0.061113328
225	0x3de223d2	0.110419884
226	0xbd6ba516	-0.057530485
227	0x3dfd938e	0.123816594
228	0xbde4ecd6	-0.11177985
229	0x3c61cfc0	0.013782442
230	0x3d8e8eda	0.069608405
231	0xbd040de0	-0.032239795
232	0xbe0997bc	-0.13436788
233	0xbddbe4c6	-0.107369944
234	0x3d45f124	0.048325673
235	0x3d8cd816	0.068771526
236	0xbdbc4265	-0.09192351
237	0x3dde3018	0.10849017
238	0x3b6d3f80	0.003620118
239	0x3c85cbf8	0.016332611
240	0xbdd6bfe4	-0.10485819
241	0xbdadff48	-0.08495957
242	0xbda2cb1e	-0.07948898
243	0x3d2602ec	0.04053013
244	0xbdb271e2	-0.08713128
245	0x3d981e36	0.07427637
246	0x3d31df30	0.04342574
247	0xbcd3dc0c	-0.025861762
248	0x3de0ea72	0.10982217
249	0x3e08e34d	0.13367958
250	0xbdc8067e	-0.09766863
251	0x3dda5432	0.1066059
252	0x3de474ae	0.111550674
253	0x3d847184	0.06466964
254	0x3ddcb0dc	0.10775921
255	0xbdb0d7bc	-0.08634898

rnn.bias_ih_l0 f4 [200]
0	0x3d757ed6	0.059935413
1	0xbe0ae39c	-0.13563389
2	0x3df2a31a	0.118475154
3	0x3cb09a95	0.021558085
4	0x3dc151f7	0.09439462
5	0x3c04cc57	0.008105359
6	0x3dc15235	0.09439508
7	0x3d9e7eab	0.07739004
8	0xbb43941e	-0.0029842923
9	0x3de86ed9	0.113492675
10	0x3e053e15	0.13011964
11	0xbca4f0ec	-0.020134412
12	0x3daea7e2	0.08528115
13	0xbdc03beb	-0.093864284
14	0x3d9982e8	0.074956715
15	0x3df1cfc0	0.11807203
16	0x3c5d1eed	0.013496143
17	0x3b8e91b9	0.0043508676
18	0x3dcaa581	0.098948486
19	0xbd7a59be	-0.06112074
20	0x3da37042	0.07980396
21	0x3e5cea1f	0.21573685
22	0x3e11ad98	0.14226377
23	0x3d427979	0.047479127
24	0x3d010346	0.031497262
25	0xbcbec1e1	-0.023285808
26	0x3e12be4b	0.14330404
27	0xbcc69326	-0.024240088
28	0x3dcfc496	0.10144918
29	0xbd67f1c0	-0.056627035
30	0x3c831e1a	0.016005564
31	0x3d80acbe	0.06282948
32	0x3e25bbf1	0.16184975
33	0x3c05e26e	0.008171661
34	0x3d713a61	0.058893565
35	0xbd213b0f	-0.039362963
36	0x3d887e03	0.0666466
37	0xbe050f30	-0.12994075
38	0x3e6c02fe	0.23048016
39	0x3dd4a141	0.10382319
40	0xbdf47875	-0.11937038
41	0x3c1a7948	0.00942833
42	0x3d910ac3	0.07082131
43	0x3db9ed6b	0.09078487
44	0xbdb2e5d0	-0.087352395
45	0xbdbc33d4	-0.09189573
46	0xbdaa6c75	-0.08321468
47	0x3cbff432	0.023431871
48	0xbd8927c9	-0.066970415
49	0x3de9dd30	0.11419141
50	0xbcdfb830	-0.027309507
51	0x3e0a874d	0.13528176
52	0xbc47e790	-0.012201205
53	0x3dfe2ac2	0.12410499
54	0x3dc4cca8	0.096093476
55	0xbc62ce90	-0.013843194
56	0x3ca3e540	0.020006776
57	0x3c1607e0	0.009157151
58	0xbd953e55	-0.072872795
59	0xbd4e757a	-0.050405003
60	0xbd4d349c	-0.050099
61	0xbda84d00	-0.082178116
62	0x3d155dc4	0.036466375
63	0xbde79316	-0.11307351
64	0x3d8fcf26	0.07021932
65	0xbc815458	-0.015787289
66	0xbb55b8c0	-0.003261134
67	0xbdef0c10	-0.116722226
68	0xbe035fdc	-0.12829536
69	0xbd9c03ac	-0.07617888
70	0x3cf5f8f0	0.03002593
71	0x3db420c8	0.08795315
72	0xbd435208	-0.047685653
73	0xbe095d71	-0.13414551
74	0x3e02a775	0.12759192
75	0xbd1f4bd8	-0.03889069
76	0xbdc8c76b	-0.09803661
77	0xbcbd1328	-0.023080423
78	0xbd62d636	-0.05538007
79	0x3d9695e8	0.07352811
80	0xbe0592d1	-0.13044287
81	0x3dfc4686	0.12318139
82	0xbd81a441	-0.06330157
83	0xbc4f4df0	-0.012652859
84	0xbde51ecb	-0.11187514
85	0xbdd06dde	-0.101772055
86	0xbe058a2e	-0.13040993
87	0x3cef64b0	0.029222816
88	0xbd819e9b	-0.0632908
89	0x3e0253f3	0.12727337
90	0xbd78f252	-0.06077797
91	0xbd20d9a0	-0.039270043
92	0x3da00b0a	0.078146055
93	0xbd9b936e	-0.07596479
94	0xbd3dd330	-0.046343982
95	0xbdb5f252	-0.088841096
96	0x3d6b9088	0.057510883
97	0xbdc66dbc	-0.09688899
98	0xbd8be5d4	-0.068309456
99	0xbda7e644	-0.081982166
100	0xbe455c45	-0.1927348
101	0xbe171a21	-0.14756061
102	0x3df39cc4	0.11895135
103	0xbd922687	-0.07136255
104	0x3e2f4461	0.17115928
105	0x3d625829	0.055259857
106	0xbc98573e	-0.018596288
107	0x3dac0f8f	0.08401405
108	0xbd256b24	-0.04038538
109	0x3cbca0ab	0.023025831
110	0x3d756da0	0.059919
111	0x3a7a0970	0.00095381495
112	0x3cb21e41	0.021742942
113	0xbc292de3	-0.010325882
114	0xbe5e4bd9	-0.21708621
115	0x3dfe04e7	0.12403279
116	0x3ddeb23f	0.108738415
117	0xbe5117a1	-0.2041917
118	0x3da023a7	0.078193
119	0xb9ff61fd	-0.00048710397
120	0x3e051a79	0.1299838
121	0xbd40a31b	-0.04703055
122	0x3d50be91	0.05096299
123	0x3e0efa69	0.13962711
124	0xbdea6888	-0.11445719
125	0x3d08efda	0.033431865
126	0x3deeca02	0.11659624
127	0x3cfd1d6d	0.03089782
128	0xbdebba61	-0.11510158
129	0xbdd7df5c	-0.10540649
130	0xbd800580	-0.06251049
131	0x3ceeea00	0.029164314
132	0xbcf53e44	-0.029936917
133	0xbd8fdc1b	-0.07024404
134	0x3d941ca3	0.072320245
135	0x3de08e58	0.1096465
136	0x3e3301b6	0.17481121
137	0x3cce1670	0.025157183
138	0xbce2bc31	-0.027677627
139	0x3dba4315	0.09094826
140	0x3cb2d782	0.021831278
141	0xbe138b97	-0.14408718
142	0xbdce1cb4	-0.100640684
143	0x3d15d81f	0.036583062
144	0xbd505f8b	-0.050872367
145	0xbd0aac2e	-0.03385561
146	0x3c9461d7	0.01811306
147	0xbe0debe0	-0.1385951
148	0x3dad2265	0.08453826
149	0x3dc013f5	0.093788065
150	0x3b894ca4	0.0041900445
151	0x3cd6be09	0.026213663
152	0x3d977310	0.07394993
153	0x3e1e471b	0.15456812
154	0xbdd83800	-0.10557556
155	0x3db57606	0.08860402
156	0x3d781305	0.060565013
157	0xbdfb7d1f	-0.12279724
158	0x3da0d6c1	0.07853461
159	0x3c9b06f4	0.018924214
160	0xbc8829c6	-0.016621482
161	0xbe11370a	-0.14181152
162	0xbd54c0cd	-0.05194168
163	0x3d40d074	0.047073796
164	0x3d74b9db	0.059747558
165	0xbda53434	-0.080665976
166	0xbddc1734	-0.10746613
167	0xbe0d11f2	-0.13776377
168	0x3dff8998	0.12477416
169	0x3d35ae9b	0.04435597
170	0x3d654084	0.05596973
171	0x3e16e000	0.14733887
172	0x3e503bdf	0.20335339
173	0xbcdb830b	-0.026795885
174	0x3d2ef256	0.04271158
175	0x3e061b5c	0.13096374
176	0xbe00fb34	-0.12595826
177	0x3dbae2a3	0.09125259
178	0x3dc9d483	0.098549865
179	0x3dbe6269	0.09296114
180	0xbaf809e9	-0.0018923852
181	0x3de00fde	0.109405264
182	0x3df18640	0.11793184
183	0xbdc18964	-0.09450033
184	0x3ddcee99	0.107876964
185	0xbbd563a7	-0.0065121236
186	0xbd9c13e8	-0.07620984
187	0x3db0d657	0.08634632
188	0x3e5b2301	0.21400072
189	0xbd50fb88	-0.05102113
190	0x3dca36ad	0.0987371
191	0xbd518152	-0.05114872
192	0xbccaa3a2	-0.02473623
193	0x3e08e7e8	0.13369715
194	0xbdb7cfb8	-0.08975166
195	0xbba88294	-0.0051425193
196	0x3db5e5bb	0.08881708
197	0x3db31e01	0.08745957
198	0xbd325601	-0.04353905
199	0x3e05d94a	0.1307117

rnn.bias_hh_l0 f4 [200]
0	0x3ddbbf08	0.10729796
1	0x3db081c2	0.08618499
2	0x3d89ac14	0.067222744
3	0x3dbfd6ff	0.09367179
4	0x3c51aa25	0.012796913
5	0x3c9f8bee	0.019475903
6	0xbd1b17dd	-0.037864555
7	0xbda634eb	-0.08115562
8	0x3d58e1a2	0.052949555
9	0x3ce4577a	0.027873743
10	0x3e1b3b93	0.15159445
11	0x3ca15b00	0.019696712
12	0xbd769052	-0.06019623
13	0xbd4472bd	-0.047960985
14	0xbe01e647	-0.126855
15	0xbd024fdc	-0.03181444
16	0x3cfa667c	0.030566446
17	0xbdb01250	-0.08597243
18	0x3e085629	0.13314117
19	0xbc8b81bd	-0.017029637
20	0x3de98536	0.11402361
21	0x3dc4053d	0.095713116
22	0x3b12136d	0.002228941
23	0xbd74f7fd	-0.059806813
24	0x39b69bb9	0.00034829768
25	0x3e14ee11	0.1454394
26	0x3ce54f02	0.027991775
27	0x3e320658	0.17385232
28	0x3d4bd05e	0.04975926
29	0xbd84916c	-0.064730495
30	0xbda7282c	-0.08161959
31	0x3d0c40a9	0.034241352
32	0xbcec9c5f	-0.028883157
33	0xbd9f4aa7	-0.07777911
34	0xbe121736	-0.14266667
35	0x3bce760d	0.006300694
36	0xbd5aba0d	-0.053400088
37	0xbd663e0b	-0.056211513
38	0x3e190a18	0.14945257
39	0xbc91e023	-0.017807072
40	0xbde96cd5	-0.11397711
41	0x3ddd1b92	0.10796274
42	0xbd6e61d7	-0.058198776
43	0x3dcc00d9	0.09961099
44	0xbdec000d	-0.11523447
45	0x3da9eab2	0.08296718
46	0xbd8aae79	-0.06771559
47	0xbdbc56ef	-0.09196269
48	0xbded6b65	-0.115927495
49	0xbcd6b4bb	-0.026209226
50	0xbe100c75	-0.14067252
51	0xbdb824f2	-0.08991422
52	0xbdb55086	-0.08853249
53	0xbcbcdca4	-0.023054428
54	0xb7ae0000	-2.0742416e-05
55	0xbda6ff4c	-0.08154163
56	0xbd48c10e	-0.049012236
57	0x3d4660f4	0.048432305
58	0xbe0790c0	-0.13238811
59	0xbb24c780	-0.0025143325
60	0xbdecc386	-0.11560731
61	0xbd8207d2	-0.06349148
62	0x3d9848dc	0.07435772
63	0xbd0ced68	-0.034406096
64	0x3d4de6ec	0.050269052
65	0x3def9ece	0.117002115
66	0x3e083fab	0.13305537
67	0xbd853861	-0.06504894
68	0x3de70bea	0.11281569
69	0xbe01e154	-0.12683612
70	0x3d446510	0.047947943
71	0x3da159ac	0.07878432
72	0x3cc06dd8	0.023489878
73	0xbe04b2aa	-0.1295878
74	0xbb0d3f80	-0.0021552742
75	0x3c6bdef0	0.014396414
76	0x3d0a3f48	0.033751756
77	0x3df261c2	0.11835052
78	0xbdca2318	-0.09869975
79	0xbd1b50f4	-0.037919
80	0x3c79b920	0.015241891
81	0x3dc663de	0.09687017
82	0x3d59c94c	0.053170487
83	0xbbcd0e00	-0.0062577724
84	0x3e03cbfd	0.12870784
85	0x3da48852	0.080338135
86	0x3dcb2918	0.099199474
87	0x3d6a7da4	0.057248726
88	0xbd14d064	-0.03633155
89	0x3d46bf44	0.04852225
90	0xbdde4322	-0.10852648
91	0x3d87b02a	0.066253975
92	0xbdf49940	-0.119432926
93	0xbdd82043	-0.105530284
94	0xbdaa3006	-0.08309941
95	0x3d33ae34	0.043867305
96	0x3dc91682	0.09818746
97	0xbbf39fc0	-0.007434815
98	0xbd9277f5	-0.07151786
99	0xbc8ae1f8	-0.016953453
100	0xbd09fbbd	-0.033687342
101	0x3d9035df	0.07041525
102	0xbe05debb	-0.13073246
103	0xbe474d2f	-0.19463037
104	0xbb8645c3	-0.0040976717
105	0xbe402275	-0.18763144
106	0x3e31dc43	0.1736918
107	0xbd52517c	-0.05134724
108	0xbe25ff14	-0.16210586
109	0xbd924c50	-0.07143462
110	0x3e312631	0.17299725
111	0xbdb02c24	-0.08602169
112	0xbd60c7e5	-0.054878134
113	0x3e275e53	0.16344576
114	0xbe04e01d	-0.12976117
115	0x3df53688	0.11973292
116	0xbd8d1d65	-0.06890372
117	0xbe3a6234	-0.18201524
118	0xbd9ca78a	-0.07649143
119	0x3c30f118	0.010799669
120	0x3c1e8125	0.009674345
121	0x3deab664	0.114605695
122	0x3daa58da	0.08317728
123	0x3d6962b1	0.056978885
124	0xbde2ee9d	-0.11080668
125	0xbdce60ba	-0.10077043
126	0xbd30bafb	-0.04314707
127	0x3d3005b9	0.042974208
128	0xbd89fef9	-0.06738085
129	0x3de39870	0.111130595
130	0x3d793cc1	0.060848955
131	0xbe3983c9	-0.18116678
132	0xbe555766	-0.20834121
133	0xbd6820ed	-0.056672025
134	0xbcc87a9b	-0.024472525
135	0xbd66de48	-0.056364328
136	0xbd19c49c	-0.037541017
137	0x3d4ddcb5	0.05025931
138	0xbd9067fd	-0.07051084
139	0xbdda6096	-0.106629536
140	0x3da14cfc	0.07876012
141	0xbe3c77de	-0.184051
142	0xbe46d56b	-0.1941735
143	0xbdaecac8	-0.08534771
144	0x3db9d58d	0.09073935
145	0x3d1c208c	0.038116977
146	0xbd405360	-0.046954513
147	0x3bf8d680	0.00759393
148	0x3ddfca9c	0.109273165
149	0xbccaf7f4	-0.024776436
150	0x3db8284d	0.08992062
151	0xbdddcf7b	-0.108305894
152	0xbd2acfd8	-0.04170212
153	0x3df1d401	0.11808015
154	0xbe02f20f	-0.1278765
155	0x3dd15e80	0.102231026
156	0xbd9ae417	-0.07563036
157	0x3dc8d1a8	0.09805614
158	0x3d17a5fd	0.037023533
159	0x3d0ef97b	0.034905892
160	0xbd01b209	-0.03166393
161	0x3ce844b9	0.028353082
162	0xbcd88ff8	-0.026435837
163	0xbdc5d05a	-0.096588805
164	0x3a557910	0.0008143345
165	0xbdb59ee7	-0.08868199
166	0xbe0b82f2	-0.1362417
167	0xbca1eab0	-0.019765228
168	0x3dcf4e53	0.10122361
169	0x3df2d7d8	0.11857575
170	0x3e56da74	0.20981771
171	0x3e4ff33b	0.20307629
172	0xbcbd22a6	-0.02308781
173	0xbc47d5e5	-0.0121969925
174	0xbd08174a	-0.033225335
175	0x3e14110e	0.14459631
176	0x3de462fd	0.11151693
177	0x3d08dce6	0.03341379
178	0x3df5d9f9	0.120044656
179	0xbd3c9f03	-0.046050083
180	0x3e05e8ca	0.13077083
181	0xbe1eae95	-0.15496285
182	0x3d4061e0	0.04696834
183	0x3c04374c	0.008069824
184	0xbdb389f1	-0.087665446
185	0x3de189f9	0.11012644
186	0xbbbffcb2	-0.005858981
187	0xbdcfa305	-0.101385154
188	0x3dec8b13	0.11549964
189	0x3d14c6b9	0.03632233
190	0x3dde48b1	0.108537085
191	0xbd818893	-0.063248776
192	0xbcc5498e	-0.024082925
193	0x3ccb28c2	0.024799708
194	0xbd80f18f	-0.06296074
195	0xbd88a4ac	-0.06672034
196	0x3d139fef	0.036041196
197	0xbd2b9665	-0.041891474
198	0xbd786057	-0.06063875
199	0x3e1f81bc	0.15576833

rnn.weight_ih_l1 f4 [200, 50]
0	0x3e5a92ad	0.21345015
1	0xbbda5a53	-0.0066635995
2	0xbe1325aa	-0.14369836
3	0x3dd521ad	0.10406814
4	0xbdeac8b9	-0.11464066
5	0x3e2b4f4d	0.1672947
6	0xbdb56be4	-0.08858469
7	0x3d7fb222	0.06242574
8	0xbc80883b	-0.01568996
9	0x3ca64763	0.020297712
10	0xbd0fd2ed	-0.035113264
11	0xbcd89435	-0.026437858
12	0x3d3d28dd	0.04618155
13	0xbd6ee864	-0.058327094
14	0xbe2044e3	-0.15651278
15	0x3e10eb18	0.14152181
16	0x3dd21b50	0.10259116
17	0x3e120357	0.14259087
18	0x3e1f067d	0.15529819
19	0xbc6bf9d4	-0.014402825
20	0xbe2486e4	-0.16067082
21	0x3e7a8901	0.24466325
22	0xbe0c999f	-0.13730477
23	0x3d683da3	0.056699406
24	0xbd83170e	-0.06400882
25	0xbea2f703	-0.3182908
26	0x3de022aa	0.10944112
27	0x3d152127	0.03640857
28	0x3e414a9c	0.18876117
29	0xbd5a5791	-0.053306166
30	0x3cd213de	0.025644239
31	0x3da83549	0.08213288
32	0x3e4860b2	0.19568136
33	0x3e078658	0.13234842
34	0x3d763bca	0.060115613
35	0xbd66c343	-0.05633856
36	0x3de43135	0.11142198
37	0x3be7e060	0.007076308
38	0xbe1e814a	-0.15479007
39	0xbe3fdcfb	-0.18736641
40	0x3cd6ec76	0.0262358
41	0x3b489d84	0.0030611465
42	0xbdb574e4	-0.08860186
43	0x3c30ee99	0.010799074
44	0x3d98caea	0.07460578
45	0x3c6611de	0.014042346
46	0xbd2e8421	-0.042606477
47	0xbbdda345	-0.006763848
48	0xbe0503fd	-0.12989803
49	0xbd881c5f	-0.06646036
50	0x3d7c271d	0.06156074
51	0xbdb396cc	-0.087689966
52	0x3b8e1987	0.004336539
53	0x3de66019	0.11248798
54	0x3e17bb19	0.14817466
55	0x3d185796	0.037192903
56	0xbd73c35b	-0.059512477
57	0x3d1b254f	0.037877377
58	0x3cda08e9	0.026615577
59	0xbd4ab7de	-0.049491756
60	0xbc8ba78c	-0.017047666
61	0x3d7bf76d	0.06151526
62	0xbdef68eb	-0.116899334
63	0xbd361e74	-0.044462636
64	0xbd99bef7	-0.07507127
65	0x3d4030ab	0.046921413
66	0xbe0112fb	-0.12604897
67	0xbe10daa5	-0.14145906
68	0xbdbbcbed	-0.09169755
69	0x3dc64f37	0.09683078
70	0xbcf84a10	-0.030308753
71	0xbba7dd8f	-0.0051228474
72	0xbe21b37e	-0.15791127
73	0x3d282e7b	0.041059952
74	0x3c70a4ac	0.014687698
75	0xbdd995d7	-0.10624283
76	0x3bb099f1	0.005389445
77	0x3c1e777a	0.00967204
78	0x3c23d2c2	0.009998979
79	0xbd7fd78a	-0.062461413
80	0xbe1a2d3d	-0.1505632
81	0xbd1f5e42	-0.03890825
82	0xbd72c391	-0.059268538
83	0x3dc8a213	0.09796538
84	0xbe112396	-0.14173731
85	0xbe2f4a63	-0.1711822
86	0xbbcd1ea1	-0.0062597548
87	0xbe0097ce	-0.12557909
88	0x3d30c7e8	0.043159395
89	0xbc28e5df	-0.010308712
90	0x3d73df23	0.05953897
91	0x3dbd41da	0.09241076
92	0xbd511973	-0.05104966
93	0x3d83ee81	0.064419754
94	0x3df859c4	0.121264964
95	0x3d9d9c5b	0.07695838
96	0xbdc1103a	-0.09426923
97	0x3d8041ff	0.06262588
98	0xbc7d2fb5	-0.015453269
99	0xbceeb3ab	-0.029138407
100	0xbdc1ebfc	-0.094688386
101	0xbd3b0c78	-0.045666188
102	0x3dde4377	0.10852712
103	0x3b878907	0.004136208
104	0xbd50d752	-0.050986595
105	0xbd5440da	-0.05181966
106	0x3e0ee1e1	0.13953353
107	0x3dd65b65	0.10466651
108	0xbd703d62	-0.05865229
109	0xbe229346	-0.15876493
110	0x3ba13a8b	0.004920309
111	0xbcfa228e	-0.030534055
112	0x3d8a660c	0.06757745
113	0xbd85673f	-0.06513833
114	0xbdcfa24d	-0.10138378
115	0xbd38bd5b	-0.04510246
116	0x3d26372e	0.040579967
117	0xbcf8acc3	-0.030355817
118	0x3db0525b	0.08609458
119	0x3da817ef	0.0820769
120	0x3b907fd4	0.0044097695
121	0xbd5bf8db	-0.053704124
122	0x3d81434b	0.06311663
123	0x3d49358b	0.04912333
124	0xbd9f3f90	-0.077757955
125	0x3db59a82	0.08867361
126	0x3d1a4fce	0.037673764
127	0x3e61dd1e	0.22057006
128	0xbe381a50	-0.17978787
129	0x3e11ddb5	0.14244731
130	0x3d0bcd7e	0.03413152
131	0xbc9c4b1c	-0.019078784
132	0xbc856a25	-0.016285965
133	0x3de8b9b5	0.11363546
134	0x3bccb93a	0.0062476667
135	0x3db55501	0.08854104
136	0x3cc03ed5	0.02346746
137	0x3e13ef59	0.14446773
138	0x3ddeeeda	0.10885401
139	0x3e0ccfec	0.13751191
140	0x3e2005d6	0.15627226
141	0x3c94cfa8	0.018165424
142	0x3d15fb64	0.036616698
143	0x3e0e4133	0.13892059
144	0xbd85a8ca	-0.065263346
145	0xbc8daa00	-0.017292976
146	0x3d216a0e	0.039407782
147	0x3d1f101c	0.038833722
148	0x3de0c4cf	0.10975038
149	0x3d9e8b26	0.07741384
150	0xbde6ede5	-0.112758435
151	0x3e2c5b18	0.16831625
152	0xbdf77c2d	-0.120842315
153	0xbd4ca9fc	-0.049966797
154	0x3e1c3797	0.15255581
155	0x3df0b3da	0.11753054
156	0xbd70e355	-0.05881055
157	0xbde88ecc	-0.11355361
158	0xbe39c680	-0.18142128
159	0xbbd98ebd	-0.00663933
160	0xbda30cb3	-0.079614066
161	0xbde3d601	-0.111248024
162	0xbe18234d	-0.14857216
163	0x3d0c2c2c	0.034221813
164	0xbdfbf859	-0.12303228
165	0xbe590eb4	-0.21197015
166	0xbc85c9ac	-0.016331516
167	0xbdbffddf	-0.09374594
168	0xbdd29c9a	-0.10283776
169	0xbe02440d	-0.12721272
170	0x3dcf741e	0.101295695
171	0x3d3fe8c7	0.046852853
172	0xbbd3830b	-0.0064548305
173	0x3deb9880	0.115036964
174	0xbdcef17b	-0.101046525
175	0xbe0811e6	-0.13288078
176	0xbc5b3827	-0.013380087
177	0xbe192708	-0.14956295
178	0x3d959b56	0.073050186
179	0xbc9f1512	-0.019419227
180	0xbda49fb9	-0.08038277
181	0xbcc0c739	-0.023532497
182	0xbd35b0ce	-0.044358067
183	0xbda69b07	-0.08135038
184	0x3ca0043f	0.019533275
185	0x3bdfe6df	0.006832942
186	0xbe2483c3	-0.16065888
187	0x3e182ea6	0.14861545
188	0x3e2dd2a1	0.1697488
189	0x3d487ca6	0.048947
190	0x3e27e091	0.16394259
191	0xbe3c7df3	-0.18407421
192	0xbb828fa2	-0.0039844075
193	0x3cd8cdde	0.026465353
194	0x3d4ed65c	0.050497398
195	0x3b1e6118	0.002416676
196	0xbde7fc45	-0.113274135
197	0x3de6f878	0.112778604
198	0x3dc6543a	0.09684034
199	0x3e1a9086	0.15094194
200	0x3d151a2e	0.03640192
201	0x3d6f71c9	0.058458123
202	0xbe16cda8	-0.14726889
203	0x3d8a67f1	0.067581065
204	0xbd8afacb	-0.06786116
205	0x3dc784b6	0.097421095
206	0xbccf2d73	-0.025290227
207	0x3d315017	0.04328927
208	0xbba35369	-0.0049843085
209	0x3d97e7ec	0.074172825
210	0xbd9affba	-0.07568307
211	0xbdc4fc8c	-0.09618482
212	0x3d587d89	0.052854095
213	0x3dec25d7	0.11530655
214	0xbcb346db	-0.021884372
215	0xbc1fd3e2	-0.009755107
216	0x3e014cc3	0.12626939
217	0x3d03da57	0.032190647
218	0xbde51bf5	-0.11186973
219	0xbbfc20dd	-0.0076943473
220	0x3e0f7dec	0.14012879
221	0x3d099a2a	0.033594288
222	0x3d3d3c34	0.046199992
223	0x3c6ff5ad	0.014645976
224	0xbe03b232	-0.12860945
225	0x3d455247	0.04817417
226	0x3ce3db6e	0.027814593
227	0x3e230114	0.1591838
228	0x3b1c8829	0.0023884869
229	0xbd87c4ba	-0.066293195
230	0x3dadb19a	0.084811404
231	0x3d992d77	0.07479375
232	0x3b74f57a	0.003737776
233	0xbc9b033a	-0.018922437
234	0x3e0ca54e	0.13734934
235	0xbda94830	-0.08265722
236	0xbdf1530b	-0.11783417
237	0x3d80211c	0.06256315
238	0x3c9681f1	0.018372508
239	0xbc08e642	-0.008355679
240	0x3d866963	0.0656307
241	0xbd83c6b9	-0.06434388
242	0xbe0b78c5	-0.13620289
243	0x3d8524b2	0.0650114
244	0x3da21aa9	0.07915241
245	0xbd3c1d0c	-0.04592614
246	0xbd465704	-0.04842283
247	0x3d4a133b	0.049334746
248	0xbdfff369	-0.12497599
249	0xbba57e8e	-0.005050487
250	0x3df52025	0.11969022
251	0xbe2c3c0a	-0.16819778
252	0xbe80f924	-0.2519008
253	0x3eb87ac3	0.3603116
254	0xbd638e95	-0.0555559
255	0x3e850660	0.25981426

rnn.weight_hh_l1 f4 [200, 50]
0	0x3acf5c00	0.0015820265
1	0xbe0486ef	-0.12942098
2	0x3db89702	0.090131775
3	0xbb0dabc0	-0.0021617264
4	0xbbc8b540	-0.0061251223
5	0x3e07009f	0.1318383
6	0xbdc75de8	-0.09734708
7	0xbd274778	-0.040839642
8	0x3de29496	0.11063497
9	0x3d9dfa88	0.07713801
10	0xbe0d56ce	-0.13802645
11	0x3d90ccc0	0.07070303
12	0x3ce4f0a0	0.02794677
13	0xbd9b148a	-0.07572277
14	0x3d13c3fc	0.036075577
15	0xbdfe6cd2	-0.124230996
16	0xbd95b96f	-0.07310759
17	0x3ab4c000	0.0013790131
18	0xbc4d0d60	-0.012515396
19	0x3cbc4eb0	0.02298674
20	0xbce81eec	-0.028335057
21	0xbda11aa9	-0.07866413
22	0xbcfad11c	-0.03061729
23	0x3da4bfc0	0.08044386
24	0x3de3ab72	0.11116685
25	0x3d869778	0.06571859
26	0x3e10a61f	0.1412587
27	0xbd0c2bc2	-0.03422142
28	0x3d3843bc	0.04498647
29	0xbde33a17	-0.11095064
30	0x3a4bf000	0.0007779598
31	0x3dd3152e	0.10306774
32	0xbe0eef64	-0.13958508
33	0xbcfeff48	-0.031127587
34	0x3dce18f6	0.10063355
35	0xbc1af620	-0.009458095
36	0xbd021d74	-0.03176637
37	0xbdcff270	-0.10153663
38	0xbd883491	-0.06650651
39	0xbdb83020	-0.08993554
40	0xbdf5f1ad	-0.120089866
41	0x3db328ee	0.08748041
42	0xbdbc4f58	-0.09194821
43	0x3bc27b00	0.005935073
44	0x3e0e7eb1	0.13915516
45	0x3c317ba0	0.010832697
46	0xbd4f0de4	-0.050550357
47	0xbc8ab314	-0.016931094
48	0xbdf86a50	-0.121296525
49	0x3dc6a112	0.096986905
50	0x3d08bdc4	0.0333841
51	0xbd9ce460	-0.076607466
52	0x3e04213f	0.12903307
53	0xbd9cebab	-0.076621376
54	0x3d9977a4	0.07493523
55	0xbd9c1d89	-0.07622821
56	0x3da38fa4	0.07986382
57	0x3c91bab0	0.017789215
58	0xbddd169e	-0.107953295
59	0xbe070b07	-0.131878
60	0xbde6864c	-0.11256084
61	0x3d8628e4	0.06550768
62	0xbd0dbe76	-0.034605466
63	0x3d7c4be4	0.061595812
64	0xbd606016	-0.054779135
65	0x3dffa81a	0.12483235
66	0x3c8f6748	0.017505303
67	0x3da3dd5e	0.08001207
68	0xbd93aa30	-0.07210195
69	0xbd3243d8	-0.043521732
70	0x3ca886d0	0.020572096
71	0xbdcbb9ae	-0.09947525
72	0xbdf6ab4f	-0.12044393
73	0x3e03cb0b	0.12870423
74	0xbca24fb0	-0.019813389
75	0xbddfcb6a	-0.1092747
76	0xbe0c22c2	-0.13685134
77	0x3cf54ef0	0.029944867
78	0x3d8ec7e4	0.0697172
79	0xbd06f780	-0.03295088
80	0xbe044b13	-0.12919264
81	0x3d9cbef4	0.07653609
82	0x3dd6a1e8	0.104801
83	0xbd949789	-0.072554655
84	0x3cd682a8	0.026185349
85	0x3d38c920	0.045113683
86	0xbc8b5e74	-0.017012812
87	0x3c107da0	0.008819014
88	0xbe0852fd	-0.13312908
89	0x3cab27a8	0.020892933
90	0x3df82702	0.12116815
91	0xbb57eb80	-0.0032946765
92	0x3c1eed90	0.009700194
93	0x3dd5502a	0.10415681
94	0xbdc3a69a	-0.09553261
95	0xbdfe2ff7	-0.12411492
96	0x3c3fe860	0.011713117
97	0x3d9e20a8	0.077210724
98	0xbe0b50c4	-0.13605028
99	0x3d081050	0.03321868
100	0x3d6b8f7c	0.057509884
101	0xbd8951f7	-0.06705087
102	0x3c6aa1c0	0.014320791
103	0xbdefb5b3	-0.11704578
104	0xbc0740c0	-0.008255184
105	0xbde9fc48	-0.11425072
106	0xbde858bd	-0.113450505
107	0xbdcf9d7d	-0.101374604
108	0xb8b83000	-8.7827444e-05
109	0xbd80d38b	-0.062903486
110	0xbdaf0000	-0.08544922
111	0xbd77f852	-0.06053955
112	0xbdc78b84	-0.09743407
113	0xbd9c9c5f	-0.07647013
114	0x3da8561a	0.082195476
115	0x3c6ef120	0.014583856
116	0x3cdd0508	0.026979938
117	0xbdc404bf	-0.09571218
118	0x3d82d76a	0.06388743
119	0xbcd90834	-0.02649317
120	0x3e0be061	0.13659813
121	0x3c2c4800	0.010515213
122	0x3de5f706	0.112287566
123	0x3d8b6968	0.06807214
124	0x3df455d2	0.119304314
125	0xbcf0ea00	-0.029408455
126	0x3d3270a8	0.04356447
127	0xbde51c04	-0.11186984
128	0xbe0a2345	-0.13490017
129	0xbda5163f	-0.08060884
130	0xbd96ccb1	-0.073632605
131	0x3d3d0804	0.046150222
132	0xbd7f3864	-0.062309638
133	0x3dda9704	0.10673335
134	0x3c824208	0.015900627
135	0xbb192c00	-0.0023372173
136	0x3d1449e8	0.036203295
137	0x3dd29a38	0.10283321
138	0x3d6e5324	0.058184758
139	0xbe0c3569	-0.1369225
140	0x3e02f221	0.12787677
141	0xbd82cdb5	-0.06386892
142	0x3da70b90	0.08156502
143	0x3b714700	0.0036816
144	0x3dc36f32	0.09542693
145	0xbe09db05	-0.13462456
146	0xbd865602	-0.065593734
147	0xbdd52cac	-0.10408911
148	0xbd45dcf2	-0.048306413
149	0xbdba9b36	-0.091116354
150	0xbd613a00	-0.054986954
151	0x3e07038f	0.13184951
152	0xbda2f508	-0.07956892
153	0x3e0ee3df	0.13954113
154	0xbd969f33	-0.073545836
155	0xbdac0ed5	-0.084012665
156	0xbe0a9c00	-0.13536072
157	0x3c9c1e80	0.019057512
158	0x3db2f012	0.08737196
159	0x3d05c844	0.03266169
160	0x3d84ecb4	0.0649046
161	0xbde1b8c7	-0.110215716
162	0x3d871148	0.06595093
163	0xbd703fb6	-0.05865451
164	0xbd8f2d85	-0.06991104
165	0xbd955105	-0.07290844
166	0xbe0b5343	-0.1360598
167	0x3c37dd80	0.011222243
168	0xbc82e868	-0.01597996
169	0x3e024a75	0.12723716
170	0x3d3e367c	0.04643868
171	0xbcc8f400	-0.02453041
172	0x3dd0433a	0.101690724
173	0xbcc99a3c	-0.024609677
174	0x3e06d527	0.13167249
175	0xbe06ad11	-0.13151957
176	0x3dd4d626	0.10392408
177	0xbddb6de8	-0.10714322
178	0x3bb81780	0.005618036
179	0xbc679d80	-0.014136672
180	0xbdbb6b58	-0.091513336
181	0xbe0707bc	-0.13186544
182	0xbd821f0d	-0.06353579
183	0xbd2054ca	-0.03914336
184	0x3d11ab30	0.035563648
185	0xbcb57a14	-0.022152938
186	0x3cd478d0	0.025936514
187	0x3dbcba14	0.09215179
188	0xbcb67690	-0.022273332
189	0xbd7fdfe2	-0.06246937
190	0x3b9bb760	0.0047520846
191	0xba7fc300	-0.00097565353
192	0xbda47dc0	-0.080317974
193	0x3ddf4596	0.10901944
194	0xbd1911a2	-0.03737033
195	0xbe0b743e	-0.13618562
196	0xbdf2e141	-0.1185937
197	0xbdd10e9a	-0.10207863
198	0x3dc31780	0.09525967
199	0xbb456480	-0.0030119717
200	0x3d7f6cc4	0.062359586
201	0x3da3e7da	0.080032066
202	0x3d5e0630	0.05420512
203	0xbdc04c3a	-0.09389539
204	0x3cdc3ba8	0.026883915
205	0x39f60a00	0.00046928227
206	0x3e070e27	0.13188992
207	0xbd274fd4	-0.040847614
208	0x3afc3700	0.0019242465
209	0x3c30ba20	0.010786563
210	0x3d0566ec	0.032568857
211	0x3deab19e	0.11459659
212	0xbda21370	-0.07913864
213	0x3d85ef38	0.06539768
214	0xbceaba00	-0.028653145
215	0x3e031b2b	0.12803333
216	0x3da4da2a	0.08049424
217	0x3d896e6e	0.06710516
218	0x3d835cc0	0.06414175
219	0xbd819d8b	-0.06328877
220	0x3ddc2ff4	0.10751334
221	0x3e0c0b7b	0.13676254
222	0x3e04e55d	0.1297812
223	0xbdfcf0dd	-0.123506285
224	0x3d2421f8	0.040071458
225	0xbdfdf405	-0.12400059
226	0xbe06e0f3	-0.13171749
227	0xbd4c283a	-0.04984305
228	0x3da2ce04	0.079494506
229	0x3e0f1ff5	0.13977034
230	0x3e054109	0.1301309
231	0x3dab1016	0.083526775
232	0xbd1375e4	-0.0360011
233	0x3d65c364	0.056094542
234	0x3dcb4bba	0.09926553
235	0x3c34ef70	0.0110434145
236	0x3d97e902	0.074174896
237	0x3dfc83b6	0.12329809
238	0xbdebea6f	-0.11519324
239	0x3a53fa00	0.0008086264
240	0xbdccf92b	-0.100084625
241	0xbafb4000	-0.0019168854
242	0x3dc9dd42	0.09856655
243	0x3dd20b52	0.102560654
244	0xbde838d0	-0.11338961
245	0xbdc0f1ac	-0.09421095
246	0x3cf18870	0.029484004
247	0x3dd76ca0	0.105187654
248	0xbda83822	-0.082138315
249	0xbd4aa34c	-0.04947214
250	0x3cabfa20	0.020993292
251	0xbdc1267a	-0.09431167
252	0xbd60eee8	-0.05491534
253	0xbdd451fa	-0.10367198
254	0xbe085a3b	-0.1331567
255	0x3d84340c	0.0645524

rnn.bias_ih_l1 f4 [200]
0	0x3df48fae	0.11941467
1	0x3ddfb2ed	0.10922799
2	0x3d448c29	0.04798523
3	0xbc7a2b25	-0.0152690755
4	0x3dadfe7a	0.08495803
5	0x3ce0d201	0.027443888
6	0x3e16cfea	0.1472775
7	0x3dc66ee7	0.09689122
8	0x3d91e5e9	0.0712393
9	0xbe00dda5	-0.1258455
10	0xbccfaa52	-0.02534977
11	0x3e43400b	0.19067399
12	0x3d10d13e	0.0353558
13	0xbcc853d4	-0.024454035
14	0x3e0d05a3	0.13771681
15	0x3c9fde37	0.01951514
16	0xbdc678fb	-0.09691044
17	0xbe0aed4d	-0.13567086
18	0xbe0acf76	-0.13555703
19	0x38f7f726	0.00011823913
20	0x3c89cb30	0.01682052
21	0x3d5e5838	0.05428335
22	0xbb923c43	-0.00446275
23	0x3e067cc0	0.13133526
24	0xbd2f8e67	-0.042860415
25	0x37f2369a	2.8874074e-05
26	0xbd17f3cb	-0.037097733
27	0xbb628d8c	-0.0034569232
28	0xbc124652	-0.0089278985
29	0x3cec13ca	0.02881803
30	0xbcb2aa84	-0.021809824
31	0x3d03fa5c	0.032221183
32	0xbdd3f62e	-0.103496894
33	0xbd8e3857	-0.0694434
34	0xbdbbdde7	-0.09173184
35	0x3daa4f18	0.08315867
36	0x3dc01c47	0.093803935
37	0x3cacff00	0.021117687
38	0x3d1a089e	0.037605874
39	0xbda805bb	-0.08204218
40	0x3ddd8af1	0.108175166
41	0x3ba12e07	0.004918817
42	0xbdae635f	-0.08515047
43	0x3d0d02c3	0.034426462
44	0xbd4142c1	-0.047182802
45	0xbdea7fb6	-0.1145014
46	0x3d7b67cf	0.061378296
47	0x3dda15ee	0.10648714
48	0x3dce4a48	0.10072762
49	0xbd0aa354	-0.033847168
50	0xbdc0b25c	-0.09409019
51	0x3c470ed0	0.012149528
52	0x3dae2792	0.08503641
53	0xbd84a4c3	-0.06476738
54	0x3da6f584	0.08152297
55	0x3d3a4564	0.045476332
56	0x3d63d820	0.055626035
57	0x3c7ffce0	0.015624255
58	0x3c9d8fe8	0.019233659
59	0x3d0d72cc	0.034533307
60	0x3ddbe5dc	0.107372016
61	0x3db0b458	0.08628148
62	0xbd8b92a1	-0.068150766
63	0xbd003da0	-0.03130877
64	0x3d47b304	0.048754707
65	0xbd7a3546	-0.06108596
66	0x3e0f4f0b	0.13994996
67	0x3d48236c	0.048861906
68	0x3ca0c028	0.019622877
69	0xbda49375	-0.08035938
70	0xbbbaa1a0	-0.0056955367
71	0xbdbc691e	-0.09199737
72	0x3d943e9e	0.07238506
73	0xbce76f98	-0.028251454
74	0xbbf68fc0	-0.0075244606
75	0x3d700734	0.05860062
76	0xbe0dbee1	-0.13842346
77	0x3de7698a	0.11299427
78	0x3dcc4528	0.09974128
79	0x3d68a098	0.05679378
80	0x3ded69e6	0.11592464
81	0x3b30dac0	0.0026985854
82	0xbc373220	-0.011181384
83	0x3c90fe18	0.017699286
84	0x3de22fd2	0.11044277
85	0xbd58e40a	-0.05295185
86	0xbdaab40f	-0.08335125
87	0xbe09e665	-0.13466795
88	0xbda0659f	-0.07831883
89	0xbdd07f4e	-0.101805314
90	0xbd0c8160	-0.03430307
91	0x3d828a56	0.06374042
92	0xbdd2bd1c	-0.10289976
93	0xbe0bfa58	-0.13669717
94	0xbdc9476a	-0.09828074
95	0xbde028ae	-0.10945259
96	0x3d273168	0.0408186
97	0xbd875e87	-0.066098265
98	0x3d98a9ce	0.07454263
99	0x3c18f970	0.009336814
100	0xbd393206	-0.04521372
101	0xbdc7e9c7	-0.09761386
102	0x3dd15b57	0.102225
103	0xbde7e517	-0.11322992
104	0xbe0b651a	-0.13612786
105	0x3da17109	0.07882888
106	0xbd96faf9	-0.07372088
107	0xbe136a55	-0.14396031
108	0x3db4d21a	0.08829136
109	0x3ddc2746	0.10749678
110	0x3dfdcec0	0.1239295
111	0x3dc091d4	0.094028145
112	0x3dadd72d	0.08488307
113	0x3ac9f54a	0.0015408185
114	0x3dbb86d3	0.09156575
115	0x3b58d119	0.0033083616
116	0x3da3b41f	0.0799334
117	0xbc35b510	-0.011090532
118	0x3dd71a4c	0.105030626
119	0xbd9be1cf	-0.07611429
120	0xbc462396	-0.012093445
121	0x3df12a5f	0.1177566
122	0xbd4edeb1	-0.050505344
123	0x3e008eea	0.12554517
124	0x3d5794f9	0.052632306
125	0x3c9f70b3	0.019462919
126	0xbdeb5351	-0.11490501
127	0x3dafc322	0.085821405
128	0xbc911b6f	-0.017713277
129	0x3e11ae41	0.14226629
130	0x3d7f4252	0.062319107
131	0xbd0fa90e	-0.035073332
132	0x3d2d8caf	0.042370494
133	0xbe048028	-0.12939513
134	0xbd3a4f29	-0.04548565
135	0x3dbc6998	0.09199828
136	0xbd42a203	-0.047517788
137	0xbd1d745d	-0.03844105
138	0x3bba9c47	0.0056948992
139	0xbd8925cc	-0.06696662
140	0xbc857d20	-0.016295016
141	0xbd51b341	-0.05119634
142	0x3dd39db1	0.103328116
143	0xbd3afb99	-0.0456501
144	0xbdafe9d5	-0.08589522
145	0x3c2a1eea	0.010383347
146	0x3e002606	0.12514505
147	0xbd93b1d5	-0.07211653
148	0x3e0fa32e	0.14027092
149	0xbc599dd6	-0.01328226
150	0xbd9d76db	-0.076886855
151	0xbd5d6ae4	-0.054057017
152	0xbd0c9807	-0.034324672
153	0x3d902a38	0.070393026
154	0x3d6a9452	0.057270356
155	0x3cafb30c	0.02144768
156	0x3db7aae1	0.089681394
157	0xbdcc06e5	-0.099622525
158	0x3d37284d	0.04471617
159	0xbd2376e0	-0.03990829
160	0x3e182045	0.1485606
161	0x3d044ab2	0.032297798
162	0x3cdb5e58	0.026778385
163	0x3d4f0522	0.050542004
164	0x3e41bb93	0.1891921
165	0xbd4151be	-0.047197096
166	0xbbbac4ad	-0.005699715
167	0x3cbc63a5	0.022996733
168	0xbe014aa5	-0.12626131
169	0x3e04bde2	0.1296306
170	0xbd1269ea	-0.03574554
171	0xbd16c7b9	-0.036811564
172	0xbb885adb	-0.0041612214
173	0xbd232264	-0.03982772
174	0xbe082a39	-0.13297357
175	0x3dd88a61	0.10573269
176	0x3e1bdaf3	0.15220241
177	0xbd17cbb7	-0.037059512
178	0xbdaf6380	-0.085639
179	0xbd5ea6ab	-0.054358166
180	0xbe07942f	-0.13240121
181	0x3d5be63b	0.05368636
182	0xbdb1f13f	-0.08688592
183	0x3ddd4cf1	0.10805691
184	0x3d210513	0.03931148
185	0xbc3f9b08	-0.011694677
186	0x3dd5818a	0.10425098
187	0x3ded7fdc	0.11596653
188	0x3cb1f6ef	0.021724192
189	0x3da40ba1	0.080100305
190	0xbd106f5b	-0.035262447
191	0x3dee2be3	0.116294645
192	0xbde4fb51	-0.11180747
193	0x3b67e8cd	0.0035386563
194	0x3c887927	0.016659332
195	0x3d9b9909	0.075975485
196	0xbdcbb2b5	-0.09946195
197	0x3e0a8144	0.13525873
198	0x3ca39448	0.019968167
199	0x3d1cd2a4	0.03828682

rnn.bias_hh_l1 f4 [200]
0	0x3d3d7e5a	0.046263076
1	0xbd913251	-0.07089675
2	0xbdeaa08a	-0.11456402
3	0xbd8e37f6	-0.069442675
4	0x3dc816da	0.097699836
5	0x3e3eda2d	0.18637915
6	0xbdd483e8	-0.103767216
7	0x3cc2b7b9	0.023769246
8	0x3c8ff7e0	0.01757425
9	0xbe0d695e	-0.13809726
10	0x3e17d28d	0.14826412
11	0x3e4faa69	0.2027985
12	0xbe009d11	-0.12559916
13	0xbe0a4acc	-0.13505095
14	0x3e45381d	0.19259687
15	0xbde28d28	-0.1106208
16	0x3cef2e6a	0.029196937
17	0x3dac5a27	0.08415633
18	0xbdbc9696	-0.092084095
19	0x3c9039d4	0.0176057
20	0x3e1a1ab2	0.15049246
21	0xbb775258	-0.003773829
22	0xbd42a92a	-0.04752461
23	0x3cf7250d	0.030169034
24	0xbde57dd2	-0.11205639
25	0xbdd11dd1	-0.10210765
26	0x3e335312	0.17512158
27	0xbdba5ff3	-0.09100332
28	0xbe0bae30	-0.13640666
29	0x3d5ecc62	0.054394133
30	0x3cfed250	0.031106144
31	0xbcd8aa0a	-0.026448268
32	0x3e09f5fe	0.13472745
33	0x3e0f086b	0.13968055
34	0x3d881435	0.06644479
35	0x3e0fd5a1	0.14046337
36	0xbda8abdf	-0.08235907
37	0xbde7ec1b	-0.113243304
38	0x3e562a5e	0.209146
39	0x3da6e7cf	0.08149683
40	0x3d2ab420	0.041675687
41	0xbdbe4452	-0.09290375
42	0x3e002e38	0.12517631
43	0xbc4daa6a	-0.012552837
44	0xbd7525f6	-0.059850655
45	0xbba6930a	-0.0050834464
46	0xbd9f2b94	-0.07771984
47	0x3e069d93	0.13146047
48	0x3dd79f80	0.10528469
49	0xbd7687c0	-0.060188055
50	0xbda32065	-0.07965163
51	0x3d380684	0.04492809
52	0x3dfd4662	0.1236694
53	0xbc81e3f0	-0.01585576
54	0x3dc50d0c	0.09621629
55	0xbe0365c3	-0.12831788
56	0x3bbb09a0	0.0057079345
57	0x3e08b7fb	0.13351433
58	0xbd9c49ff	-0.07631301
59	0x3d1173c8	0.03551081
60	0x3d855362	0.06510045
61	0x3c296000	0.01033783
62	0xbd439de4	-0.047757998
63	0x3df67f42	0.12035991
64	0x3dff49de	0.12465261
65	0x3c11fb60	0.00891003
66	0xbc863d80	-0.016386747
67	0x3d8c0cc2	0.06838371
68	0xbdfd318a	-0.123629645
69	0x3d674f28	0.056471974
70	0x3e0a005d	0.13476701
71	0xbdbd961b	-0.09257146
72	0x3d752e48	0.05985859
73	0xbdd3e74f	-0.10346853
74	0x3dd11772	0.1020955
75	0xbdb9841f	-0.09058403
76	0xbd327248	-0.04356602
77	0x3acd0980	0.001564309
78	0xbdee3e50	-0.11632979
79	0x3e015287	0.12629138
80	0xbd328dca	-0.04359225
81	0x3d982178	0.07428259
82	0xbc200e60	-0.009769052
83	0x3ddc50f4	0.10757628
84	0xbd7f4628	-0.062322766
85	0xbdfd342e	-0.12363468
86	0x3db348ee	0.087541446
87	0x3d7e49fc	0.062082276
88	0xbdb500d1	-0.08838046
89	0xbdf200ed	-0.11816583
90	0x3d614f70	0.055007398
91	0x3d976bf6	0.07393639
92	0xbd799d74	-0.060941175
93	0x3dff029e	0.12451671
94	0xbe0e3656	-0.13887915
95	0x3b2b32c0	0.0026122779
96	0xbc4ced10	-0.012507692
97	0xba8a6e80	-0.0010561496
98	0x3c664b50	0.014056042
99	0xbd2365c0	-0.03989196
100	0xbd9b7b58	-0.07591885
101	0x3da168f9	0.0788135
102	0x3e1ea792	0.1549361
103	0xbd667798	-0.056266397
104	0xbd9a111d	-0.07522795
105	0xbd22fa02	-0.039789207
106	0x3d0848a1	0.03327239
107	0x3dcfa93b	0.101397
108	0x3dc3535a	0.095373824
109	0x3dc9a47a	0.098458245
110	0x3cebe3fb	0.028795233
111	0xbdaf6f99	-0.085662074
112	0xbdd0b2f6	-0.10190384
113	0x3dd15f29	0.102232285
114	0xbd8de128	-0.06927711
115	0x3cca1b94	0.024671353
116	0xbdf20eed	-0.11819253
117	0x3d56fb89	0.052485976
118	0xbd1bbd61	-0.038022403
119	0xbd1b3927	-0.0378963
120	0xbe10d95e	-0.14145419
121	0x3d1ce42f	0.03830355
122	0xbc7281a5	-0.0148014175
123	0xbdf376c9	-0.11887891
124	0xbc6ece8e	-0.014575614
125	0x3d43dfb4	0.04782076
126	0xbd01e625	-0.031713624
127	0x3dd3f5b8	0.103496015
128	0x3db32d79	0.087489076
129	0xbdb7835b	-0.08960601
130	0x3bd9b0c1	0.006643385
131	0xbd835725	-0.06413106
132	0x3dccf5ad	0.100077964
133	0x3cbae9ab	0.0228165
134	0xbe067164	-0.13129193
135	0xbc9e4f03	-0.019324785
136	0xbdf9af63	-0.121916555
137	0xbdc5ea34	-0.09663811
138	0x3defd14b	0.11709841
139	0xbd9c306c	-0.07626423
140	0x3e1a97a1	0.15096904
141	0xbc855335	-0.016275028
142	0x3d08582d	0.033287216
143	0xbd96f883	-0.073716186
144	0xbddbfbb9	-0.10741372
145	0xbe01db39	-0.12681283
146	0x3d240e93	0.04005296
147	0xbd0e8737	-0.03479692
148	0x3e092d09	0.13396086
149	0x3de687d8	0.11256379
150	0xbc6bc5cc	-0.01439042
151	0x3ddcc80d	0.10780344
152	0xbdcc43b6	-0.09973852
153	0x3d64a24e	0.05581885
154	0x3ce3dcd6	0.027815264
155	0x3da2ce31	0.07949484
156	0x3daa7236	0.08322565
157	0x3e01ac4c	0.12663382
158	0xbe06eec1	-0.13177015
159	0xbc9c16c1	-0.019053819
160	0x3ce9814d	0.028504038
161	0x3dce6d18	0.10079402
162	0xbda6802b	-0.08129915
163	0x3df18e4e	0.117947206
164	0xbb48f1dd	-0.003066174
165	0xbde36c88	-0.11104685
166	0xbb2589d5	-0.0025259156
167	0xbdda81cd	-0.10669289
168	0x3e04874f	0.12942241
169	0xbcb37952	-0.021908436
170	0xbda0ba0c	-0.078479856
171	0xbd2441ed	-0.040101934
172	0xbdfdba7c	-0.12389085
173	0xbdcd4c99	-0.100243755
174	0xbda2bc37	-0.079460554
175	0x3d9f4dcf	0.07778513
176	0x3e104d63	0.1409202
177	0x3d1f1500	0.038838387
178	0x3cf5a642	0.029986504
179	0x3d710b86	0.05884888
180	0xbdbcdf3a	-0.092222646
181	0x3e0f3dc7	0.1398841
182	0x3e0fb867	0.14035188
183	0xbcad57d5	-0.021160046
184	0x3d8fdf10	0.07024968
185	0x3df840a1	0.12121702
186	0xbdf8dec7	-0.121518664
187	0xbe1caa3b	-0.15299313
188	0xbcac4743	-0.021030074
189	0xbdea4acb	-0.11440047
190	0x3d854090	0.06506455
191	0xbd638cf3	-0.05555434
192	0xbd106a73	-0.035257768
193	0x3c600a8a	0.013674388
194	0x3dc9aec2	0.098477855
195	0xbc99f6f8	-0.018794522
196	0xbd975027	-0.07388335
197	0x3d74780c	0.059684798
198	0x3db3e8d0	0.0878464
199	0x3dd66fb1	0.10470522
