LSTM_for_PDE/codes/models/LSTM_NS2d_ramp.pth (torch, 130293 bytes, 10 tensors)

rnn.weight_ih_l0 f4 [200, 3]
-0.15233967 -0.20475079 0.07979729 -0.23298122 0.22249861 0.052549947 -0.08527317 -0.06010564
-0.033507198 -0.11557413 -0.13075323 0.21479905 -0.09234389 -0.19076823 -0.056811225 -0.05710598
-0.26662517 0.27773502 0.013937492 -0.100770354 0.10500945 -0.21323015 0.05085264 0.29556274
-0.027319225 -0.043248657 0.1569095 -0.3552075 0.100869365 0.33038956 -0.008773909 -0.06310672
-0.04901093 -0.71477836 -0.0070425314 -1.1263708 -0.069989845 -0.18604627 0.07254732 -0.026050141
0.17707925 0.3006837 -0.49970037 0.15558352 -0.13332146 -0.33734584 -0.07520358 0.12564814
-0.28781474 0.10117478 0.30269608 -0.29275548 -0.10007636 0.14606296 -0.04879127 0.07108098
0.15118575 0.020681193 -0.19115031 0.18181646 -0.016875401 -0.08194192 -0.17371625 0.029737532
0.10451059 -0.09586849 0.012815174 0.25038671 1.0262975 -0.24372803 0.247224 -0.3146383
-0.11084691 -0.029995874 0.019405486 -0.09270445 0.107566915 0.34364498 0.061424587 0.20583776
0.07588754 -0.11557242 0.10925988 0.14725098 -0.09028522 0.07431024 0.27689403 -0.13894841
-0.31568256 0.6270869 -0.061354887 -0.023617398 0.18716414 -0.28320742 0.08154162 0.12024888
-0.18984437 0.08618219 0.41278046 -0.047401305 -0.022068182 0.1962095 0.19257456 -0.07569664
0.10092092 -0.17543325 -0.105077334 0.09992824 0.0011290149 0.10770744 0.033249274 -0.34916246
-0.1263955 0.10716647 -0.3965789 0.10605257 0.26824084 -0.0804345 -0.09275089 -0.034041215
-0.047669794 -0.14222543 -0.25322822 0.020020965 0.1915633 0.0790087 0.051803254 -0.14796513
0.024132663 0.047418952 -0.13954006 0.050276376 0.13447039 0.106269695 0.27061635 -0.20530926
0.080708325 0.072188154 -0.13112853 0.15275627 0.14508933 -0.08088388 0.25621587 0.2323329
-0.26833916 0.15303908 0.13510877 0.065434456 0.17676237 0.11200345 -0.014892459 -0.04363069
0.016959727 0.11793123 -0.05765804 -0.08962676 -0.04526607 -0.10693978 0.09798029 0.044746593
-0.022596829 0.01599826 -0.13082473 -0.007878363 -0.10024286 -0.031041242 -0.1075971 0.119075015
-0.025827408 0.058673784 -0.028141133 0.03715302 0.009190634 -0.016046256 0.012630656 0.13515206
-0.09188747 0.13812213 0.077930555 0.07438362 0.012326106 -0.049406663 -0.04382541 -0.05258912
-0.001484856 0.13390602 -0.08865998 0.0730281 0.11955811 -0.10784872 0.07399127 -0.005949065
-0.04551349 -0.13708347 -0.12348975 0.124050274 0.02223666 0.116929784 -0.046517886 -0.117053404
0.04198475 0.11255781 0.00025869906 -0.07991348 0.13936459 0.055402324 0.011208594 -0.09046064
0.00064884126 0.10387327 -0.10676426 0.025114253 0.05784154 0.064366505 0.0851907 -0.045876473
-0.08226873 0.061766163 0.10610008 -0.14087445 -0.08452804 0.08639148 -0.07621781 0.10484055
0.13326292 0.100969166 -0.009072542 0.09235735 -0.020831369 0.13921647 -0.100439355 0.1393684
0.054471955 0.13660012 -0.08309327 0.011879966 0.08344951 0.018295273 0.07594296 -0.026487276
0.046345383 0.039842233 -0.112765044 -0.039973132 -0.13390845 -0.13441159 -0.04082787 0.08486806
0.08245906 -0.008746937 0.09489821 -0.06167067 -0.1284817 -0.12714419 0.03880325 -0.13166927
00000000: eefe 1bbe 31aa 51be c36c a33d a192 6ebe
00000010: add6 633e 9d3e 573d b3a3 aebd 5531 76bd
00000020: d83e 09bd 21b2 ecbd 2de4 05be 48f4 5b3e
00000030: cb1e bdbd bf58 43be e3b2 68bd f6e7 69bd
00000040: 1883 88be 4933 8e3e 145a 643c b060 cebd
00000050: 320f d73d 0159 5abe dc4a 503d 0054 973e
00000060: 91cc dfbc 8125 31bd e2ac 203e c2dd b5be
00000070: 9994 ce3d d228 a93e 71c0 0fbc 193e 81bd
00000080: afbf 48bd b7fb 36bf 09c5 e6bb eb2c 90bf
00000090: d656 8fbd ea82 3ebe b093 943d 1b67 d5bc
000000a0: 4354 353e 37f3 993e bad8 ffbe 4951 1f3e
000000b0: 6c85 08be 98b8 acbe 5604 9abd e8a9 003e
000000c0: 745c 93be b934 cf3d fbfa 9a3e 0ce4 95be
000000d0: d6f4 ccbd 8791 153e 5bd9 47bd e892 913d
000000e0: 70d0 1a3e 9b6b a93c e8bc 43be 182e 3a3e
000000f0: 483e 8abc 2ad1 a7bd ace2 31be 209c f33c
00000100: a609 d63d b356 c4bd bcf6 513c b032 803e
00000110: b75d 833f d793 79be 4a28 7d3e 4518 a1be
00000120: b403 e3bd e8b9 f5bc 41f8 9e3c d5db bdbd
00000130: 0b4c dc3d 3cf2 af3e 5998 7b3d 22c7 523e
00000140: ed6a 9b3d 3cb1 ecbd a5c3 df3d f6c8 163e
00000150: 75e7 b8bd f82f 983d 0ec5 8d3e 7e48 0ebe
00000160: 25a1 a1be c488 203f 434f 7bbd 4679 c1bc
00000170: f5a7 3f3e 9000 91be 4bff a63d 0b45 f63d
00000180: 9066 42be 4a80 b03d f657 d33e df27 42bd
00000190: 55c8 b4bc 25eb 483e 4432 453e d706 9bbd
000001a0: a1af ce3d c6a4 33be c932 d7bd 2da7 cc3d
000001b0: 74fb 933a b895 dc3d 6430 083d 6cc5 b2be
000001c0: d26d 01be 187a db3d 640c cbbe 1732 d93d
000001d0: dd56 893e d8ba a4bd 2ef4 bdbd cd6e 0bbd
000001e0: 6741 43bd 8ba3 11be 21a7 81be 0203 a43c
000001f0: 2b29 443e 50cf a13d a62f 543d 2c84 17be
00000200: ddb1 c53c 603a 423d 97e3 0ebe 9aee 4d3d
00000210: 9bb2 093e eda3 d93d 3a8e 8a3e 973c 52be
00000220: 684a a53d 62d7 933d 8f46 06be 246c 1c3e
00000230: 4c92 143e 73a6 a5bd ba2e 833e ade8 6d3e
00000240: c063 89be 47b6 1c3e f459 0a3e 8002 863d
00000250: 3201 353e 1162 e53d 80ff 73bc 18b6 32bd
00000260: 20ef 8a3c ee85 f13d d62a 6cbd 3c8e b7bd
00000270: ea68 39bd 3e03 dbbd e4a9 c83d 3448 373d
00000280: fc1c b9bc c80e 833c ebf6 05be 4014 01bc
00000290: 214c cdbd 344a febc de5b dcbd 9add f33d
000002a0: 0094 d3bc ec53 703d 3c88 e6bc c42d 183d
000002b0: 5094 163c 7073 83bc d0f0 4e3c 4d65 0a3e
000002c0: 7f2f bcbd e36f 0d3e 0e9a 9f3d 7056 983d
000002d0: 70f3 493c a45e 4abd 4682 33bd b067 57bd
000002e0: 809f c2ba a91e 093e 5d93 b5bd c28f 953d
000002f0: e2da f43d cadf dcbd bc88 973d 60f0 c2bb
00000300: 5a6c 3abd 9c5f 0cbe 32e8 fcbd 120e fe3d
00000310: a829 b63c e278 ef3d 8a89 3ebd b2b9 efbd
00000320: 34f8 2b3d b684 e63d 00a2 8739 aea9 a3bd
00000330: 97b5 0e3e 8ced 623d 40a4 373c 6e43 b9bd
00000340: 0017 2a3a 82bb d43d 38a7 dabd 68bc cd3c
00000350: 40eb 6c3d 96d2 833d 7678 ae3d f8e8 3bbd
00000360: 827c a8bd 84fe 7c3d 004b d93d 6441 10be
00000370: 091d adbd 04ee b03d 1518 9cbd a4b6 d63d
00000380: 1376 083e ecc8 ce3d 00a5 14bc da25 bd3d
00000390: 8ca6 aabc c38e 0e3e 26b3 cdbd 97b6 0e3e
000003a0: fc1d 5f3d e7e0 0b3e ce2c aabd 30a4 423c
000003b0: 94e7 aa3d f8df 953c fc87 9b3d d8fb d8bc
000003c0: a8d4 3d3d 9c31 233d 5cf1 e6bd deba 23bd
000003d0: 4c1f 09be 31a3 09be 203b 27bd 4ecf ad3d
000003e0: 4ce0 a83d 504f 0fbc fe59 c23d 629a 7cbd
000003f0: b590 03be 1632 02be 28f0 1e3d 4fd4 06be

rnn.weight_hh_l0 f4 [200, 50]
0.06950511 0.11172302 0.040916875 -0.1281587 -0.03009034 -0.051980503 0.113110915 0.08593534
0.11096056 0.09468399 -0.08363031 -0.020016365 0.10301435 -0.09021127 -0.08003107 -0.022293776
-0.02038911 0.04303342 -0.016612098 -0.10958395 0.1246839 -0.051053375 -0.12653252 -0.011430293
-0.12699184 0.03837441 -0.05880546 -0.10062662 -0.09871787 0.048593998 -0.0006593764 0.02419494
0.13499333 -0.10211074 -0.116920926 -0.015347302 0.005370587 0.11926468 -0.07210979 0.006027162
-0.036560334 0.08248763 0.10599768 -0.10634018 0.11980815 -0.038740173 0.015787885 0.0807593
-0.02824857 -0.12454008 0.09689067 -0.10563828 0.024589702 -0.04258725 0.08009982 0.12170686
-0.14002506 -0.053552143 -0.09356283 -0.01523748 0.09785941 0.13943572 -0.13118398 -0.036276147
0.039554656 0.09946777 0.03414075 0.029055119 -0.08831625 0.081631064 0.012200803 0.03783354
0.071137235 -0.01096487 -0.08692432 -0.083792165 -0.13537823 0.11335571 -0.0594424 0.07425508
-0.121366054 -0.06616642 0.030884922 -0.052568384 -0.014829621 -0.040076397 0.1350698 0.11320974
-0.031850055 -0.02888076 0.070573255 0.098832965 0.058841214 -0.0034946352 -0.12760162 -0.11639725
-0.14046931 0.1040694 0.043277353 0.13011162 -0.107567996 0.08472793 0.13958268 -0.069980465
0.042544052 -0.12139772 0.07253641 0.13016151 0.02645062 -0.13531053 -0.12830587 0.07809828
0.040499017 0.088172466 0.009370297 -0.122026294 0.05945021 0.060323477 -0.065237254 0.039424196
0.09343071 -0.074247524 -0.07523869 0.0430893 0.0018880069 0.06795941 0.1324027 0.073592365
0.11672063 0.14110298 0.08827789 0.051138684 -0.07722055 -0.059047163 -0.13162836 -0.0008676499
-0.045696326 0.032646343 0.13352685 -0.049650237 0.14004706 -0.046551183 0.13014121 0.02842556
-0.07716699 -0.024687499 -0.11358973 0.13848834 0.02084513 0.051908463 0.03575331 0.0877009
-0.13515738 0.049015805 0.016248152 0.08161402 -0.073861055 0.033826113 -0.02799058 -0.124242544
0.056080684 0.052261457 -0.10233341 -0.07130788 -0.10933743 0.032738656 -0.12944491 0.0005711019
0.030925661 0.106992275 -0.060727425 -0.13285689 0.026713252 -0.04634872 -0.110964954 -0.12216903
-0.12744366 -0.08113513 -0.0019977838 -0.030142516 0.0879848 -0.09526655 -0.12461354 -0.00024867058
-0.11347205 -0.08815712 0.010997802 -0.088732004 -0.11389753 -0.05532691 0.09052287 0.009676203
0.06333491 0.056608006 0.08340858 0.022180453 -0.053352386 -0.04235313 -0.047856852 -0.118175335
0.02865623 0.13038804 -0.12052077 0.13870202 -0.040598243 -0.12584479 -0.1086548 -0.034981027
0.03380327 -0.05006139 0.0825443 -0.09418218 -0.0010724217 -0.064598866 0.015309647 -0.0847781
0.11661203 -0.10945685 -0.06878978 -0.057535358 0.13134949 0.06556983 0.009146184 -0.1254241
-0.051359914 0.099052176 0.025687695 -0.12672904 0.08992599 0.096276686 0.049125075 0.12854604
0.019393265 0.07942176 0.09809299 0.043593258 0.069896 -0.030969627 -0.0037573278 0.0031149834
0.06073755 -0.027150951 0.12418981 0.09962109 0.033418506 0.05539669 0.015427366 -0.080416225
0.12039311 0.03798558 -0.040670633 -0.13129476 -0.00016644597 0.0308792 0.018655404 -0.041290462
00000000: b258 8e3d 0acf e43d 7498 273d 093c 03be
00000010: 0480 f6bc 82e9 54bd b2a6 e73d defe af3d
00000020: 4a3f e33d aee9 c13d 5e46 abbd 5cf9 a3bc
00000030: 30f9 d23d b0c0 b8bd 54e7 a3bd 70a1 b6bc
00000040: 1007 a7bc d043 303d 1816 88bc 8d6d e0bd
00000050: 465a ff3d 581d 51bd be91 01be 2046 3bbc
00000060: 260a 02be 7c2e 1d3d fedd 70bd 5415 cebd
00000070: 982c cabd 800a 473d 00da 2cba 7834 c63c
00000080: b13b 0a3e 701f d1bd 3d74 efbd 4073 7bbc
00000090: c0fb af3b 0a41 f43d 4cae 93bd 807f c53b
000000a0: 4ac0 15bd 46ef a83d 5015 d93d e1c8 d9bd
000000b0: fa5d f53d 04ae 1ebd 9855 813c 2265 a53d
000000c0: 8c69 e7bc df0e ffbd 9e6e c63d e258 d8bd
000000d0: 5870 c93c f86f 2ebd 600b a43d 7241 f93d
000000e0: bb62 0fbe 7e59 5bbd de9d bfbd a0a6 79bc
000000f0: 846a c83d 3dc8 0e3e 1855 06be 4c96 14bd
00000100: 1004 223d c2b5 cb3d 2cd7 0b3d 0005 ee3c
00000110: 26df b4bd 302e a73d e0e5 473c 58f7 1a3d
00000120: 66b0 913d 00a6 33bc 6105 b2bd 3a9b abbd
00000130: 97a0 0abe 0a27 e83d e079 73bd 0c13 983d
00000140: c48e f8bd 4382 87bd 6002 fd3c f251 57bd
00000150: f0f7 72bc 2627 24bd bd4f 0a3e 82da e73d
00000160: 3475 02bd 5897 ecbc b688 903d f068 ca3d
00000170: 7c03 713d 4006 65bb 00aa 02be ae61 eebd
00000180: 30d7 0fbe 5622 d53d 9843 313d fb3b 053e
00000190: 9c4c dcbd d685 ad3d c3ee 0e3e eb51 8fbd
000001a0: ac42 2e3d 5e9f f8bd f88d 943d 0f49 053e
000001b0: f8ae d83c d88e 0abe 9d62 03be fef1 9f3d
000001c0: 4ce2 253d c493 b43d e085 193c ece8 f9bd
000001d0: 1082 733d c015 773d 1c9b 85bd 447b 213d
000001e0: 9a58 bf3d 160f 98bd be16 9abd 687e 303d
000001f0: 0077 f73a 4e2e 8b3d 9394 073e 98b7 963d
00000200: 3a0b ef3d 4d7d 103e 0acb b43d cc76 513d
00000210: cf25 9ebd 70db 71bd 96c9 06be 0073 63ba
00000220: 122c 3bbd 2cb8 053d 43bb 083e 0c5e 4bbd
00000230: 7f68 0f3e 74ac 3ebd bd43 053e b8dc e83c
00000240: ba09 9ebd 703d cabc bba1 e8bd e3cf 0d3e
00000250: 68c3 aa3c f89d 543d 1072 123d 889c b33d
00000260: b266 0abe ccc4 483d d81a 853c 4025 a73d
00000270: 7744 97bd 408d 0a3d 804c e5bc e072 febd
00000280: dcb4 653d 1c10 563d 2e94 d1bd de09 92bd
00000290: 4dec dfbd f818 063d 358d 04be 00b6 153a
000002a0: d057 fd3c c41e db3d 52bd 78bd a30b 08be
000002b0: c0d5 da3c 28d8 3dbd 9841 e3bd c233 fabd
000002c0: 9780 02be 2d2a a6bd 40ed 02bb 70ed f6bc
000002d0: 6031 b43d 1c1b c3bd 6235 ffbd 0060 82b9
000002e0: 0964 e8bd b88b b4bd 2030 343c 20b9 b5bd
000002f0: 1c43 e9bd 789e 62bd 0e64 b93d f088 1e3c
00000300: bcb5 813d ccdd 673d 1ed2 aa3d c8b3 b53c
00000310: 0888 5abd 7a7a 2dbd 8c05 44bd e905 f2bd
00000320: 78c0 ea3c 7184 053e 98d3 f6bd e707 0e3e
00000330: 584a 26bd 75dd 00be 6886 debd 4448 0fbd
00000340: 4c75 0a3d 2c0d 4dbd fc0c a93d 96e2 c0bd
00000350: 8090 8cba 694c 84bd 50d5 7a3c 24a0 adbd
00000360: 4ad2 ee3d ea2a e0bd a8e1 8cbd 32aa 6bbd
00000370: 7b80 063e 7a49 863d e0d9 153c 2d6f 00be
00000380: c65e 52bd dedb ca3d 006f d23c 42c5 01be
00000390: 1e2b b83d b62c c53d 6037 493d 93a1 033e
000003a0: a0de 9e3c e0a7 a23d fae4 c83d d88e 323d
000003b0: a225 8f3d 04b4 fdbc 803d 76bb c024 4c3b
000003c0: f0c7 783d ac6b debc 3a57 fe3d 2406 cc3d
000003d0: d8e1 083d a4e7 623d 10c3 7c3c 43b1 a4bd
000003e0: aa90 f63d c496 1b3d 4096 26bd 2272 06be
000003f0: 0088 2eb9 60f6 fc3c 38d3 983c 3020 29bd

rnn.bias_ih_l0 f4 [200]
0.29344484 0.036576994 0.010253191 0.20598732 0.17105715 0.37561116 -0.012037579 0.084765606
-0.061199326 -0.014217369 0.075328454 0.1390598 0.30683878 0.14823857 0.21173197 0.008892766
0.17606047 0.02871119 0.254186 0.05361468 0.014742228 0.1614942 0.158308 0.4270587
-0.020548303 -0.050718684 0.12504987 -0.0049373712 0.0845725 0.30426925 -0.06303485 0.21126428
0.25308362 -0.077284485 0.17081565 -0.011014799 0.33040008 -0.11506441 0.02430398 0.03387788
0.27934703 0.3738147 0.12311208 0.26143456 0.2591935 0.15333277 0.041395377 0.12424877
-0.09592212 0.08267621 0.077426836 -0.044516616 0.021595046 -0.041674063 -0.038498417 -0.006333813
0.023784652 0.045955673 -0.11925613 0.007914916 0.003201574 -0.13610312 0.10792273 -0.026950672
-0.07293231 -0.12700112 -0.08727001 0.111223206 0.03917627 0.05098793 -0.06862082 -0.044474162
-0.005635828 0.007755801 0.019566387 0.02058445 0.022738963 -0.015681833 -0.005117625 -0.028260708
-0.027616926 -0.08211264 -0.111358605 -0.12616244 0.10797934 0.04372926 0.14139222 -0.023933493
-0.0546598 -0.10487507 -0.094983235 -0.10761939 -0.10196409 0.0009870827 0.03490314 0.1354358
0.020330012 0.08321354 0.041482046 0.06208004 0.072192654 0.025232576 0.12785901 -0.08880214
-0.0125037925 0.27547964 -0.10177155 0.11960208 0.011675415 -0.05614762 0.0022717265 -0.05984029
0.004002564 0.14143628 -0.050199874 -0.028953241 0.07112829 -0.1051997 0.05426017 -0.010910987
-0.062553875 0.024964137 0.24483438 0.0969995 -0.026843071 -0.11145402 0.1245337 0.0033748695
0.14031154 0.031614956 0.113602325 0.14259292 -0.11116161 -0.033611953 -0.1011701 -0.099225
0.059374034 -0.06392067 0.0391977 -0.031715546 -0.039160486 0.07115501 0.1400162 -0.16123189
-0.02905315 -0.0009524332 0.10301218 -0.0065257265 0.099448614 -0.110500395 -0.121921934 0.14855582
0.10967502 0.17513041 0.38107237 0.3469743 0.13170148 0.277406 -0.008670865 -0.13895145
-0.0007303008 0.08441905 0.22938308 -0.0098068435 0.42804638 0.023215793 0.23812257 0.11733776
-0.012274778 0.014725743 0.13478106 0.10714604 0.31336236 0.45420846 -0.053806245 -0.0024421439
-0.008591032 0.090938136 -0.026553104 0.18833233 0.17209773 0.2671405 -0.0037309655 -0.010101869
0.03704842 0.11043032 0.18191537 0.024971388 -0.085039884 0.09863183 0.37431693 0.370458
-0.06866991 0.08705563 0.21014586 0.134223 -0.074810706 -0.008078192 0.04343597 -0.0062559242
00000000: 673e 963e c2d1 153d 00fd 273c 57ee 523e
00000010: 9b29 2f3e 1b50 c03e 4439 45bc 9799 ad3d
00000020: 25ac 7abd f8ef 68bc ce45 9a3d b165 0e3e
00000030: f919 9d3e dacb 173e 44d0 583e f7b2 113c
00000040: 3249 343e bb33 eb3c ab24 823e 119b 5b3d
00000050: 6389 713c bc5e 253e 7e1b 223e 70a7 da3e
00000060: ea54 a8bc 65be 4fbd 130d 003e acc9 a1bb
00000070: 5934 ad3d 2ec9 9b3e 6a18 81bd aa55 583e
00000080: 2d94 813e 5447 9ebd 4cea 2e3e 6a77 34bc
00000090: 332a a93e e4a6 ebbd 2419 c73c 88c3 0a3d
000000a0: 9306 8f3e a464 bf3e 3022 fc3d c0da 853e
000000b0: 03b5 843e 4403 1d3e 338e 293d 2476 fe3d
000000c0: d172 c4bd 2552 a93d f691 9e3d 0e57 36bd
000000d0: 18e8 b03c 6cb2 2abd 84b0 1dbd e08b cfbb
000000e0: 08d8 c23c 043c 3c3d 8f3c f4bd 90ad 013c
000000f0: 80d1 513b 9e5e 0bbe 9806 dd3d a8c7 dcbc
00000100: 895d 95bd 950c 02be 9eba b2bd fec8 e33d
00000110: 4c77 203d b8d8 503d 1389 8cbd 8a2a 36bd
00000120: c0ac b8bb 6024 fe3b b049 a03c b8a0 a83c
00000130: 1047 ba3c 3077 80bc c0b1 a7bb 0083 e7bc
00000140: e43c e2bc ac2a a8bd fb0f e4bd ba30 01be
00000150: 4624 dd3d 741d 333d 1fc9 103e 2c10 c4bc
00000160: f4e2 5fbd bec8 d6bd 9286 c2bd 8e67 dcbd
00000170: 8cd2 d0bd 0061 813a 98f6 0e3d afaf 0a3e
00000180: 208b a63c dc6b aa3d 14e9 293d a447 7e3d
00000190: bed9 933d 8cb4 ce3c 79ed 023e e5dd b5bd
000001a0: b5dc 4cbc ab0b 8d3e 9a6d d0bd eff1 f43d
000001b0: 3d4a 3f3c 0cfb 65bd 3fe1 143b 181b 75bd
000001c0: f127 833b acd4 103e 629e 4dbd 592f edbc
000001d0: b5ab 913d f172 d7bd e93f 5e3d ffc3 32bc
000001e0: 3f1c 80bd 9781 cc3c ddb5 7a3e ada7 c63d
000001f0: 00e6 dbbc 0142 e4bd 860b ff3d ea2c 5d3b
00000200: d4ad 0f3e af7e 013d 56a8 e83d e103 123e
00000210: b3a8 e3bd b0ac 09bd 4532 cfbd 7a36 cbbd
00000220: 3032 733d d7e8 82bd c48d 203d 29e8 01bd
00000230: bf66 20bd b8b9 913d 6860 0f3e f919 25be
00000240: df00 eebc b6ac 79ba 0df8 d23d c3d5 d5bb
00000250: b7ab cb3d 084e e2bd 35b2 f9bd 041f 183e
00000260: 4c9d e03d 6355 333e eb1b c33e 9ea6 b13e
00000270: c1dc 063e 2908 8e3e 3e10 0ebc 4a49 0ebe
00000280: a871 3fba e5e3 ac3d 66e3 6a3e e2ac 20bc
00000290: e528 db3e 0c2f be3c 67d6 733e c84e f03d
000002a0: 271c 49bc 3e44 713c 0c04 0a3e 626f db3d
000002b0: 0871 a03e 038e e83e f063 5cbd 600c 20bb
000002c0: 66c1 0cbc c63d ba3d e585 d9bc 31da 403e
000002d0: 633a 303e a4c6 883e 3783 74bb 4f82 25bc
000002e0: 16c0 173d 4b29 e23d 0648 3a3e cc90 cc3c
000002f0: 6429 aebd 7cff c93d 78a6 bf3e acac bd3e
00000300: cfa2 8cbd 394a b23d 7a30 573e c171 093e
00000310: 5b36 99bd 655a 04bc eae9 313d 7ffe ccbb

rnn.bias_hh_l0 f4 [200]
0.30404922 -0.10306505 -0.044614676 0.11121438 0.24986114 0.4914601 0.002525734 0.22114713
-0.019054681 -0.17216976 0.19446425 0.18974473 0.18477282 -0.04937953 0.30076268 -0.070212804
0.07769617 0.035232984 0.24292774 0.02543955 0.16311647 -0.024612747 0.14206837 0.21991962
0.13832815 0.10901916 0.06711247 0.055819567 0.22268346 0.35997576 0.14589901 0.15069206
0.36829472 -0.07545237 0.03577935 0.0810509 0.26974103 0.06967454 0.060657937 0.10161982
0.13345565 0.13216998 0.02549096 0.030402698 0.017946495 -0.0805627 -0.024058271 -0.07095717
-0.029286232 0.015092775 0.13205092 -0.017285213 -0.06260041 -0.08909352 -0.10798104 -0.03415335
0.112922266 0.13809837 -0.07978522 -0.0891896 0.053037822 0.13152899 -0.037766308 -0.10758098
0.06281306 -0.026949301 -0.038163267 0.077113 -0.07594724 -0.08677061 0.0027983487 -0.0747732
0.011389881 0.13176553 -0.058034137 0.12736116 -0.08500674 -0.03186956 0.11756934 0.04187815
0.08497958 0.11109798 -0.0983548 -0.05977206 0.05465676 0.07498436 0.070114836 -0.06511336
-0.09784836 -0.13178264 0.13050647 -0.1257341 0.11097838 0.120210215 0.06453796 0.03647925
0.03473723 -0.099595785 -0.019204617 -0.0017186254 -0.11921618 -0.016113754 -0.047114067 -0.028366713
-0.000742353 0.046407264 -0.08994093 -0.06966158 0.15768045 -0.004533654 0.11245046 0.11202362
-0.08589629 -0.061824385 -0.12737848 -0.062240183 -0.09509853 0.032819197 -0.1556947 0.16673793
-0.13045894 0.14369807 0.2873572 0.12869585 -0.008065555 -0.102830656 0.090340845 -0.12872955
0.0044492143 0.08782488 0.054113798 0.27719396 -0.20563886 0.17615028 -0.12601684 -0.0026747123
0.11445551 -0.032341268 0.044616267 0.003084015 0.07273211 0.011193515 -0.018059824 -0.068028376
-0.024603026 0.1557839 0.16147612 0.110060506 -0.011492914 0.114166066 0.065809816 0.06634721
0.13850747 0.25794685 0.3254155 0.12844364 0.12850538 0.23208015 0.15139577 0.078779906
-0.0063098855 0.2625744 0.052063033 0.22145899 0.35168332 -0.09516193 0.17316376 0.11719988
0.13140664 -0.11258572 0.15232967 0.1462662 0.48728332 0.45492795 0.14583604 0.17755656
0.18156165 -0.023484986 0.12246776 0.16318266 -0.06622693 0.2736428 -0.0223506 0.15120457
0.12827083 0.11851715 0.2628994 0.01757034 -0.00054786855 0.05638067 0.36723593 0.33744442
0.06846302 0.046906147 0.05378345 -0.04545368 -0.08740123 0.05019502 -0.10242789 0.037152443
00000000: 57ac 9b3e c513 d3bd e1bd 36bd 5dc4 e33d
00000010: 99db 7f3e a9a0 fb3e c986 253b 6574 623e
00000020: 9018 9cbc 454d 30be a321 473e 714c 423e
00000030: 1635 3d3e 3142 4abd 91fd 993e bbcb 8fbd
00000040: 2b1f 9f3d 7650 103d 0dc2 783e 9a66 d03c
00000050: 0108 273e aca0 c9bc 5f7a 113e 9c32 613e
00000060: e5a5 0d3e 7045 df3d 4372 893d 0fa3 643d
00000070: 2207 643e be4e b83e 8d66 153e 054f 1a3e
00000080: 2091 bc3e c686 9abd 5e8d 123d 04fe a53d
00000090: 7f1b 8a3e 86b1 8e3d 7574 783d 0d1e d03d
000000a0: 99a8 083e 9157 073e 6bd2 d03c 140f f93c
000000b0: 8704 933c 0ffe a4bd da15 c5bc fe51 91bd
000000c0: aee9 efbc b047 773c 5b38 073e b899 8dbc
000000d0: a534 80bd aa76 b6bd 2a25 ddbd 62e4 0bbd
000000e0: ca43 e73d a969 0d3e 6f66 a3bd 09a9 b6bd
000000f0: 303e 593d 89af 063e d8b0 1abd 6b53 dcbd
00000100: 22a4 803d c8c4 dcbc 1651 1cbd 6ced 9d3d
00000110: 3a8a 9bbd cab4 b1bd 8064 373b b122 99bd
00000120: a09c 3a3c 8bed 063e 34b5 6dbd f76a 023e
00000130: 0418 aebd a889 02bd 32c8 f03d 6c88 2b3d
00000140: c609 ae3d 5687 e33d 3e6e c9bd 8cd3 74bd
00000150: c4df 5f3d 6691 993d 5e98 8f3d 275a 85bd
00000160: b964 c8bd 07f2 06be 7da3 053e 71c0 00be
00000170: a248 e33d c630 f63d 7a2c 843d 446b 153d
00000180: a048 0e3d e0f8 cbbd 0053 9dbc 8043 e1ba
00000190: 9d27 f4bd fe00 84bc aefa 40bd 4f61 e8bc
000001a0: 779a 42ba 8b15 3e3d f332 b8bd bbaa 8ebd
000001b0: fc76 213e 0c8f 94bb 6d4c e63d a46c e53d
000001c0: 65ea afbd 913b 7dbd 816f 02be 90ef 7ebd
000001d0: 05c3 c2bd 6c6d 063d 6e6e 1fbe 59bd 2a3e
000001e0: 0797 05be 9625 133e 7c20 933e d8c8 033e
000001f0: 6425 04bc e198 d2bd 9f04 b93d aed1 03be
00000200: b7ca 913b 88dd b33d 6ea6 5d3d 5eec 8d3e
00000210: fe92 52be bd60 343e 8f0a 01be 3a4a 2fbb
00000220: a767 ea3d 4778 04bd 8cbf 363d 301d 4a3b
00000230: 93f4 943d 0165 373c 32f2 93bc 7652 8bbd
00000240: 498c c9bc d185 1f3e ff59 253e 6767 e13d
00000250: c64c 3cbc e6cf e93d 4cc7 863d 0ce1 873d
00000260: e7d4 0d3e 9c11 843e dc9c a63e bb86 033e
00000270: ea96 033e 6ba6 6d3e 7e07 1b3e 5c57 a13d
00000280: 28c3 cebb 2770 863e 0c40 553d 25c6 623e
00000290: d60f b43e 42e4 c2bd d751 313e 7e06 f03d
000002a0: 768f 063e 5893 e6bd 4ffc 1b3e cfc6 153e
000002b0: 337d f93e 51ec e83e 0b56 153e 63d1 353e
000002c0: 4ceb 393e 9663 c0bc 61d0 fa3d 5b19 273e
000002d0: fca1 87bd e91a 8c3e 9b18 b7bc 5fd5 1a3e
000002e0: 6e59 033e 1fb9 f23d c09a 863e acef 8f3c
000002f0: d69e 0fba 6bef 663d 5906 bc3e 84c5 ac3e
00000300: 5736 8c3d a920 403d 094c 5c3d a32d 3abd
00000310: 6bff b2bd 4b99 4d3d b7c5 d1bd 292d 183d

rnn.weight_ih_l1 f4 [200, 50]
-0.012895598 0.157933 -0.112217985 -0.09352562 -0.080519244 0.20933075 -0.13540302 0.3660521
0.20017326 -0.051363003 0.26624334 0.817953 0.65280664 -0.052745566 0.6370578 -0.12173122
-0.3416625 0.22845455 -0.192697 0.068600915 0.14083913 0.056830283 0.11781594 -0.5508042
0.4046934 -0.10671558 0.056496937 -0.011732222 0.30125648 -0.19543403 0.20652999 0.30923256
-0.067065515 0.26827803 0.08056321 -0.061527852 0.37919095 -0.020129697 -0.10306381 -0.15742029
-0.30922166 -0.18683143 0.19381979 0.22591509 -0.023778584 0.18839383 0.039657727 0.11681873
0.07750922 -0.02223255 0.030613976 0.02232588 0.08380215 0.06873732 -0.1422754 0.092190064
0.081578635 -0.0069202357 0.0717945 0.0019726504 -0.049193885 -0.20871872 0.013602276 -0.093360506
0.16416906 0.0771983 -0.121363536 0.13666917 -0.11782777 0.118237294 -0.020678898 0.04155713
0.060669314 0.05397383 -0.06933447 -0.08044046 0.18459538 -0.018935584 -0.02854493 -0.14642413
0.04382559 0.06502825 -0.1562576 0.044383988 -0.029396681 0.07168877 0.14811909 -0.065506354
-0.10645578 -0.16098018 -0.014159919 -0.286277 -0.15279923 -0.106204525 -0.05040805 -0.0863733
0.06867168 0.11125411 -0.027894204 0.08456064 0.039763723 -0.037021566 -0.07647633 -0.06564531
-0.17458548 0.37532076 -0.09036071 -0.03491851 0.06649395 -0.16371067 0.21462154 0.1296577
0.27105507 -0.0007469032 -0.010993845 -0.08659187 -0.15687273 0.112524904 -0.018096443 -0.034522403
0.09916858 -0.16057026 0.079056926 -0.052144464 0.23044038 0.09445985 0.23532787 -0.12231966
0.07199043 0.1259931 0.077462204 -0.06492674 0.20320691 -0.060450476 -0.12749441 -0.10536353
0.1995868 -0.19514558 0.31204146 -0.027709916 -0.22281238 -0.26261425 -0.014316735 0.2043537
-0.044521905 0.09814748 -0.06682432 0.056402195 -0.17094433 0.06330085 0.3250698 -0.20884344
0.035796538 -0.12324169 -0.1411539 0.02995471 -0.09542175 -0.034842115 -0.033526618 -0.19527932
0.098769516 0.048007596 0.18185398 0.16986063 0.21467397 0.027782263 -0.24920598 0.3021713
-0.2176005 0.10315698 0.008878212 0.041281123 0.16039523 -0.09517121 0.11096824 -0.055260006
-0.062475473 0.08423503 0.017152239 0.07798256 0.15314971 -0.06194355 0.41945538 -0.11216104
0.04736481 -0.019230705 0.2847863 -0.2108501 0.28260246 0.07960454 -0.23112175 -0.18580717
0.056207176 0.031317275 0.089690976 0.056032687 -0.033177856 0.049279556 -0.06952215 0.07150653
0.28648645 0.007244534 -0.08940343 -0.27853847 -0.3510226 -0.09675464 0.049592964 0.5873178
0.07554279 -0.3032646 0.2703713 1.2664956 0.3474039 0.22241099 0.46417743 0.06457388
-0.1637047 0.17474014 -0.19880375 0.21233892 0.21575584 0.0464818 0.5835095 -0.6471828
0.088020645 -0.47676194 -0.33258653 -0.22037001 0.14111477 0.18763661 0.19915585 0.18336904
0.54958194 0.10733875 -0.3941393 -0.0072632004 0.33899856 -0.31784597 0.47140396 -0.27512965
-0.01630972 -0.20226882 -0.061816663 0.20371972 0.30950114 0.20131305 0.29645 0.3515593
0.22845335 0.4787626 0.2601369 -0.010977786 -0.0003385926 -0.27506584 0.03438408 0.18326728
00000000: 0f48 53bc 30b9 213e 8bd2 e5bd 5c8a bfbd
00000010: 46e7 a4bd cd5a 563e 17a7 0abe 2e6b bb3e
00000020: 38fa 4c3e 0362 52bd 0c51 883e 5e65 513f
00000030: 561e 273f bc0b 58bd 3816 233f 384e f9bd
00000040: 63ee aebe fdef 693e 5d52 45be a37e 8c3d
00000050: 2238 103e dfc6 683d 7c49 f13d 8101 0dbf
00000060: f933 cf3e b38d dabd 5569 673d 8138 40bc
00000070: 4a3e 9a3e dc1f 48be 997c 533e bb53 9e3e
00000080: a559 89bd bd5b 893e 53fe a43d a104 7cbd
00000090: 5125 c23e 09e7 a4bc 1e13 d3bd c932 21be
000000a0: 4d52 9ebe bd50 3fbe b278 463e 4956 673e
000000b0: 4ecb c2bc 50ea 403e 2470 223d a93e ef3d
000000c0: 27bd 9e3d 0921 b6bc 29ca fa3c c4e4 b63c
000000d0: 76a0 ab3d 27c6 8c3d a4b0 11be 25ce bc3d
000000e0: b312 a73d 25c3 e2bb ff08 933d 9547 013b
000000f0: 877f 49bd 5cba 55be 15dc 5e3c cb33 bfbd
00000100: ef1b 283e 241a 9e3d 728d f8bd 01f3 0b3e
00000110: b04f f1bd 6526 f23d cb66 a9bc cf37 2a3d
00000120: 6380 783d aa13 5d3d 3bff 8dbd f8bd a4bd
00000130: 9206 3d3e cc1e 9bbc 0fd7 e9bc 35f0 15be
00000140: 7682 333d 882d 853d fe01 20be fccb 353d
00000150: 4fd1 f0bc 90d1 923d 88ac 173e 3228 86bd
00000160: 7d05 dabd fdd7 24be 01ff 67bc e692 92be
00000170: 6777 1cbe c281 d9bd ac78 4ebd 7ce4 b0bd
00000180: bda3 8c3d 32d9 e33d 6382 e4bc 212e ad3d
00000190: 49df 223d eda3 17bd 9f9f 9cbd 0c71 86bd
000001a0: 89c6 32be 0b2a c03e 090f b9bd b606 0fbd
000001b0: fb2d 883d c5a3 27be c0c5 5b3e fdc4 043e
000001c0: bbc7 8a3e d3cb 43ba 871f 34bc 1457 b1bd
000001d0: 3fa3 20be 7573 e63d fe3e 94bc 5d67 0dbd
000001e0: e518 cb3d 886c 24be 99e8 a13d 6f95 55bd
000001f0: 90f8 6b3e 2a74 c13d caf9 703e bb82 fabd
00000200: b86f 933d 5604 013e 81a4 9e3d 50f8 84bd
00000210: 7915 503e eb9a 77bd e58d 02be d6c8 d7bd
00000220: 7b60 4c3e 3ed4 47be e6c3 9f3e e8ff e2bc
00000230: ee28 64be 6075 86be bd90 6abc 1942 513e
00000240: 9a5c 36bd 8c01 c93d 30db 88bd fd05 673d
00000250: 080c 2fbe e0a3 813d 8c6f a63e 0edb 55be
00000260: 649f 123d 2466 fcbd a68a 10be 9463 f53c
00000270: 7a6c c3bd 9bb6 0ebd 3553 09bd 4df7 47be
00000280: ac47 ca3d 9da3 443d ee37 3a3e f2ef 2d3e
00000290: 7ed3 5b3e a197 e33c da2f 7fbe 32b6 9a3e
000002a0: aad2 5ebe f743 d33d ec75 113c 6516 293d
000002b0: a63e 243e 20e9 c2bd 5143 e33d 5158 62bd
000002c0: 48e6 7fbd 6a83 ac3d da82 8c3c 52b5 9f3d
000002d0: 47d3 1c3e 85b8 7dbd dbc2 d63e b0b4 e5bd
000002e0: 9a01 423d b689 9dbc 83cf 913e 17e9 57be
000002f0: 45b1 903e b407 a33d 2eab 6cbe 3c44 3ebe
00000300: 7f39 663d 8b46 003d e7af b73d 8882 653d
00000310: 81e5 07bd 5cd9 493d a161 8ebd 0472 923d
00000320: 5aae 923e 8e63 ed3b 2519 b7bd 989c 8ebe
00000330: 3cb9 b3be 4c27 c6bd fe21 4b3d 765a 163f
00000340: 2eb6 9a3d 7f45 9bbe 1b6e 8a3e 871c a23f
00000350: edde b13e b5bf 633e aaa8 ed3e 4f3f 843d
00000360: 34a2 27be 14ef 323e 3693 4bbe 606f 593e
00000370: 19ef 5c3e b363 3e3d e160 153f c6ad 25bf
00000380: 2b44 b43d 241a f4be c848 aabe ada8 61be
00000390: 6480 103e d023 403e 83ef 4b3e 18c5 3b3e
000003a0: 67b1 0c3f 6bd4 db3d a0cc c9be 2400 eebb
000003b0: 3891 ad3e b5bc a2be dc5b f13e cbdd 8cbe
000003c0: f69b 85bc 8f1f 4fbe 7833 7dbd e79b 503e
000003d0: ef76 9e3e 0225 4e3e 4bc8 973e 95ff b33e
000003e0: adef 693e 5f20 f53e aa30 853e 2cdc 33bc
000003f0: 2185 b1b9 6ed5 8cbe 52d6 0c3d 6baa 3b3e

rnn.weight_hh_l1 f4 [200, 50]
0.03665036 0.09870969 -0.090486676 0.043446273 0.095794156 0.03563319 -0.07015598 0.11815049
0.02822633 0.07863967 0.12927349 0.09323554 0.012578666 -0.05292695 -0.01849822 0.032853335
0.09870309 -0.04222831 0.026601791 -0.009862155 -0.0137993395 -0.09331864 0.05255723 0.07190652
0.037666664 -0.013710707 -0.094668806 0.03715904 -0.1041155 0.12106393 -0.13409893 0.07690118
-0.092166245 0.13096543 -0.009491801 -0.016721629 0.05131477 -0.045740187 -0.06480439 -0.11460681
-0.04028792 -0.11501044 -0.1368006 -0.0943673 -0.10164885 -0.12632504 0.067554116 0.0007957518
-0.006377682 0.08587359 0.10951029 0.1331421 -0.12231026 -0.07468284 0.10652979 -0.050945193
0.065321475 -0.10343425 0.07056995 -0.07885811 -0.0870564 0.040533826 0.031582534 0.06204492
-0.07634806 0.13596652 0.072912544 0.05856055 -0.11308759 0.032259777 0.0110946745 -0.069746904
-0.022205152 -0.11387777 0.10298377 -0.0122128725 -0.0019008517 0.12553145 0.069507614 -0.02243226
-0.046084613 -0.0660468 -0.10591603 0.076215 0.047916412 0.043440297 0.11873631 0.11173169
0.022914752 0.08642349 0.03604047 0.032235965 0.040050536 0.06687631 -0.13265377 -0.0030724555
0.04927221 0.034655243 -0.041034818 -0.04677636 -0.12379071 0.020453349 -0.103490174 0.0728904
-0.12313271 -0.0051037073 -0.10946678 0.019647956 -0.084715016 0.13113023 0.019777521 -0.015742302
-0.0500198 0.08015631 -0.07239251 -0.12383047 -0.05978377 0.056561157 -0.00783135 -0.030188493
-0.009667933 0.025925308 -0.003517598 0.11256449 -0.033927627 -0.09085831 0.027763397 -0.083032906
0.06174372 -0.06353333 -0.061037168 -0.0730385 0.113875315 0.13590108 -0.082149304 -0.1306063
0.03708382 -0.024949364 0.12280281 -0.013142347 -0.048297793 0.039414212 0.0046937615 -0.060311824
0.063629285 -0.063881576 -0.11073206 0.017322257 0.11858879 -0.089791805 0.039701506 -0.022400543
0.0068897903 0.0038452744 -0.11141429 0.09509383 0.06645568 -0.039705433 -0.11459919 0.13214035
-0.00608927 0.0535938 0.08064827 -0.073980466 -0.09730351 0.032149434 0.12861024 0.00890924
0.09932108 -0.13213307 0.030916333 -0.040674917 -0.0423195 0.11255543 0.041540474 -0.019911893
-0.119079284 -0.13662532 -0.00034604967 -0.11762412 0.035279736 -0.09846312 -0.06861881 -0.0027204156
0.06664011 0.055672586 -0.058617078 -0.0023617446 0.104396254 0.010397017 0.019280717 0.10730299
0.06244433 0.012047663 0.013718277 -0.0025111735 -0.09468828 0.00033187866 -0.11506255 -0.012794718
-0.030611187 0.06512819 0.08849217 -0.05211158 0.12604 0.13952203 0.04610704 0.017470464
0.055200383 -0.12355066 -0.044089027 0.13563164 0.087430224 -0.003418699 -0.119447075 0.039783433
0.09683105 0.018279478 0.09783858 0.118802115 -0.06754645 -0.11381764 -0.12460322 0.033804238
-0.128333 0.030308083 -0.1403279 -0.13244385 0.032073215 0.08582628 -0.13867114 -0.09348502
-0.09309676 0.0373974 0.11311902 -0.1348726 0.087131634 0.0693683 0.117875025 -0.11585133
-0.11937433 -0.029078662 0.054337427 0.10731767 0.07618731 -0.079902574 0.03630951 0.13049959
-0.013680533 0.0965336 0.038359165 0.10718635 0.017201036 -0.052110247 0.033429384 0.0627175
00000000: b01e 163d 4e28 ca3d 1451 b9bd b8f4 313d
00000010: ba2f c43d 1cf4 113d f0ad 8fbd e2f8 f13d
00000020: e83a e73c d60d a13d 4560 043e 46f2 be3d
00000030: c016 4e3c eec9 58bd 9489 97bc 3891 063d
00000040: d824 ca3d 98f7 2cbd 00ec d93c e094 21bc
00000050: a016 62bc d81d bfbd 4046 573d ba43 933d
00000060: 5c48 1a3d e0a2 60bc b8e1 c1bd 1434 183d
00000070: 823a d5bd 5ef0 f73d 3b51 09be 5e7e 9d3d
00000080: a8c1 bcbd cd1b 063e 8083 1bbc ccfb 88bc
00000090: 702f 523d 105a 3bbd 2ab8 84bd fab6 eabd
000000a0: f204 25bd 988a ebbd 7515 0cbe a543 c1bd
000000b0: 462d d0bd 5a5b 01be d059 8a3d 009a 503a
000000c0: e0fb d0bb 7ede af3d ee46 e03d 6756 083e
000000d0: cd7d fabd 51f3 98bd 4a2c da3d e8ab 50bd
000000e0: 44c7 853d 56d5 d3bd fa86 903d 5c80 a1bd
000000f0: a04a b2bd cc06 263d b05c 013d d022 7e3d
00000100: 5f5c 9cbd cf3a 0b3e 2c53 953d 30dd 6f3d
00000110: 779a e7bd d422 043d 70c6 353c 77d7 8ebd
00000120: 94e7 b5bc c038 e9bd 28e9 d23d 8018 48bc
00000130: 0026 f9ba 518b 003e 025a 8e3d dcc3 b7bc
00000140: 38c3 3cbd 8b43 87bd 81ea d8bd 9c16 9c3d
00000150: 0044 443d 74ee 313d 062c f33d 96d3 e43d
00000160: b8b7 bb3c ccfe b03d 2c9f 133d dc09 043d
00000170: 080c 243d 72f6 883d 64d6 07be 405b 49bb
00000180: a8d1 493d a8f2 0d3d 2014 28bd 9298 3fbd
00000190: fc85 fdbd c88d a73c a8f2 d3bd 9047 953d
000001a0: 012d fcbd 003d a7bb 1f30 e0bd c0f4 a03c
000001b0: 117f adbd 0147 063e 7804 a23c 00f6 80bc
000001c0: 90e1 4cbd fe28 a43d 8642 94bd d49a fdbd
000001d0: d4df 74bd acac 673d 104f 00bc dc4d f7bc
000001e0: 4066 1ebc 5061 d43c 8087 66bb 3688 e63d
000001f0: b2f7 0abd ec13 babd 1070 e33c 280d aabd
00000200: fce6 7c3d c31d 82bd 1c02 7abd 3695 95bd
00000210: 7637 e93d a729 0b3e e53d a8bd a8bd 05be
00000220: 34e5 173d 9c62 ccbc 0a80 fb3d 0053 57bc
00000230: e8d3 45bd cc70 213d 20ce 993b 8809 77bd
00000240: 1250 823d 58d4 82bd 7ec7 e2bd 68e7 8d3c
00000250: aede f23d c4e4 b7bd 0c9e 223d 5881 b7bc
00000260: c0c3 e13b 0001 7c3b 2d2d e4bd 8ec0 c23d
00000270: ea19 883d 2aa2 22bd fbb2 eabd cd4f 073e
00000280: 8088 c7bb 2c85 5b3d ec2a a53d 1283 97bd
00000290: 1047 c7bd 20af 033d 67b2 033e 10f8 113c
000002a0: da68 cb3d e44d 07be 4044 fd3c be9a 26bd
000002b0: 3657 2dbd 7683 e63d 5826 2a3d 441e a3bc
000002c0: d7df f3bd 82e7 0bbe 006e b5b9 eae4 f0bd
000002d0: 7c81 103d 08a7 c9bd 0588 8cbd 0049 32bb
000002e0: 9c7a 883d f008 643d 7618 70bd 80c7 1abb
000002f0: b4cd d53d 4058 2a3c 98f2 9d3c acc1 db3d
00000300: a0c5 7f3d 9063 453c a0c2 603c 8092 24bb
00000310: eeeb c1bd 0000 ae39 eaa5 ebbd f0a0 51bc
00000320: 50c4 fabc ee61 853d 623b b53d f472 55bd
00000330: a110 013e ddde 0e3e bcda 3c3d 381e 8f3c
00000340: cc19 623d 2108 fdbd b296 34bd 05e3 0a3e
00000350: 9e0e b33d 400c 60bb aba0 f4bd f4f3 223d
00000360: 5c4f c63d d8be 953c 985f c83d 864e f33d
00000370: cb55 8abd 3919 e9bd f92f ffbd 5076 0a3d
00000380: ba69 03be a848 f83c 1eb2 0fbe 5c9f 07be
00000390: 345f 033d b0c5 af3d cfff 0dbe 1375 bfbd
000003a0: 84a9 bebd 042e 193d f2aa e73d 0b1c 0abe
000003b0: 1272 b23d f810 8e3d 7668 f13d 7643 edbd
000003c0: 877a f4bd 6036 eebc ec90 5e3d 5ec9 db3d
000003d0: 1808 9c3d f6a3 a3bd 48b9 143d afa1 053e
000003e0: 5024 60bc 68b3 c53d 801e 1d3d 8484 db3d
000003f0: 30e9 8c3c 8e71 55bd 40ed 083d 0872 803d

rnn.bias_ih_l1 f4 [200]
0.048017807 -0.027201194 0.0807188 -0.102749065 0.115145236 -0.030869924 0.06474295 0.05341257
-0.05932203 0.05893814 -0.06343661 -0.11767813 0.09901858 0.13855003 0.14438154 0.13260294
-0.044230454 -0.013821195 -0.060932048 0.058247477 0.16675368 0.15524887 0.024289876 -0.121354654
0.06970101 -0.10476246 0.083358206 0.25528666 0.14293581 -0.00895732 0.081524745 0.05218156
-0.008110889 -0.06437222 -0.034992103 0.14328867 0.11168997 0.022567933 -0.1399255 0.102422796
-0.084196426 0.10338526 0.13727075 -0.03473102 0.08002663 -0.047337323 0.07466809 0.114596725
-0.109365486 -0.05169207 0.014462665 0.118384525 -0.05741696 -0.083251156 -0.012282535 0.039821014
0.07363072 -0.04357723 -0.051405065 -0.039756447 0.08119726 0.136694 0.024564028 -0.0938373
-0.074832626 0.010052219 -0.095179975 -0.10537945 -0.01980175 0.029388681 0.06532127 -0.047500677
0.11183511 0.041469246 -0.11563506 0.056966826 -0.06714615 -0.006518662 -0.10405012 -0.01609698
-0.11059929 0.04082994 0.020993158 0.015054107 0.0794899 -0.027031459 -0.01419127 0.028752014
0.012647092 -0.022402517 -0.0573705 0.05493495 -0.06679182 0.12173341 -0.08910482 -0.0797805
0.029237434 0.13407712 -0.10909659 -0.05871562 0.116274625 -0.0711978 0.03935101 0.08333311
0.20836838 0.08510607 -0.0671925 0.09208186 0.010849441 -0.15814601 -0.13312048 -0.015410579
0.13019878 0.02080861 0.06637819 0.17193913 -0.025552522 0.023603756 0.15962447 -0.0007073977
0.054276887 0.0073247077 0.047453165 0.07708358 -0.16309248 0.07866097 -0.08852553 -0.02097343
-0.08667521 0.036926612 -0.15823875 0.17751127 0.011977913 -0.16534154 -0.054111987 -0.017653897
0.059865706 -0.05029463 -0.02650696 0.15986075 -0.102448836 -0.052523237 0.11650961 -0.027894204
-0.046157863 0.049975574 0.0567024 -0.11585208 0.1250468 0.119926386 0.13181901 -0.08487522
-0.08688113 -0.0478191 -0.034949735 -0.039752726 0.15341187 0.012403237 -0.117875054 -0.019870615
0.02814749 0.04237532 0.08656359 0.33602247 -0.08476498 0.14140292 0.022186851 -0.07458799
0.059876 0.05505622 0.02025604 -0.0051089237 0.006755343 -0.10334993 0.12380771 0.13051409
0.022306187 0.28153494 -0.10411633 0.09490004 0.11029133 0.016669204 -0.099847466 0.030618904
-0.09275912 -0.08869827 -0.08815135 -0.03222318 0.011679875 0.07980904 0.04726148 0.105312355
0.186181 -0.056853212 0.03240615 0.087644346 0.084532075 0.07830598 -0.0032002572 -0.08917939
00000000: 52ae 443d 0ad5 debc e64f a53d 1a6e d2bd
00000010: 44d1 eb3d ece2 fcbc f497 843d 24c7 5a3d
00000020: a8fb 72bd 1e69 713d 0eeb 81bd 3b01 f1bd
00000030: 41ca ca3d 0fe0 0d3e c1d8 133e 11c9 073e
00000040: fe2a 35bd 4b72 62bc e293 79bd e894 6e3d
00000050: 7ac1 2a3e 8ff9 1e3e 90fb c63c ca88 f8bd
00000060: 67bf 8e3d b38d d6bd b5b7 aa3d efb4 823e
00000070: c45d 123e b9c1 12bc 72f6 a63d 55bc 553d
00000080: 89e3 04bc 95d5 83bd e153 0fbd 44ba 123e
00000090: b6bd e43d 63e0 b83c a148 0fbe 0bc3 d13d
000000a0: 2d6f acbd a7bb d33d b490 0c3e 1d42 0ebd
000000b0: 00e5 a33d c8e4 41bd 95eb 983d b0b1 ea3d
000000c0: 03fb dfbd 10bb 53bd d0f4 6c3c 9673 f23d
000000d0: 0c2e 6bbd 957f aabd b03c 49bc 5c1b 233d
000000e0: b4cb 963d 0a7e 32bd 1e8e 52bd a8d7 22bd
000000f0: c04a a63d 83f9 0b3e 803a c93c c52d c0bd
00000100: d941 99bd 10b2 243c b8ed c2bd 2ed1 d7bd
00000110: 4837 a2bc 88c0 f03c 28c7 853d 1290 42bd
00000120: ce09 e53d a8db 293d 13d2 ecbd 0c56 693d
00000130: ec83 89bd 809a d5bb 3b18 d5bd d0dd 83bc
00000140: e181 e2bd 4c3d 273d d8f9 ab3c 80a5 763c
00000150: 9acb a23d 1471 ddbc 8082 68bc 5889 eb3c
00000160: c035 4f3c 7c85 b7bc 54fd 6abd 7803 613d
00000170: 26ca 88bd 5e4f f93d 967c b6bd f563 a3bd
00000180: 5883 ef3c 834b 093e 086e dfbd ca7f 70bd
00000190: 6421 ee3d 27d0 91bd 862e 213d 8daa aa3d
000001a0: 855e 553e 174c ae3d 399c 89bd 6a95 bc3d
000001b0: dbc1 313c 07f1 21be bc50 08be a77c 7cbc
000001c0: d452 053e d176 aa3c 4af1 873d d010 303e
000001d0: 8653 d1bc aa5c c13c 9974 233e a870 39ba
000001e0: 7151 5e3d 1a04 f03b 405e 423d ffdd 9d3d
000001f0: b701 27be 0119 a13d e04c b5bd 78d0 abbc
00000200: c682 b1bd 5c40 173d 5709 22be 84c5 353e
00000210: 023f 443c 4b4f 29be 88a4 5dbd e89e 90bc
00000220: be35 753d be01 4ebd 2025 d9bc 89b2 233e
00000230: b2d0 d1bd 9b22 57bd 979c ee3d 6382 e4bc
00000240: 0710 3dbd 30b3 4c3d c740 683d db43 edbd
00000250: 450c 003e f79b f53d 90fb 063e 0fd3 adbd
00000260: bcee b1bd f6dd 43bd 7427 0fbd c1d3 22bd
00000270: 0018 1d3e f236 4b3c 7a68 f1bd b3c7 a2bc
00000280: 9195 e63c be91 2d3d 4048 b13d 230b ac3e
00000290: 4399 adbd edcb 103e 33c1 b53c 97c1 98bd
000002a0: 8940 753d a282 613d ffef a53c c268 a7bb
000002b0: ed5b dd3b 21a9 d3bd e68e fd3d 7ca5 053e
000002c0: 77bb b63c 5925 903e f13a d5bd f45a c23d
000002d0: 6ce0 e13d db8d 883c d47c ccbd 7fd4 fa3c
000002e0: 7ef8 bdbd 70a7 b5bd b288 b4bd 74fc 03bd
000002f0: f25c 3f3c ec72 a33d 4195 413d 01ae d73d
00000300: 3ba6 3e3e eade 68bd 50bc 043d e17e b33d
00000310: 271f ad3d e35e a03d 68bb 51bb afa3 b6bd

rnn.bias_hh_l1 f4 [200]
-0.06734106 0.017919267 0.09843798 -0.121468656 0.06856613 -0.028864462 0.15335637 0.07544213
-0.10363904 -0.0982514 0.04802791 -0.034466513 0.10208775 0.14750008 0.08333963 0.039997555
0.09698212 -0.024227938 0.13068134 0.051176246 -0.008839603 -0.033870753 -0.039602965 0.073371865
-0.08841728 -0.1095339 0.08440895 0.088254735 0.13032837 -0.14934735 0.10003022 0.121091336
-0.11217026 0.0074576978 -0.002581494 0.1428792 -0.10127446 0.16106234 0.0071715103 -0.09455878
0.042322695 -0.08078735 0.20655018 -0.051585224 0.16694671 -0.050945193 0.034131162 0.110746205
-0.08722411 -0.063323095 -0.13334851 -0.10083991 -0.1305508 0.13286312 -0.0992673 0.082238615
-0.035394877 -0.014015064 -0.030828536 -0.11670384 -0.019492365 0.015479714 -0.13315372 -0.030804306
-0.07264866 -0.0023746341 -0.07393192 -0.11613101 0.06492898 0.1378323 0.029289752 0.040505603
0.084671214 0.1389045 0.042528346 -0.09026807 -0.13988449 -0.0850237 -0.04610636 -0.1293698
-0.12491379 -0.116490304 0.11029698 0.124036625 0.07137573 -0.00997071 0.12516479 -0.07407392
-0.13550521 0.058368847 -0.10917139 -0.015618399 0.11297096 0.07630816 -0.074205935 0.12143539
-0.1055797 0.023013592 -0.104487196 0.020545647 0.05392645 -0.061424915 0.065043546 -0.023339462
0.21376473 0.0011346126 0.0105680525 -0.0089760665 0.06305283 0.003777844 -0.15507904 0.017503936
-0.0479373 0.022251857 0.037820954 -0.039583195 -0.10110084 0.15772325 0.075771734 0.08527694
-0.049083896 0.029321177 0.17202108 -0.04483756 0.101331644 0.104101375 -0.05902896 0.09579108
-0.08931037 0.08101333 0.07387885 0.028274165 -0.03648174 -0.05164299 0.06835824 0.09250187
-0.1591086 0.007913817 -0.03247489 0.08858422 -0.011272251 -0.082729325 0.08352054 -0.13175362
-0.023344502 -0.14580181 -0.16618928 0.031653695 0.11120023 0.09862354 -0.052864764 0.13901918
-0.06539512 0.090650074 -0.08951224 0.19444278 0.09939343 -0.055595778 -0.12381886 0.046867814
0.15798505 0.11868041 0.1722885 0.23731169 -0.09722111 0.054379314 0.10912367 0.15213597
0.038175892 -0.07518635 0.12249141 0.06334176 0.15941012 0.13271718 -0.005108659 0.03074206
-0.10356053 0.06388847 -0.0972896 0.011265808 -0.08333581 0.18581098 0.02900682 -0.04623796
-0.117558576 -0.01715868 -0.06515903 0.08617464 0.03755549 0.1718176 -0.057300396 -0.1445178
0.05921652 0.11899889 -0.07676064 0.009576652 -0.117046796 0.1361206 -0.04627855 -0.00074141147
00000000: 1cea 89bd 6dcb 923c da99 c93d 8fc4 f8bd
00000010: 666c 8c3d 2a75 ecbc 7409 1d3e 6781 9a3d
00000020: b440 d4bd 0838 c9bd eab8 443d c22c 0dbd
00000030: 6213 d13d 430a 173e f8ad aa3d 7ad4 233d
00000040: 909e c63d ab79 c6bc 54d1 053e 2f9e 513d
00000050: fbd3 10bc 0fbc 0abd b836 22bd fd43 963d
00000060: 1e14 b5bd 4f53 e0bd 99de ac3d e6be b43d
00000070: cd74 053e 83ee 18be a5dc cc3d bcfe f73d
00000080: 85b9 e5bd b45f f43b 482e 29bb ed4e 123e
00000090: fc68 cfbd 87ed 243e fdfe ea3b 09a8 c1bd
000000a0: 905a 2d3d d773 a5bd e481 533e 074b 53bd
000000b0: 14f4 2a3e e8ab 50bd 1ecd 0b3d e8ce e23d
000000c0: 8ea2 b2bd 8aaf 81bd 838c 08be 2885 cebd
000000d0: 1caf 05be 450d 083e a74c cbbd b86c a83d
000000e0: 38fa 10bd 709f 65bc 208c fcbc 6c02 efbd
000000f0: 74ae 9fbc a09e 7d3c 7359 08be 5059 fcbc
00000100: d2c8 94bd c09f 1bbb 9e69 97bd 18d6 edbd
00000110: 7cf9 843d e923 0d3e 10f1 ef3c 34e9 253d
00000120: 1a68 ad3d fb3c 0e3e 3432 2e3d 77de b8bd
00000130: e13d 0fbe e820 aebd 06da 3cbd 8479 04be
00000140: cdd2 ffbd 7892 eebd 62e3 e13d ea06 fe3d
00000150: 702d 923d 305c 23bc 332b 003e 11b4 97bd
00000160: e1c1 0abe 2c14 6f3d 4095 dfbd 50e4 7fbc
00000170: 525d e73d 7447 9c3d 48f9 97bd 1eb3 f83d
00000180: 2b3a d8bd 0087 bc3c 62fd d5bd 584f a83c
00000190: fbe1 5c3d b198 7bbd 8d35 853d 6632 bfbc
000001a0: 24e5 5a3e 48b7 943a a025 2d3c 5a10 13bc
000001b0: d821 813d b495 773b 0acd 1ebe 6a64 8f3c
000001c0: e759 44bd 8749 b63c 25ea 1a3d fd21 22bd
000001d0: f50d cfbd 3482 213e 362e 9b3d ada5 ae3d
000001e0: 320c 49bd f732 f03c 4b26 303e 97a7 37bd
000001f0: f786 cf3d 1a33 d53d 5ac8 71bd 1d2e c43d
00000200: 5be8 b6bd 51ea a53d cb4d 973d 399f e73c
00000210: e16d 15bd 9a87 53bd 68ff 8b3d 9f71 bd3d
00000220: 5ded 22be f4a8 013c 6404 05bd a56b b53d
00000230: 3faf 38bc fe6d a9bd d10c ab3d 6cea 06be
00000240: f83c bfbc 124d 15be 862d 2abe 4ea7 013d
00000250: f2bc e33d 23fb c93d b988 58bd 0b5b 0e3e
00000260: e0ed 85bd bfa6 b93d 3152 b7bd 021c 473e
00000270: c88e cb3d 66b8 63bd be94 fdbd 77f8 3f3d
00000280: d5c6 213e b70e f33d 666c 303e d601 733e
00000290: dc1b c7bd d8bc 5e3d 3b7c df3d 88c9 1b3e
000002a0: 535e 1c3d 4dfb 99bd c7dc fa3d 53b9 813d
000002b0: 683c 233e 03e7 073e 8a66 a7bb c6d6 fb3c
000002c0: 8b17 d4bd f5d7 823d c53f c7bd 3994 383c
000002d0: f7ab aabd 3c45 3e3e b69f ed3c 0464 3dbd
000002e0: 8dc2 f0bd 5c90 8cbc 1972 85bd 547c b03d
000002f0: c9d3 193d f4f0 2f3e d2b3 6abd 79fc 13be
00000300: 068d 723d b1b5 f33d af34 9dbd 64e7 1c3c
00000310: 3bb6 efbd 3363 0b3e 948e 3dbd 485b 42ba

fc.weight f4 [3, 50]
-0.085876495 -0.17020877 0.09855219 -0.09479222 0.107796334 0.06152138 -0.08042767 0.0035655764
-0.087174 -0.1107863 -0.08244157 -0.103777274 -0.07443896 -0.20980254 0.09498 0.12967412
-0.022895468 0.108945705 0.11567988 0.20101848 -0.03244028 0.060181532 0.11879079 0.12450179
0.023364656 0.11833466 -0.023853188 0.122285984 -0.10622084 -0.09405112 -0.19711997 0.032057907
-0.106509104 -0.04661405 -0.051921748 -0.1762081 -0.07025906 -0.16846275 0.012221138 0.08745333
-0.11874844 0.057995502 -0.009871702 -0.059488736 -0.1592262 -0.055634376 0.45293 -0.05459509
0.045684993 0.10935038 -0.18073116 0.14173995 -0.03954498 -0.0019171413 -0.050603334 -0.04552616
0.08802643 0.11432689 -0.03124986 -0.043436587 0.045436025 -0.082841694 -0.0047163656 0.25265968
-0.13220185 -0.034893095 0.042027675 -0.12157801 -0.051287167 -0.15389283 -0.1714824 -0.20579754
0.09136777 -0.064629175 0.069064796 0.04928549 0.00041789096 -0.048016824 0.030966142 -0.14553164
-0.044919293 -0.06581794 -0.0071343197 0.06694728 0.00973355 -0.10348506 0.15856798 0.16742621
-0.027059905 -0.13147263 0.0061584264 -0.1191984 -0.1556783 0.16482978 0.020688202 0.093804255
0.13970691 -0.15742981 -0.007990159 0.1098159 0.9475982 0.09250673 0.0799941 0.30689928
0.7057407 -0.05599047 -0.3204114 0.07383857 -0.027593954 -0.034456175 -0.23183867 0.46947196
0.8751511 0.33542502 0.3693709 0.15814142 -0.24200435 -0.06956887 0.078444526 0.12934306
0.19971432 -0.20616366 0.2585879 0.06400192 -0.47134772 -0.011136916 0.24438237 -0.8227098
-0.14120896 0.49535155 -0.13308185 0.40450472 0.6321437 -0.13597308 -0.05347672 -0.078674465
-0.15606458 -0.06928962 -0.11311201 0.28496793 0.116674356 -0.1625154 0.009216932 -0.096080385
0.015308886 0.11626612 0.051718835 -0.77357817 0.04186339 0.26959348
00000000: 04e0 afbd 354b 2ebe bbd5 c93d 6c22 c2bd
00000010: 53c4 dc3d d8fd 7b3d 43b7 a4bd 72ac 693b
00000020: 4888 b2bd ede3 e2bd 20d7 a8bd 2e89 d4bd
00000030: 7473 98bd 7ad6 56be e084 c23d 4bc9 043e
00000040: 478f bbbc ed1e df3d 93e9 ec3d cad7 4d3e
00000050: 19e0 04bd e980 763d 9648 f33d cbfa fe3d
00000060: 3c67 bf3c 7159 f23d c367 c3bc 1371 fa3d
00000070: 508a d9bd e09d c0bd d1d9 49be 274f 033d
00000080: 7221 dabd 60ee 3ebd e6ab 54bd e56f 34be
00000090: fbe3 8fbd 8081 2cbe 2b3b 483c bb1a b33d
000000a0: 6232 f3bd b18c 6d3d ebbc 21bc 76aa 73bd
000000b0: 310c 23be dfe0 63bd 71e6 e73e 1a9f 5fbd
000000c0: 3020 3b3d 18f3 df3d 9711 39be 4724 113e
000000d0: ebf9 21bd 9648 fbba 7145 4fbd a479 3abd
000000e0: 3347 b43d 3724 ea3d b5ff ffbc 90ea 31bd
000000f0: 201b 3a3d e8a8 a9bd be8b 9abb 9c5c 813e
00000100: ec5f 07be 10ec 0ebd 3625 2c3d e4fd f8bd
00000110: 7e12 52bd 1596 1dbe 1599 2fbe 97bc 52be
00000120: 071f bb3d 4d5c 84bd d871 8d3d 95df 493d
00000130: 6018 db39 4aad 44bd b5ac fd3c 3f06 15be
00000140: 4bfd 37bd 8ecb 86bd 03c7 e9bb a81b 893d
00000150: 7879 1f3c faef d3bd a55f 223e c771 2b3e
00000160: bcac ddbc c3a0 06be a0cc c93b 4a1e f4bd
00000170: 226a 1fbe 23c9 283e 4e7a a93c 721c c03d
00000180: 540f 0f3e 4835 21be 28e9 02bc 29e7 e03d
00000190: cc95 723f 2b74 bd3d f2d3 a33d e721 9d3e
000001a0: 6cab 343f 4356 65bd f70c a4be ad38 973d
000001b0: b70c e2bc eb21 0dbd 1e67 6dbe a15e f03e
000001c0: e709 603f d4bc ab3e 2f1e bd3e d3ef 213e
000001d0: fdcf 77be 207a 8ebd 86a7 a03d 8272 043e
000001e0: e981 4c3e 911c 53be a265 843e 7013 833d
000001f0: 7d54 f1be 9c77 36bc 5f3f 7a3e 1c9d 52bf
00000200: 1599 10be b89e fd3e 9c46 08be 3e1b cf3e
00000210: 2bd4 213f 873c 0bbe 680a 5bbd 1420 a1bd
00000220: 65cf 1fbe b7e7 8dbd 45a7 e7bd 51e7 913e
00000230: f7f2 ee3d 706a 26be 9d02 173c cbc5 c4bd
00000240: 1fd2 7a3c ee1c ee3d 21d7 533d 3809 46bf
00000250: f278 2b3d 2808 8a3e

fc.bias f4 [3]
-0.11053257 0.06611956 0.14646606
00000000: e65e e2bd b169 873d 33fb 153e
