LSTM_for_PDE/codes/models/LSTM_PINN_NS2D.pth (torch, 226109 bytes, 12 tensors)

lstm.weight_ih_l0 f4 [256, 3]
000000 1e a2 44 3f c1 d3 67 3f 6c e9 bf 3b 72 ca b4 3e
       0.7680987 0.90557486 0.0058566835 0.35310704
000010 fd 0b 2e 3f ca 20 f4 be 3e 82 07 3f f6 09 2b 3f
       0.6798704 -0.47681266 0.5293311 0.66812074
000020 31 08 63 be 2e 9c 32 3e 32 92 30 3e 2f 0c 96 bd
       -0.22171094 0.1744239 0.17243269 -0.073265426
000030 b4 2b 36 bf 67 ac b0 3f 88 f5 80 be bb 15 07 bf
       -0.71160436 1.3802613 -0.25187325 -0.52767533
000040 db 7a 5a 3f 99 37 4c bc cf e5 f1 be 71 77 fb 3d
       0.8534371 -0.012464427 -0.47245643 0.12278641
000050 8d b3 69 bd 46 c6 72 3e 93 64 ba 3d 23 ff 34 be
       -0.057056 0.23708448 0.09101214 -0.17675452
000060 2b ec 9c bd 68 a3 95 3e c1 77 0d be d0 9b 22 bf
       -0.07662233 0.29226232 -0.13815214 -0.63519
000070 d6 ea 34 3e 75 bc 81 be 8b ff 92 3e 76 0f 94 3e
       0.17667708 -0.25339094 0.2871059 0.28918046
000080 15 c8 91 3d c6 51 dd be 96 03 10 3f e4 c9 92 bd
       0.07118241 -0.4322645 0.5625547 -0.07167414
000090 d7 ca 46 3e 0e 00 0c 3f 5f cf 0d be ec c3 c4 3d
       0.19413315 0.54687583 -0.13848637 0.09607682
0000a0 81 32 a8 3e b0 1e a2 bd f0 95 87 be e7 18 ae 3e
       0.3285103 -0.079160094 -0.2648158 0.34003374
0000b0 9e 1a 2d bd e8 99 4d be 30 d2 cd 3e eb c5 b0 3c
       -0.042261712 -0.20078242 0.40199423 0.02157875
0000c0 cf 8c cc bd b3 4f 34 bc 5d 7f 2d bc 57 4f 76 3e
       -0.099877946 -0.01100533 -0.010589448 0.24053703
0000d0 af 5c 8d 3b dd cc b5 bc 8e fa 5f 3d de 32 f0 3d
       0.0043140273 -0.022192413 0.054682307 0.11728452
0000e0 86 a0 64 bd 0a be b2 3e 6b a5 70 3f 60 83 8d bd
       -0.05581715 0.34910613 0.9400241 -0.069098234
0000f0 89 ce 16 be ef fa fd 3e 82 e9 2c be 2e 46 fc bd
       -0.14727224 0.4960551 -0.16885951 -0.12318073
000100 bb 07 2d 3f 02 59 c5 bc 92 22 21 3e 6f 68 3c 3e
       0.6758992 -0.024090294 0.15735844 0.18399213
000110 c3 d1 cc 3d 64 a6 e1 bd 2d 95 0c be 14 32 8e 3c
       0.100009464 -0.110180646 -0.13728781 0.017357863
000120 63 59 aa 3d d9 be 12 3e d1 33 66 bc e2 e4 61 3e
       0.083178304 0.14330615 -0.01405044 0.22059968
000130 eb 7f 99 bd ff 70 0b 3e 7c fb 01 3e dc af a4 bd
       -0.074951015 0.13617323 0.1269359 -0.08041355
000140 c2 a8 e4 bc 99 e1 62 be 96 c5 ce 3e a5 5a c5 bc
       -0.027912501 -0.22156371 0.4038512 -0.024091074
000150 75 ac 64 3f 24 b3 d7 3e b5 03 a2 be 75 e4 da 3e
       0.8932565 0.4212886 -0.31643453 0.42752424
000160 e2 6d ea 3e a6 13 9c 3b 9e 8f 7a 3d a5 e5 97 3e
       0.4578696 0.0047630845 0.06117212 0.29667392
000170 9c d9 cc 3d e8 8c 22 3f f3 b3 8d 3e 7b 53 69 be
       0.10002443 0.63496256 0.27676353 -0.22785752
000180 5a 14 8f bb ae f7 3d bd 3d bb d9 bd e8 a8 0e be
       -0.00436644 -0.046378784 -0.10631416 -0.1393162
000190 f6 c0 a1 3e 3f a5 61 bd ca c6 48 bd 4b 03 a6 3e
       0.3159253 -0.05508923 -0.049017705 0.32424387
0001a0 46 e9 79 3d 34 1d 0a bf 8f 04 ce 3e a1 87 78 bd
       0.061013483 -0.5395081 0.40237853 -0.06067622
0001b0 dc 8b 27 3e 20 b3 ff 3d 77 63 30 3e 15 b1 20 3e
       0.16361946 0.12485337 0.17225443 0.15692551
0001c0 54 1f 5d 3c 9a e0 c1 3d f5 6f 4c 3f 8d 77 f9 3e
       0.013496239 0.094666675 0.7985833 0.48724023
0001d0 3e da 10 be 94 7f a5 3d 1b de 4c bd 78 57 dc bc
       -0.14145753 0.08080974 -0.050016504 -0.026897177
0001e0 7c df 0d 3e e9 a5 0f 3f ba f6 88 bd d9 be f7 be
       0.13854784 0.56112534 -0.06687684 -0.48387793
0001f0 ca a1 02 3f 97 82 30 bf 27 5d 0c bd 06 4d 16 3e
       0.5102812 -0.68949264 -0.034268524 0.1467782
000200 59 f1 40 bd 41 d9 4f be 59 f9 df 3e 81 f8 ea be
       -0.047105167 -0.2029772 0.43744925 -0.45892718
000210 15 cd 12 3e 60 74 b7 3e 96 43 e2 3c 8d f7 0e 3e
       0.14336045 0.35830975 0.027620118 0.1396162
000220 69 26 08 be 27 2e 5d be a5 79 15 3f d5 7b f5 3e
       -0.13295902 -0.21599637 0.5838874 0.4794604
000230 53 d4 a2 bd fd 85 85 bf e0 89 85 3e b8 05 a5 bd
       -0.07950654 -1.0431515 0.26081753 -0.080577314
000240 ff 0c 9f 3c f7 42 14 bd 27 f7 61 bc 0a 4a 24 3e
       0.019415377 -0.036196675 -0.013791836 0.16043869
000250 ed d1 8b 3c 42 96 58 3e 51 62 9d 3e 69 e6 7b 3e
       0.017067874 0.21151069 0.30739072 0.24599613
000260 9e a1 9b 3d 27 c9 c0 bd 6c c5 b2 3d d8 09 3c be
       0.075991854 -0.09413367 0.087290615 -0.1836313
000270 e4 07 66 3e e0 ad db 3b 89 46 14 be b6 c4 89 3f
       0.22463948 0.006704077 -0.14480032 1.0763156
000280 91 f1 ed bd d0 57 c5 bd dd bf fe be ac 96 16 3f
       -0.11618341 -0.096358895 -0.49755755 0.5882366
000290 01 59 d8 be ed ca 44 bf 65 78 26 3f 24 85 87 be
       -0.42255405 -0.7687214 0.6502746 -0.26468766
0002a0 a3 1d 8f 3f 38 76 a4 3f ef 94 86 be c6 71 a2 3d
       1.118092 1.2848577 -0.26285502 0.07931857
0002b0 c5 40 90 bd a6 d3 12 be f7 54 2b 3e 93 05 ea 3d
       -0.07043604 -0.1433855 0.1673163 0.114268444
0002c0 6d af e0 bc 30 d3 55 be 06 f3 85 bd 39 78 9d be
       -0.0274274 -0.20881343 -0.06540494 -0.30755785
0002d0 03 d4 3e bd 93 08 2c be 6f e3 f5 3d c0 94 d2 3d
       -0.04658891 -0.16800146 0.1200627 0.10282278
0002e0 3e 62 ea 3a f6 45 24 bd 9f fd f9 bd ae 98 0e be
       0.0017882062 -0.040105782 -0.122065775 -0.1392543
0002f0 cf cc 81 be ad 68 c3 3e ef 64 a4 3e 87 23 2f be
       -0.2535157 0.381658 0.32108256 -0.17103396
000300 b8 e4 40 3d 10 f1 22 3c 04 28 8e bd 80 d8 1c 3c
       0.047093123 0.009945169 -0.06941226 0.009573102
000310 94 99 ab 3d e2 21 d8 3d 50 d9 a6 3c 80 86 f0 3c
       0.08378902 0.10553338 0.020367295 0.02936101
000320 4c 52 9f 3d f8 9a ae bd a4 ae 9c 3d a8 d9 ac 3c
       0.07779369 -0.08525652 0.076504976 0.02109988
000330 d0 0a 92 3d 68 d9 a9 bc c0 7d ff bd 32 fc cd 3d
       0.071309686 -0.02073355 -0.12475157 0.10057868
000340 74 ae a4 bd 40 ad b1 3d 18 38 c3 3d b8 46 92 3c
       -0.08041087 0.08675623 0.095321834 0.017855987
000350 b2 d9 ee 3d 5a 7a 8a 3d 10 8e fc bc 78 45 da 3c
       0.11662616 0.06761618 -0.03082946 0.026644453
000360 12 29 d0 bd 12 13 f2 3d f4 ae a2 3d f4 ea d6 bd
       -0.101640835 0.118200436 0.07943526 -0.104940325
000370 2c 7b 03 bd 34 3c ce bd d0 b0 e4 3d d8 70 c1 3d
       -0.032099888 -0.100700766 0.11166537 0.09445351
000380 84 82 a2 3d a4 6c 46 3d 48 7f 39 3d ea 0d 9d bd
       0.0793505 0.04844345 0.0452874 -0.076686695
000390 64 2a 4b 3d a8 ed d5 bc 60 47 d6 bc 00 65 ea bd
       0.049600974 -0.0261143 -0.026157081 -0.114450455
0003a0 82 45 b8 bd cc a5 e4 bd c0 8a 94 bd 90 99 7e bd
       -0.089976326 -0.11164436 -0.07253027 -0.062158167
0003b0 64 75 19 bd 6a bb fb bd e0 06 a1 3b 00 c9 c3 bc
       -0.037465468 -0.12291606 0.0049141496 -0.023899555
0003c0 ae 82 ce 3d b0 ad 20 bd 20 5c a1 bc 60 f1 d0 3b
       0.10083519 -0.03922814 -0.019697249 0.0063764304
0003d0 7c 10 89 bd 80 25 db bc 90 13 af bc 98 b5 b2 bd
       -0.06692597 -0.02675128 -0.021371633 -0.087260425
0003e0 4a b7 93 3d e6 2b 88 bd c4 71 99 bd f4 c7 c7 3d
       0.07212694 -0.06648998 -0.07492402 0.09754935
0003f0 40 a1 49 3c 5e d3 d0 3d 20 24 e6 bd de 37 bb bd
       0.012306511 0.10196565 -0.11237359 -0.09141515

lstm.weight_hh_l0 f4 [256, 64]
000000 b8 30 b8 3c 10 1d 5a bc 50 a3 7e bd fe 8b 89 3d
       0.022484168 -0.013312593 -0.062167466 0.067161545
000010 48 bf c8 3d 0c 18 17 bd 18 19 34 3d 40 a6 78 3d
       0.09802109 -0.036888167 0.043969244 0.060705423
000020 cc cb 67 bd 98 d3 df 3d 2e a5 a1 3d c4 d0 a7 3d
       -0.05659084 0.1092903 0.07892834 0.08194116
000030 50 86 32 bd 34 03 90 3d c8 08 c3 bd 54 dc 26 bd
       -0.04358512 0.07031861 -0.09523159 -0.040737465
000040 80 81 dc 3c b8 ff 23 bd a8 82 99 3c 52 b7 ee bd
       0.02691722 -0.040038794 0.01873906 -0.11656059
000050 e8 ce 01 bd 48 86 9b 3c 80 b4 c2 bb c6 b2 cd bd
       -0.03169146 0.018984929 -0.0059419274 -0.10043864
000060 1c f2 18 3d 0a 77 9c 3d 72 32 9b bd a4 ef 1a 3d
       0.03734027 0.076398924 -0.07577981 0.037826195
000070 28 fe 1c bd d8 6c 28 3d 14 90 71 3d e4 a6 0b bd
       -0.03832832 0.041119426 0.058975294 -0.034094706
000080 56 36 b5 bd d8 be 6c bd 72 40 ab bd ee c6 ab bd
       -0.088482544 -0.05779919 -0.08361901 -0.08387552
000090 18 9e db 3c ec 78 eb bd a8 2b a8 bc 70 61 b6 3c
       0.026808783 -0.114976734 -0.02052863 0.022263259
0000a0 b8 16 97 bc b2 c1 d7 bd 94 4a 57 3d e4 3c 13 bd
       -0.01844345 -0.10534991 0.052561358 -0.03594674
0000b0 0e 2f 94 bd 08 60 b7 bc 20 3e 9e bd 4c 1c f5 3d
       -0.072355375 -0.022384658 -0.07726693 0.11968288
0000c0 48 56 ff 3d 5c 57 17 bd b8 44 9b 3d 86 3a fd 3d
       0.12467629 -0.036948547 0.075814664 0.12364678
0000d0 58 6a e4 3d d0 bd 52 bc 0c c7 da bd dc 42 64 3d
       0.11153096 -0.012862638 -0.106824964 0.055727825
0000e0 4e e0 8a 3d 5e e2 84 3d bc 86 bf bd d0 23 52 3c
       0.06781064 0.064884886 -0.093518704 0.012825921
0000f0 28 44 64 3d ca 76 db bd a0 ca 51 bd e2 9b a9 bd
       0.05572906 -0.107160166 -0.05121863 -0.082816854
000100 86 3d e2 3d a2 3d c9 bd ec 26 20 3d 42 1a be bd
       0.11046891 -0.09826209 0.03909962 -0.09282352
000110 b8 b9 de 3c 60 bb 14 bc 28 a0 91 bd 0c aa 61 bd
       0.027188167 -0.009077877 -0.071106255 -0.05509381
000120 76 03 ce 3d 74 45 0d bd 3c d8 02 bd 54 93 cf 3d
       0.10059254 -0.034490064 -0.0319445 0.101355225
000130 62 ef 8a 3d ce 5a 8a bd ac 8a 05 bd 8e 31 b6 3d
       0.0678394 -0.06755601 -0.03260295 0.088961706
000140 a8 1d 84 bd de 1d de 3d 3a 5a d3 bd ee d7 cc bd
       -0.06450969 0.108455405 -0.10319944 -0.10002123
000150 16 ad ee bd f8 94 9f 3c 44 5c 99 3d 7c 7d e5 bd
       -0.11654107 0.019480214 0.074883014 -0.11205575
000160 20 96 52 3c ac e4 32 3d 60 37 bf 3d 7c 51 e8 3d
       0.012853175 0.04367511 0.09336734 0.11343667
000170 c0 6c 86 3b e0 b5 59 3d 3a de e9 3d bc fd 95 bd
       0.0041023195 0.053151965 0.114193395 -0.073237866
000180 d0 33 8b bd 40 2b e2 bd 50 1f d4 bd 68 85 a9 3d
       -0.06796992 -0.110434055 -0.10357535 0.08277398
000190 a0 4d 8e 3c ca db c0 3d 00 49 62 bd 28 1a 52 bd
       0.017370999 0.094169214 -0.0552454 -0.051294476
0001a0 98 be bf bd b8 c1 e0 bd 04 9a ac 3d 4c d8 c8 bd
       -0.09362525 -0.10974449 0.08427814 -0.0980688
0001b0 d6 c7 a0 bd a0 00 a7 bb 22 e4 88 bd fe a9 a6 3d
       -0.07850616 -0.00509651 -0.06684138 0.08137892
0001c0 86 61 db bd 60 05 87 bc d6 5e bf 3d 60 b9 94 bd
       -0.107119605 -0.016482055 0.093442604 -0.0726192
0001d0 7c 5f 2c bd d6 83 8f 3d 0e 89 a7 3d e0 2d f3 3d
       -0.04208325 0.070075676 0.08180438 0.11873984
0001e0 6a 69 99 bd 5c 4d 77 bd de 82 90 bd 6a 97 de 3d
       -0.07490809 -0.06037651 -0.07056211 0.10868724
0001f0 c0 ca ac 3b 38 3a 5f 3d d0 42 c9 bd 5c 7e 49 bd
       0.005273193 0.05449888 -0.098271966 -0.04919277
000200 ba 2b c8 3d b6 57 cd 3d d4 70 6d bd 40 43 53 3d
       0.09773965 0.10026495 -0.05796893 0.051577806
000210 b0 e1 b7 3c ea 3c 91 3d dc b9 13 bd 54 5a 35 3d
       0.022446483 0.070916966 -0.03606592 0.044275597
000220 88 b0 a8 3c 54 30 f7 bd f2 ba a3 3d 9e 6c ef 3d
       0.02059199 -0.12069765 0.07994641 0.11690639
000230 58 64 de bc be 4f c8 bd 48 8c 88 3c 94 35 fd 3d
       -0.027147457 -0.097808346 0.016668454 0.12363735
000240 b6 ef e4 3d 14 d6 db 3d 00 b8 c9 bd 1c 7e 2e bd
       0.11178534 0.107341915 -0.09849548 -0.042600736
000250 d0 51 5a bc d4 ff 7b 3d 2c d3 c0 bd 7c 64 d7 bd
       -0.01332517 0.061523274 -0.09415278 -0.10517213
000260 ba be f0 bd bc e6 b2 3d 7a 26 93 3d 12 ff f7 3d
       -0.11755128 0.08735415 0.07185073 0.12109198
000270 88 99 e3 3d 94 5d aa 3d c4 84 c1 bd 52 b2 bc 3d
       0.11113268 0.0831863 -0.09449151 0.092136994
000280 e0 5e 90 3c 68 6a c0 3d 5c af 11 3d 6c 32 04 3d
       0.017623365 0.093952954 0.035567626 0.03227465
000290 78 01 ea 3d 70 ad 4b 3c 70 b9 ac bd 26 d9 e2 bd
       0.114260614 0.012431487 -0.08433807 -0.11076574
0002a0 20 a2 79 3c 78 bb 83 3c bc ff ff bd 54 b9 e8 bd
       0.0152364075 0.016080603 -0.12499949 -0.113634735
0002b0 30 d8 6d bd 8c 31 68 3d 4e 71 eb bd 60 2d 5c 3c
       -0.0580675 0.056687877 -0.114962205 0.013438553
0002c0 dc df 90 bd 30 dc 9f 3c 4a f1 81 3d f8 64 13 3d
       -0.07073948 0.019514173 0.0634485 0.035984963
0002d0 3c 0b 91 bd 1e 03 b2 3d 26 c3 83 bd f4 e1 e4 bd
       -0.07082221 0.08692001 -0.06433706 -0.1117591
0002e0 20 c4 a2 bc b0 4d e7 3d 30 ef 06 bd e6 75 ad 3d
       -0.01986891 0.112941146 -0.03294295 0.08469753
0002f0 20 93 c4 3c 5c bc 82 bd 00 09 95 bb ac 5c 83 bd
       0.023995936 -0.06383583 -0.004548192 -0.0641416
000300 76 45 ef 3d 70 73 f6 bc 10 b3 74 3d 0c c8 90 bd
       0.116831705 -0.030084342 0.05974108 -0.07069406
000310 96 eb b6 bd da b3 ac 3d f4 18 43 bd f0 11 12 bd
       -0.08931653 0.084327415 -0.04763122 -0.035661638
000320 74 9c a9 3d 48 8e ea bc 3c 7d 59 bd 5c 55 39 bd
       0.08281794 -0.028632298 -0.05309795 -0.04524742
000330 9e 3b 92 bd 0c 8d 50 3d 7c 6d 2a 3d 80 b0 d6 3c
       -0.07140277 0.050915763 0.04160832 0.026207209
000340 d8 32 31 3d f4 2a e8 bd 90 a2 e8 3c 50 33 67 3c
       0.04326138 -0.11336318 0.028397828 0.014111355
000350 6c d5 a9 3d 40 d8 a2 bb 12 a9 fe bd 00 99 7f 3c
       0.0829266 -0.0049696267 -0.12434591 0.015600443
000360 28 a1 eb bd 96 10 f4 3d d8 f0 df bd 88 29 af bc
       -0.115053475 0.11917226 -0.10934609 -0.021382108
000370 4c 82 1b 3d c0 3e 15 bc 00 22 b4 3d 04 37 0c bd
       0.037966058 -0.009109199 0.087955475 -0.034232154
000380 a0 e8 28 bd 80 aa d1 3a f2 f4 bc bd 00 a2 84 3a
       -0.041237473 0.0015996248 -0.09226407 0.001011908
000390 24 07 2e bd 34 40 96 3d a8 32 fe bd 80 c9 a9 3b
       -0.04248728 0.073364645 -0.12412006 0.0051814914
0003a0 28 55 b8 bd 58 91 e6 bc 28 3f 93 3c 78 df 88 3d
       -0.09000617 -0.028145477 0.017974451 0.06683248
0003b0 50 c1 c1 3c 30 7a 13 3c c0 cf 54 bb a8 07 b4 3d
       0.023651749 0.0090013 -0.0032472461 0.08790523
0003c0 80 dd 0c bd ae aa c3 bd 50 88 94 bd f6 a9 c7 3d
       -0.034390926 -0.09554039 -0.07252562 0.09749214
0003d0 58 9f b6 3c 26 97 c1 3d c0 0f 29 bc 9c fa d7 bd
       0.022292778 0.094526574 -0.0103186965 -0.10545847
0003e0 70 b2 0c bd f8 27 34 3d 80 ed e5 bc 80 a5 fe bd
       -0.03434986 0.04398343 -0.02806735 -0.1243391
0003f0 86 73 be 3d 98 55 f9 bc 88 b5 b3 3d d0 84 fb bc
       0.09299378 -0.030436322 0.08774859 -0.030702978

lstm.bias_ih_l0 f4 [256]
000000 9d b6 88 3d 27 1d 5c 3d dc 3e 77 3d c1 8c e6 bc
       0.06675456 0.05373874 0.06036268 -0.028143289
000010 59 e1 1e 3f d4 8e ac 3d 61 fc 12 3d 6d 8c 64 bd
       0.62062603 0.0842568 0.03588522 -0.055797983
000020 34 29 56 3d c8 19 7c 3d e7 e5 4f bd c1 a5 1a 3e
       0.052285388 0.061548024 -0.05075636 0.15102293
000030 44 a9 2c bd f0 0f 1e 3c 6e c9 17 3e 15 a2 15 3d
       -0.04215361 0.0096473545 0.14822933 0.036531527
000040 28 4b 86 bd 33 2b 87 bd 4c c6 c3 3d d7 f7 53 3d
       -0.06557304 -0.066000365 0.095593065 0.05175003
000050 5e cb c6 bb 3d d4 15 3e 0a b3 ce bc 7f c2 de 3d
       -0.0060667237 0.14631744 -0.025231857 0.10876941
000060 0b e7 e1 3d 82 89 1b 3e 17 ea 23 bd 82 49 2b 3e
       0.11030396 0.15189174 -0.040018167 0.1672726
000070 b5 1c 7c 3c ca 1a db 3d b4 8b 3c bd a2 cf 87 3d
       0.015387704 0.10698469 -0.04603167 0.066314
000080 41 5c af 3a 04 55 fb 3d 19 ef b0 3d 91 23 02 bd
       0.0013378934 0.12272075 0.08639354 -0.0317722
000090 f7 5c 89 3d 0c 26 02 3e d4 8f 26 3e 5e 65 53 3d
       0.06707185 0.12709826 0.16265804 0.051610343
0000a0 e3 48 99 3d 13 5a 7b bc 9d 13 b2 bd 2a 8a a7 3d
       0.07484605 -0.0153413 -0.08695147 0.081806496
0000b0 7f 97 c6 3d 46 ed 06 3d 94 7f 89 3c c5 b1 93 3d
       0.09696864 0.032941125 0.016784467 0.07211641
0000c0 86 50 90 3c b3 aa 16 bd d8 73 13 3e 23 e8 1b 3d
       0.017616522 -0.036783885 0.1439966 0.03806318
0000d0 29 00 50 bb 78 a1 97 3e 89 1b 0e 3e a5 6a 0d 3e
       -0.0031738377 0.29615378 0.13877691 0.13810213
0000e0 6a 1d 9c 3e 5b 86 8d 3d 3c 84 3e 3e da 0f 01 be
       0.3049119 0.06910392 0.18605131 -0.12603703
0000f0 24 96 d6 bc d3 21 af 3d 6c 0f 8c bd 2d 3d 35 3e
       -0.02619464 0.08551373 -0.06838879 0.17699118
000100 76 3a fb bd 7e 56 cd 3d 98 1e 8c 3d 46 97 cb 3d
       -0.1226701 0.10026263 0.06841773 0.099409625
000110 90 20 d6 3c 70 77 53 bc 18 3d 10 bd 20 26 81 3b
       0.026138574 -0.012906894 -0.035214514 0.0039413124
000120 da 00 cd 3d be 50 db 3d f4 58 da bd 86 59 d9 3d
       0.10009928 0.1070876 -0.10661498 0.10612778
000130 0a 27 ee bd 0a 93 f7 3d f8 33 65 3d 48 5c d0 3d
       -0.1162854 0.12088592 0.055957764 0.10173851
000140 30 3b e8 3c 22 c7 eb bd 80 42 63 bc 20 69 ad 3b
       0.028348535 -0.11512591 -0.013870835 0.005292073
000150 46 cf ea bd 78 2a 12 3d 8c 3a e0 bd c2 5d c4 3d
       -0.114653155 0.035685033 -0.10948667 0.095881954
000160 60 32 28 bc 20 9f 1f bc dc e1 39 bd 60 a0 23 3c
       -0.010265917 -0.009742528 -0.045381412 0.009986967
000170 18 92 d5 bd a0 3b 54 bc 06 0f c7 3d 40 55 8d 3c
       -0.10428256 -0.012953669 0.09719662 0.017252564
000180 aa 57 fa 3d 90 a8 56 3c 32 da cb bd f8 51 8c bd
       0.12223752 0.013101712 -0.09953727 -0.06851572
000190 64 49 09 3d 34 3c 1c 3d a8 6f 98 3c 1a 3b 89 bd
       0.033517256 0.03814335 0.01860793 -0.06700726
0001a0 2a ac e8 bd 80 b4 63 3c 80 b8 0f 3d 10 9c 95 bc
       -0.11360963 0.013898015 0.035088062 -0.018262893
0001b0 70 c5 28 3d 70 a8 eb 3c 00 39 9a 3b 70 f1 7b bd
       0.041203916 0.02876684 0.004706502 -0.06150955
0001c0 a0 9d 59 3d e0 77 e1 3c c8 43 1a bd 5a a6 a4 bd
       0.05312884 0.027522981 -0.037662297 -0.080395415
0001d0 d0 8d 88 3d 10 dd d2 3d 6a e4 f9 3d 10 95 bf bc
       0.066676736 0.102960706 0.1220177 -0.023386508
0001e0 f2 60 c5 bd d4 a2 8f bd 00 62 7f ba 7e 45 c1 3d
       -0.096376315 -0.07013479 -0.0009742081 0.09437083
0001f0 b0 16 e3 bd 84 a3 a0 3d fc b3 8b bd e0 ff 32 bd
       -0.11088312 0.07843688 -0.06821439 -0.043701053
000200 6b e0 32 3e d4 b2 8a bd 89 f0 c0 bd fd 8a cc 3d
       0.17468421 -0.0677239 -0.094208784 0.099874474
000210 a7 23 b9 3d 79 98 82 bd c2 52 a9 3d 9d ff bb bd
       0.09040003 -0.06376738 0.08267738 -0.09179614
000220 5e 4c f7 3c bd ed e1 3d b1 2f 8f 3c ed e8 3a bd
       0.030187782 0.11031673 0.017478796 -0.04563229
000230 40 c8 75 3d e4 fe 03 bd 11 94 89 3d 4b 3e 94 3c
       0.060005426 -0.032225505 0.067176946 0.01809611
000240 6b 0e 04 3d ec ef 01 bd b9 62 9a 3b 92 4a 96 bd
       0.032240313 -0.031722948 0.0047114757 -0.07338442
000250 29 58 53 bd bf a7 32 3e 35 d2 b8 bd 02 9b 26 3d
       -0.051597748 0.17446803 -0.09024469 0.04067517
000260 c1 a7 48 bc 07 15 06 3e de 3f b2 bc 4f 37 bd bd
       -0.012247027 0.13093959 -0.02175897 -0.09239065
000270 fe 33 2b be bb fb 28 bc 6d d7 8b bd 53 74 25 bd
       -0.16719052 -0.0103139235 -0.068281986 -0.04039414
000280 72 0a 31 3d e2 d5 0a be 75 aa 91 bd a0 65 bc bd
       0.043222852 -0.13558152 -0.0711259 -0.09199071
000290 a2 39 04 3e 36 ba 92 3b 16 24 08 3e 38 a9 ad bb
       0.1291261 0.0044777645 0.13295016 -0.0052997135
0002a0 52 d8 16 3d 41 e7 10 3e 1e 27 4b 3c cf 4e 59 3d
       0.036827393 0.14150716 0.012399463 0.053053673
0002b0 4c 4f 26 bd 2e 5e 91 bd 0a 36 00 be d3 3a 2d 3e
       -0.040602967 -0.070980415 -0.12520614 0.16916971
0002c0 41 e4 b8 bd 6b a0 b8 3c 4d 27 1b 3e 37 f6 32 bd
       -0.09027911 0.02253743 0.15151711 -0.04369184
0002d0 de 7e 79 bd 16 4c 1a 3e 12 4c 8f 3d 15 e8 42 bc
       -0.060912006 0.15068087 0.06996931 -0.011896153
0002e0 5b a3 ff 3e f8 26 f9 3c 25 33 89 3d e8 0a 7e bd
       0.49929318 0.03041409 0.06699208 -0.06202212
0002f0 ab bd 70 3d a8 ee da bd 74 6d df 3d 5e d3 61 3c
       0.05877463 -0.10690051 0.109095484 0.013783304
000300 9e 37 b9 bd 5f f4 38 bd 3a fa 5a bd ac 4e 50 bd
       -0.09043811 -0.045154925 -0.05346129 -0.050856277
000310 fd 21 12 3f b4 a3 2a 3e 58 aa 19 3d 8c 77 80 bd
       0.5708311 0.1666401 0.037515968 -0.06272802
000320 e2 2f 7c 3d 6f 08 b5 3d ab 99 4b bd c4 13 c3 3c
       0.061569102 0.08839499 -0.049707096 0.023813136
000330 37 e7 c1 bc 00 dc 99 3d 9f 92 3c 3e e3 70 a4 3c
       -0.023669822 0.07512665 0.18415307 0.02007336
000340 0f 4e 81 3d 06 04 dd bd b9 b6 be bd f1 86 49 3e
       0.063137166 -0.10791783 -0.09312195 0.19680382
000350 d5 90 1a bd 31 13 9e 3d 5c 1a 52 3d 03 a2 3c bd
       -0.03773578 0.07718504 0.05129467 -0.046052944
000360 39 26 0c bc 5d 37 f6 3a 14 c3 14 bd 1f 7c 1e 3d
       -0.008554035 0.001878481 -0.036318853 0.03869259
000370 8f 5a cd bd 18 02 05 be d4 a6 c4 3d ec a8 0a bd
       -0.10027038 -0.1298908 0.096021324 -0.033852503
000380 c2 df 01 3e 5b 10 1e 3d 04 37 14 3e e9 f8 57 3e
       0.12683013 0.038589817 0.14474112 0.21091045
000390 b6 f7 09 3e 32 ec 56 3d ab 5c b3 3d da b5 94 bd
       0.134734 0.052471347 0.087579094 -0.07261248
0003a0 3b 0a d1 3d 00 10 ce 3d 9d dc 49 3b ea 17 c1 3d
       0.102070294 0.100616455 0.0030801662 0.09428389
0003b0 1d dc 90 3d cd 81 b3 bc 8a c6 06 bc c6 77 98 3e
       0.07073233 -0.02191248 -0.008226046 0.2977888
0003c0 05 d0 75 3d a4 a1 34 3c 29 df 18 bd a7 db 41 bd
       0.060012836 0.011024866 -0.037322197 -0.047328617
0003d0 45 1c 2d 3d 7f 13 cc 3e ca 78 5a 3e 85 a8 35 3d
       0.042263288 0.39858624 0.2133514 0.044350166
0003e0 7c c6 b4 3d bb 21 bc 3d 20 cb 8d 3c dc 2f a2 3c
       0.088269204 0.09186121 0.017308772 0.019798212
0003f0 7d f2 09 3e f0 6c dd 3c d4 76 72 bd 17 e4 02 3e
       0.13471408 0.027029485 -0.059195355 0.12782322

lstm.bias_hh_l0 f4 [256]
000000 ed 41 44 3d e2 1f 80 3c 35 08 57 bd 0b 14 2d bc
       0.047914434 0.015640203 -0.05249806 -0.010563861
000010 c4 aa 2b 3f 01 ca a9 3d c5 b9 20 3d e0 22 cb bd
       0.6705744 0.08290482 0.039239664 -0.09918761
000020 44 da 77 3d ac 77 d6 3c 5f b9 b2 bd 29 f2 10 3e
       0.06051089 0.02618011 -0.08726763 0.14154877
000030 01 82 be 3d 48 8c 87 bd 23 33 71 bd ef cb 37 bc
       0.0930214 -0.066185534 -0.05888666 -0.011218055
000040 d4 ad cb bc 5e eb 43 3a 0c 38 ab bd 22 bc 89 3c
       -0.024863161 0.0007473732 -0.083602995 0.016813342
000050 99 f2 b1 bd 4f 32 88 3e b0 e0 f4 3d a8 71 49 3c
       -0.0868885 0.26600882 0.11956918 0.012295164
000060 5d 9f de 3d 19 9b 11 3d ee 92 b8 bd 7d 08 48 3e
       0.1087024 0.035548303 -0.090123996 0.19534488
000070 f2 06 1c be 71 82 c1 3d 9b f7 5c 3d 9e 15 8c bd
       -0.15237024 0.09448708 0.053947072 -0.06840061
000080 19 30 0e bc 7b 34 2f 3e 6f c7 58 bd 34 c3 06 3e
       -0.00867846 0.17109863 -0.05292457 0.13160402
000090 20 8c 57 3b 7d 85 e3 3d 0e ae b2 3d 51 1b a4 3d
       0.0032889917 0.11109445 0.087246045 0.08013023
0000a0 85 b9 50 3b e1 c5 41 3c c5 f5 d5 3d 02 14 59 bd
       0.003184886 0.011826963 0.104472674 -0.052997597
0000b0 2a f2 e1 3d 12 01 26 3d 4f 66 5c bd 31 1b 38 3e
       0.11032517 0.040528364 -0.053808507 0.17979123
0000c0 d2 c1 08 bd 16 af b9 bd 6d 3a 02 3d fb 40 b3 3b
       -0.033387966 -0.09066598 0.031794 0.0054703928
0000d0 91 bc ad bc 2c d8 6b 3e 69 67 43 3e ae ab 87 3e
       -0.02120808 0.23031682 0.19082417 0.2649817
0000e0 ae 29 ba 3e 05 8d 71 bd cd 4f ae 3d dd 38 aa bd
       0.36359924 -0.058972377 0.085113145 -0.08311627
0000f0 43 bd d1 bd dd 11 5a 3d d4 4b ae 3c 62 bc a7 3d
       -0.10241177 0.053239692 0.021276392 0.08190228
000100 c8 e1 ac 3d 08 17 a2 bc 5c 25 f4 3d f8 21 a2 3d
       0.08441502 -0.019786373 0.11921188 0.07916635
000110 24 b6 5d 3d 58 88 0a bd 50 a4 c8 3d 86 25 df bd
       0.05412878 -0.033821434 0.09796965 -0.10895829
000120 92 73 ca 3d 58 c3 b2 bd 60 81 9e bb 20 4b 6b bd
       0.098853245 -0.08728665 -0.0048372 -0.05744469
000130 00 12 5c bc 26 53 a4 bd f0 4a c0 bc e0 84 3f 3d
       -0.013432026 -0.08023672 -0.023473233 0.04675758
000140 1a ab e6 bd d0 22 d7 bd 1c 51 d7 bd 56 07 9a 3d
       -0.11263104 -0.10504687 -0.10513517 0.075209305
000150 68 d4 ba bd dc ba 78 bd 54 1f b7 3d e4 e7 82 bd
       -0.091225445 -0.060725078 0.08941522 -0.06391886
000160 24 1c 19 3d f0 01 5b 3c 58 35 c5 3d 40 2c 97 3c
       0.037380353 0.013367161 0.09629315 0.018453717
000170 aa 2b da bd 00 27 35 bd 38 e5 19 3d 5e 8a 8e 3d
       -0.106528595 -0.044226646 0.037572116 0.06959985
000180 9c 1e c4 bd 18 d1 e3 3d c0 1a 14 3d d8 c3 f9 bc
       -0.09576151 0.11123866 0.036158323 -0.030488893
000190 c0 59 f0 bb f4 f2 72 bd 98 13 c0 3c f4 68 3d 3d
       -0.007334918 -0.05931373 0.023446843 0.04624267
0001a0 74 09 01 3d f0 58 8e 3c 16 83 a5 3d c2 0e b8 bd
       0.031503156 0.017376393 0.08081643 -0.0898719
0001b0 ac 3e 3c bd 82 d7 86 3d 7e 5c c1 bd 74 b2 6b 3d
       -0.045958206 0.065840736 -0.094414696 0.057543233
0001c0 d0 c9 0a bc 80 78 a7 bc b0 12 24 3d 18 4f 14 3d
       -0.008470967 -0.020443201 0.040056884 0.036208242
0001d0 8a d4 b9 3d a4 1c 90 3d f4 27 b0 3d c0 b5 fd bd
       0.09073742 0.07036713 0.086013705 -0.12388182
0001e0 26 fb a0 bd 40 b1 11 bc 2e e5 e4 3d 0a 1e bc bd
       -0.07860403 -0.008892357 0.11176525 -0.09185417
0001f0 bc 11 92 3d 84 8e ec 3d 5a 0c ee 3d 60 42 ad 3c
       0.07132289 0.1155062 0.116234496 0.021149814
000200 5c 2a ff 3d ff bc 0f be b7 ac 36 be b3 30 b2 bd
       0.12459251 -0.1403694 -0.17839323 -0.08700695
000210 99 9d a7 3b fc 0d 31 3d b3 99 9e bc f7 89 4d bd
       0.0051152227 0.043226227 -0.019360399 -0.0501804
000220 da 17 51 3c b4 2f 56 bd 2d ad f7 bd 21 f0 e8 bc
       0.012762034 -0.052291587 -0.120935775 -0.028434815
000230 fd 8e 75 3d c8 aa 43 3d 78 96 7c 3b ab 74 06 3d
       0.059950817 0.04777029 0.0038541835 0.032826107
000240 e2 31 f2 3d b5 91 de bd 67 52 99 3c 39 e3 56 bd
       0.11825921 -0.10867635 0.01871605 -0.05246279
000250 40 61 1b 3c 4e bf da bc 52 bf 16 3d 68 08 0f 3e
       0.009483635 -0.02670255 0.03680355 0.1396805
000260 1d a9 04 3d 88 63 e8 3d c1 7a c2 bd 48 b0 71 3d
       0.03238784 0.11347109 -0.0949607 0.059006006
000270 2d b3 fa bc 91 82 b5 3d 1a a9 2c 3c 48 0b dc 3d
       -0.030603016 0.08862794 0.010538364 0.10744339
000280 c2 f3 b9 bd 2b e3 c7 bd 25 44 0d 3d 1c f0 7c 3d
       -0.09079696 -0.09760126 0.034488816 0.061752424
000290 05 ba b8 bd 4d 7b ee 3d 66 2c cd 3d b6 b7 e5 3d
       -0.090198554 0.116446115 0.10018234 0.11216681
0002a0 da 83 48 bc 86 ab 9d bd ab e8 af 3d 48 c8 a7 3c
       -0.012238467 -0.07698731 0.085893 0.020481244
0002b0 42 24 9e ba dc af c7 bd 70 b8 23 be c2 4e c3 3d
       -0.0012065249 -0.097503394 -0.15988326 0.09536506
0002c0 27 e4 51 3d 0e dc cc 3d 00 4d ea 3d 7c d3 81 bd
       0.051242974 0.100029096 0.11440468 -0.063391656
0002d0 09 d0 08 3d 6f f3 65 bb b0 89 66 3d 48 3e f9 3d
       0.033401523 -0.0035087725 0.056283653 0.12170082
0002e0 a7 23 19 3f 35 9a 90 3d 18 5d 1a bc 7a 7f c2 bd
       0.59820026 0.07060663 -0.009421609 -0.094969705
0002f0 3a 00 ed 3d ac 7e 82 bd 16 9c 11 3e 6b 20 30 3d
       0.11572309 -0.06371817 0.14219698 0.042999666
000300 9b 71 ae 3d 54 a2 ba bd dc 9e 53 bd 0c 1a f6 bd
       0.08517762 -0.09112993 -0.051665172 -0.12016687
000310 49 4d f2 3e 88 1f b6 3d a0 c7 41 bd c4 3a df 3c
       0.4732459 0.08892733 -0.047309518 0.027249701
000320 39 07 73 3d 69 53 df bd f0 ea 5c 3d 55 36 05 3e
       0.05933306 -0.10904581 0.05393499 0.13009007
000330 9e 65 77 3d 39 ad 56 3c 3c 9b 08 3d 72 a5 2f bd
       0.060399644 0.013102823 0.033351168 -0.04288239
000340 0d 1b 42 3d fb 01 94 bd 65 17 88 3c d9 a1 0e 3e
       0.04738908 -0.0722694 0.016612718 0.13928927
000350 e2 d1 9d bd e7 43 8a bc 41 af eb 3c ff 79 e7 3d
       -0.077060476 -0.016878081 0.028770091 0.11302566
000360 3d b3 1b 3e 10 16 51 3e 50 e1 b5 bc 32 a3 50 bd
       0.15205093 0.20418572 -0.022202164 -0.050936885
000370 a8 e6 4a be d5 d7 11 3d 00 6d b2 bc 06 16 c8 3d
       -0.19814551 0.035606224 -0.02178049 0.09769826
000380 58 3e 49 bd 85 fa 0c 3d 35 fc 3e 3d fa 12 9d 3d
       -0.04913172 0.0344186 0.046627242 0.07669635
000390 1a 55 7f bd 31 12 97 3d 90 98 86 bd 00 eb c7 bd
       -0.06233702 0.073765166 -0.06572068 -0.097616196
0003a0 09 93 9b 3d c0 11 64 3d b4 37 05 3d 07 d6 bd bc
       0.07596404 0.05568099 0.032523826 -0.023173345
0003b0 d0 2f d9 bd cb f7 a7 3c 2b 7b fc bb b0 c8 04 3e
       -0.10604823 0.0205039 -0.0077051125 0.12967181
0003c0 33 bf 16 bc 30 dd 60 3b 13 33 d5 bc 96 33 60 bd
       -0.009200859 0.0034311526 -0.02602533 -0.054736696
0003d0 87 e8 9b bc 4b 6c cb 3e b0 45 4a 3e 37 df 2a 3e
       -0.019031776 0.39731058 0.19753146 0.16686712
0003e0 97 c7 d3 bd d5 de c5 bd 48 79 bf 3d 87 c0 96 3b
       -0.10340803 -0.096616425 0.093493044 0.0046005878
0003f0 ec e9 52 3d a2 fb 6d bd 88 4e 60 bd b9 2f 7d bd
       0.051492617 -0.058101304 -0.054762393 -0.06181309

lstm.weight_ih_l1 f4 [256, 64]
000000 f2 21 4a bd 49 fc 9f bd 39 7d 8b 3e a5 b5 c9 bc
       -0.04934878 -0.078117914 0.27243975 -0.024622748
000010 a3 2f 94 3e e8 54 94 be 6f e7 8d bd d0 0b d6 3c
       0.28942594 -0.28971028 -0.06928908 0.02612868
000020 ca ee 1a bd db 90 0a 3e da 8c bc bd d8 f7 a0 bd
       -0.037825383 0.1353182 -0.09206553 -0.078597724
000030 cc 25 6f be be aa 89 bd 0a d9 fa 3d 8f 23 01 be
       -0.23354262 -0.067220196 0.12248428 -0.12611221
000040 66 f3 35 bd bf cf ae bd a3 f5 82 bd ee 59 3c 3e
       -0.044421576 -0.08535718 -0.06394508 0.1839368
000050 6e d9 ee bc 14 6e a0 3e ad c9 1b 3d 25 c0 17 3d
       -0.029156413 0.31333983 0.03803413 0.037048478
000060 b1 91 20 be 73 87 6b bd 9a 28 f0 bc 14 9b 13 3e
       -0.15680577 -0.05750222 -0.029316235 0.14414626
000070 37 72 e6 ba 0f c2 e5 be 42 9d 41 bd cc fc 00 bd
       -0.0017581646 -0.44874617 -0.047269113 -0.031491086
000080 66 89 c8 3c 1e e1 66 3d 0a 7b df 3d f1 51 58 be
       0.02447958 0.056367032 0.1091214 -0.21125008
000090 51 a6 62 bd 6e 1e db bc 3f 7b 74 bd 97 59 18 3e
       -0.055334393 -0.026747908 -0.05968785 0.14877926
0000a0 15 b4 e2 3b 11 f0 29 3e 0e 66 f8 bd 06 56 51 3d
       0.00691844 0.16595484 -0.121288404 0.05110743
0000b0 78 a3 8c 3d 74 58 f7 3d 06 18 ae 3e 06 57 8f 3d
       0.06867117 0.12077418 0.34002703 0.0699902
0000c0 ba cb aa 3c 14 6a 99 3d f6 36 36 3d a8 d4 dc 3c
       0.020849098 0.07490936 0.04448601 0.026956871
0000d0 72 65 78 3d 23 4f 1a 3e 92 51 62 3e b4 d6 26 3e
       0.06064362 0.15069251 0.22101429 0.1629284
0000e0 9b dc 03 bf 0b ee 38 3d d8 6c 9c bd e8 df c4 bd
       -0.5150849 0.04514889 -0.07637948 -0.09613019
0000f0 35 b6 5e 3c a3 b1 58 3c dc 58 75 3c 64 82 05 3d
       0.013593246 0.013225946 0.014974799 0.032595053
000100 ef 35 d0 bc 20 42 a1 3d 85 e8 08 bd ad 24 93 3d
       -0.025416343 0.078739405 -0.033424873 0.0718473
000110 c5 a3 c3 3c c0 8f ca bd 93 34 95 3d a4 3d 71 3d
       0.023881802 -0.098906994 0.07285418 0.058896676
000120 38 e8 d8 bd 71 2a c1 bd a2 19 b4 3d 66 15 69 bd
       -0.10591167 -0.09431923 0.087939516 -0.056905173
000130 00 3c fa 3d 59 f2 66 bd 14 1a d1 3d 2c 14 95 3d
       0.12218475 -0.056383464 0.10210052 0.07279238
000140 26 a2 c6 bd 37 24 0e 3e c2 54 df bd 41 1c 03 bc
       -0.09698896 0.13881002 -0.10904838 -0.008002342
000150 d7 a5 22 3d 3b f4 9a bd 47 0b 77 3d c9 64 ce bd
       0.03970894 -0.075661145 0.06031349 -0.10077817
000160 2e f8 8b bc f0 9c 0b be 7f 58 8b bd 6d 4a 91 bd
       -0.017086115 -0.13634086 -0.06803989 -0.07094274
000170 c2 86 25 3d e2 12 a2 3d 83 4e 9f bd 33 52 81 3d
       0.04041172 0.07913758 -0.07778647 0.063145064
000180 a0 7f 81 bd 56 ea 21 3d 24 82 2a bc af 02 93 bd
       -0.06323171 0.03953012 -0.0104070045 -0.07178246
000190 1d 7d 91 bb 4c ff ba bc 2a 13 32 3d 2b b6 a3 bc
       -0.0044399635 -0.022826813 0.043475308 -0.019984325
0001a0 43 1d 94 3d b4 01 4a 3d 74 da 4a 3d 45 bf ed bd
       0.07232144 0.04931803 0.04952474 -0.116087474
0001b0 3d 82 71 3d da 60 00 3e 06 39 f8 bd 68 57 a7 bc
       0.058962096 0.12536946 -0.12120251 -0.02042742
0001c0 ee d4 10 3e 96 3b 37 bd 16 a0 7b 3d 13 99 4e bd
       0.14143726 -0.04473456 0.061431967 -0.05043895
0001d0 8c 48 9f 39 3a ba ee bb 18 17 c0 3c 80 a5 a1 3d
       0.00030380895 -0.0072853835 0.023448512 0.07892895
0001e0 e0 4e b0 3d 8e 2f 02 be cb 5f cb 3d d1 4b c3 3c
       0.08608794 -0.12713453 0.099303804 0.023839863
0001f0 ac 9b 2b 3c 75 90 a3 3d fe 8e fc bd 49 cd 47 bd
       0.010474127 0.07986537 -0.12331961 -0.04877976
000200 9c c8 bc 3d 66 17 9c bd fb 11 06 be 99 5e ec bd
       0.09217951 -0.076216504 -0.13092797 -0.115414806
000210 da 7a 86 3d 4e 05 2f be 21 fb e3 3d 80 fc 0a be
       0.06566401 -0.17091867 0.111318834 -0.13572884
000220 ba 84 e0 bc ca 70 03 3d d2 c6 ae bd 38 31 a5 bd
       -0.027407039 0.032089986 -0.08534016 -0.08066028
000230 de e5 a3 bd 79 23 ef bd 0d 20 b5 3d 37 82 4d bc
       -0.08002828 -0.11676688 0.08844004 -0.012543253
000240 98 70 22 bd 62 b5 01 3e b9 74 a7 bd dc 49 f4 bc
       -0.03965816 0.12666848 -0.0817656 -0.029820375
000250 cd 11 da bd 60 06 f2 3d 0e b0 00 bb ce aa ea bb
       -0.106479265 0.11817622 -0.0019636187 -0.007161475
000260 f5 f5 9a bd 8a 5e 94 3d 8d f9 54 bd a2 b3 cb 3c
       -0.07566444 0.072445944 -0.051995803 0.024865929
000270 56 b9 8a 3d 41 c3 30 3d a1 de a1 bd d7 af b5 3d
       0.06773631 0.04315496 -0.07903791 0.088714294
000280 88 5e 0e 3e c5 c3 dd bd 2d 36 bd 3c 5a 58 86 3d
       0.13903248 -0.10828356 0.023097122 0.065598205
000290 d8 82 b6 3d 7a 9b df 3d 06 d0 a0 bd 2b 87 45 3d
       0.08911675 0.10918327 -0.07852177 0.04822461
0002a0 2e c0 17 bd 90 0e ca bc 74 8f d0 3d 34 e4 13 bd
       -0.03704851 -0.024665147 0.101836115 -0.036106303
0002b0 46 66 f8 3c 32 03 4c bd 6f 5c f7 3c 27 7d 7f bc
       0.030322205 -0.049807735 0.030195443 -0.0155938035
0002c0 38 08 a4 bb 16 a5 a9 3c ca 76 45 3d f7 f2 c3 3d
       -0.0050058626 0.020708602 0.04820899 0.09567826
0002d0 16 09 63 bd a9 d7 08 3e 0c 68 60 3e be c6 43 3e
       -0.055428587 0.13363518 0.2191469 0.19118783
0002e0 d4 65 d0 3c 08 3b 20 b9 33 68 5c be 2c e6 a6 3d
       0.02543918 -0.0001528078 -0.21524124 0.081493706
0002f0 15 a6 1c bd 90 ff d5 bd c5 db 05 3d 4f 43 04 be
       -0.038244326 -0.10449135 0.03268029 -0.12916301
000300 9f f8 f5 3d c3 12 28 3d 57 fe 55 be f3 ab 95 bd
       0.12010311 0.041033518 -0.20897804 -0.07308187
000310 53 48 7d 3d 89 14 49 3e 36 cd b7 bc 17 ee 54 bd
       0.061836552 0.1963674 -0.02243672 -0.051984873
000320 34 ec 4b 3d 09 4b b3 3d 1c 74 59 3d 57 a2 f2 bd
       0.049785808 0.08754546 0.053089246 -0.1184737
000330 cc 94 92 3e 43 01 81 3d cc 59 8b bb 02 3c af 3d
       0.28629148 0.06299069 -0.004252648 0.085563675
000340 bd 0b d9 ba cb 96 08 3e d0 b6 48 3d 0e 91 01 bf
       -0.0016559284 0.13338773 0.04900247 -0.5061196
000350 47 c1 f3 bc ed 13 8d be 33 4a 2c be 83 46 4b bd
       -0.029755248 -0.27554265 -0.1682518 -0.049627792
000360 56 cc 89 3e bb 89 20 be b2 5f af bd 5d 4b 5e bd
       0.26913708 -0.1567754 -0.08563174 -0.05427109
000370 6d 9b b5 3b 03 47 a0 3e bd 76 42 3c 55 a4 4e 3e
       0.00554221 0.31304178 0.01186913 0.20179875
000380 36 49 bd 3d a8 bd 52 bd 51 40 63 be 70 ea d2 3c
       0.092424795 -0.0514504 -0.22192504 0.025746554
000390 07 6c 44 be 9e 5f e2 bd 17 fd 14 3e 8a 27 4b bd
       -0.19181834 -0.11053394 0.14549671 -0.049598254
0003a0 2a e8 95 be 15 7e 44 be 01 f5 d8 bd c0 e9 41 3c
       -0.2927869 -0.19188721 -0.10593606 0.0118355155
0003b0 59 3b 52 3d bf 82 ba 3d 7b 54 b5 be 91 8b ae 39
       0.05132613 0.09106969 -0.35416016 0.0003329185
0003c0 72 33 a7 3d 94 94 e0 3d 33 97 a6 bd 24 49 30 bd
       0.08164109 0.10965839 -0.08134308 -0.043038502
0003d0 cb 7a a4 3d 40 07 39 bd 09 dc 40 3c bc a3 0f be
       0.080312334 -0.04517293 0.0117712105 -0.14027303
0003e0 09 fd 8f 3e 1b b6 60 3c d3 db 5e be 2b 4d 8d 3d
       0.28122738 0.013715292 -0.21763544 0.06899484
0003f0 5b f0 db 3b 53 29 b7 bd e2 02 df bb 6d 3d 1a be
       0.006712002 -0.08943429 -0.0068057636 -0.15062495

lstm.weight_hh_l1 f4 [256, 64]
000000 28 a0 a5 bd 60 67 35 3d 70 ac c0 3d 0c ba 79 bd
       -0.08087188 0.04428804 0.0940789 -0.060968444
000010 2c 88 37 bd b8 55 57 bd b8 eb a0 3d c0 73 66 3d
       -0.044807598 -0.052571982 0.0785746 0.05626273
000020 70 83 3d 3d 1c 1a 8a bd 2c e7 ab bd 00 80 fa b7
       0.046267927 -0.06743261 -0.08393702 -2.9861927e-05
000030 e0 88 5e 3c 26 5e d1 bd 28 bf b1 bd ec 7b 23 3d
       0.013582438 -0.102230355 -0.08679038 0.039913103
000040 30 ef 8e bd f4 25 3e bd 50 17 7e bc f0 e4 c9 3c
       -0.06979215 -0.046422914 -0.015508488 0.024645299
000050 94 08 35 bd 2a 8e f2 bd bc 9b ee bd 88 df 69 3d
       -0.044197634 -0.11843522 -0.11650798 0.05709794
000060 18 1f 3c bd a0 6b 28 bd 90 21 b5 bc 80 1e 78 3d
       -0.04592809 -0.041118264 -0.02211073 0.060575962
000070 18 12 d8 3c e0 9e 83 3b 30 f8 f5 bd 04 fa 5b bd
       0.026375815 0.004016742 -0.12010229 -0.05370523
000080 3a 8b e3 3d b8 5b 20 bd a0 c6 68 bd 70 1d 49 3c
       0.1111054 -0.03914997 -0.05683005 0.012275085
000090 18 39 bc bd 1c 4e 7a bd 22 2c 82 3d 10 cf 79 3d
       -0.09190577 -0.061109647 0.06356074 0.060988486
0000a0 aa b3 e5 3d 90 08 ca 3c 80 71 69 bd 42 37 8f 3d
       0.11215909 0.024662286 -0.056993008 0.069929615
0000b0 e4 b8 c7 3d 58 61 d1 3d 50 12 2c 3d 74 c9 80 bd
       0.09752062 0.10223645 0.04200965 -0.06288424
0000c0 80 a9 61 bd 68 ca 33 3d 74 92 37 3d 98 ed 47 bd
       -0.05509329 0.0438942 0.044817403 -0.04881057
0000d0 5c 31 5c 3d 2e 9d e4 bd 78 72 cb bd 44 59 e6 3d
       0.05375801 -0.11162792 -0.099339426 0.11247495
0000e0 44 23 8c bd 40 96 62 bc 18 97 d8 3d e8 ec fe 3c
       -0.06842664 -0.013829768 0.10575694 0.031118825
0000f0 40 67 a9 3b c0 0b 5f 3c 94 7a f4 bd 8a 32 aa 3d
       0.005169779 0.013613641 -0.119374424 0.08310421
000100 74 5f 60 bd 2c a8 2a bd 5c 3e d2 bd c0 97 6b bc
       -0.05477853 -0.041664287 -0.102658 -0.014379442
000110 fe 02 8e 3d c4 9b 51 bd 60 2d 10 bd 1e 01 f7 3d
       0.069341645 -0.05117394 -0.035199523 0.1206076
000120 dc 01 99 bd 50 8c ef bc fc 6d a9 3d d4 8c 8b bd
       -0.07471058 -0.02924171 0.08272931 -0.0681397
000130 e0 01 fe bb 00 32 68 ba c8 39 16 bd a2 72 eb 3d
       -0.0077516884 -0.0008857548 -0.0366762 0.11496474
000140 ba 12 a3 3d 66 85 95 3d 20 a6 87 bd a0 df 93 3b
       0.07962556 0.07300834 -0.06623483 0.004512742
000150 a8 9f 67 bd 80 e4 36 3b d0 15 5d 3c fa c2 95 bd
       -0.056548744 0.0027907193 0.01349397 -0.073125795
000160 8c 25 68 bd 8c d8 c7 3d 3c a0 43 bd 20 2d bf 3c
       -0.056676432 0.097581 -0.047760233 0.023336947
000170 2c b8 3a 3d 0e 5c f2 3d f6 b4 ef 3d 48 2a f6 bd
       0.045585796 0.11833964 0.117044374 -0.12019783
000180 52 a3 ed bd 84 ea 24 bd 34 35 b4 bd 6a dc be 3d
       -0.116034165 -0.040262714 -0.0879921 0.093193844
000190 94 c6 40 3d 78 34 9e 3c 24 f6 38 bd c0 34 48 bb
       0.04706438 0.019312128 -0.045156613 -0.003054902
0001a0 f0 ed f1 bd e0 6b f1 bb 1e 07 8c bd a0 1b f3 3d
       -0.11812961 -0.007367596 -0.06837295 0.118705034
0001b0 84 39 15 bd 30 0e 0c 3d ca c6 87 bd 68 12 c2 3d
       -0.036431804 0.034193218 -0.06629713 0.09476167
0001c0 c2 c8 f2 3d b6 36 ca 3d c0 89 91 bc 80 03 fd 3b
       0.11854698 0.098737165 -0.01776588 0.0077213645
0001d0 f0 d1 e1 3d e0 1f d5 bc 78 e9 d6 bd 28 ec 3d bd
       0.110263705 -0.026016176 -0.104937494 -0.046367794
0001e0 f4 90 ba bd 50 8a ae bc 18 57 f0 bc 1c c2 2a 3d
       -0.09109679 -0.021306187 -0.029338405 0.041689023
0001f0 c4 27 b5 3d fc 37 75 3d d2 52 d6 3d 70 2f dc bd
       0.08845475 0.059867844 0.104650155 -0.107512355
000200 2c 29 58 3d 30 c4 37 3d 3c cb 91 bd e0 8f e9 3c
       0.05277364 0.044864833 -0.07118842 0.028510988
000210 68 86 a8 3c 44 d0 54 bd 48 e0 70 bd 80 e5 d5 ba
       0.020571902 -0.05195643 -0.05880764 -0.0016319007
000220 a4 41 87 3d dc de 81 3d cc 3c 46 bd 2c 1e 1f 3d
       0.06604317 0.06341335 -0.048397824 0.038847134
000230 cc 86 7b bd 1a 64 d0 3d 48 04 6a 3d 50 1b c7 bc
       -0.06140785 0.10175343 0.05713299 -0.024305016
000240 b0 71 28 3c 00 eb a7 bc ea 4d a7 3d be a1 bc bd
       0.010281011 -0.020497799 0.08169158 -0.092105374
000250 d8 a1 c9 3c 64 cf cd 3d 5e 09 a3 bd 58 b6 8a 3d
       0.024613306 0.10049322 -0.07960771 0.067730606
000260 ec cf af 3d c6 f1 93 bd 76 55 a8 bd a8 1c a9 bc
       0.0858458 -0.07223849 -0.082194254 -0.020643547
000270 30 59 d2 bc 78 b1 4f bd f0 8f 7c 3c dc a6 4b 3d
       -0.025677294 -0.050706357 0.015415177 0.049719676
000280 74 cc 3a bd 20 d3 4c 3d 28 b4 f3 3d fc d1 59 bd
       -0.045605138 0.050006032 0.118995965 -0.053178772
000290 3a 0e be bd 1a ca 8f bd 20 b8 ed 3d 96 46 b8 3d
       -0.09280057 -0.0702097 0.11607385 0.08997838
0002a0 86 a2 fd bd 54 46 19 3d f8 cd 30 3d 30 22 98 3c
       -0.123845145 0.037420586 0.043165177 0.01857099
0002b0 16 c9 b7 bd c0 e9 56 bb f4 02 5b bd dc cc 93 bd
       -0.08973901 -0.0032793134 -0.053469613 -0.07216808
0002c0 28 7e d8 bc 64 6d ee bd be 7e a7 bd 22 5b 9f 3d
       -0.026427343 -0.11641958 -0.08178471 0.07781054
0002d0 00 66 5c 3b a4 9d e6 3d 46 c9 c9 3d 62 f3 9b 3d
       0.0033630133 0.11260536 0.09852843 0.07614781
0002e0 80 97 d2 3b a4 04 38 3d 5c 7d 09 3d 4e 7a da 3d
       0.0064267516 0.0449263 0.033566818 0.10667859
0002f0 30 5f 8f bd 4e ee 8e bd 80 91 03 bb b0 79 ff bc
       -0.070005774 -0.06979047 -0.0020075738 -0.031185955
000300 b8 69 83 3d 42 ff c5 bd 20 fb 94 3c 9e ee d2 bd
       0.064166486 -0.09667827 0.018186152 -0.10299419
000310 00 dd db bc 00 4b fb bb 60 c0 a7 bd 5c 8b d6 3d
       -0.02683878 -0.007668853 -0.081909895 0.104757994
000320 80 75 ca bd a6 3a dd bd fa bb af 3d 42 b0 87 bd
       -0.098856926 -0.10802202 0.085807756 -0.066254154
000330 f8 36 6e bd 9e 16 af bd 00 13 03 bd 06 52 a8 bd
       -0.05815789 -0.08549236 -0.03200054 -0.0821877
000340 5e 9b ad 3d 48 eb de 3d b0 69 87 bd ee ff bf 3d
       0.084768996 0.1088472 -0.06611955 0.093749866
000350 20 7b 14 3d c4 b0 34 3d f8 28 34 bd d0 b2 95 bc
       0.036250234 0.04411389 -0.043984383 -0.018273741
000360 00 e1 34 3d fe 66 db 3d c0 0a 15 bc 20 03 88 bb
       0.04415989 0.107130036 -0.009096801 -0.004150763
000370 ca 81 b2 bd 6e 82 ff bd 5c 06 ee bd 40 90 c2 bc
       -0.087161615 -0.12476049 -0.11622307 -0.023750424
000380 80 a1 f3 ba 00 88 35 b9 b8 9d dd 3c 20 c9 84 bc
       -0.001858756 -0.00017312169 0.027052745 -0.016209185
000390 dc c1 12 3d ae ba a1 3d 06 02 f5 3d 34 54 82 bd
       0.03582941 0.078969344 0.119632766 -0.06363717
0003a0 ba d7 8a 3d 60 d3 a1 3c 00 bc 3a 3a 5c b9 58 3d
       0.06779428 0.019754112 0.0007123351 0.052911147
0003b0 2c 53 d6 bd 30 17 8e 3d c8 bf 9f 3d 34 ea 31 3d
       -0.104650825 0.069380164 0.07800251 0.043436244
0003c0 20 77 2a bd 12 0a f9 bd 72 d5 d2 3d 20 b7 f4 bd
       -0.041617513 -0.12160124 0.10294618 -0.11948991
0003d0 7e da 93 3d 0c 9d 3a bd e8 5a f4 3c 00 ee 86 bd
       0.072194085 -0.045559928 0.029828504 -0.06588364
0003e0 80 c8 06 bc b6 05 ec bd 40 51 a9 3d 68 c5 c1 bd
       -0.008226514 -0.11524527 0.0826745 -0.094614804
0003f0 10 42 31 3c a8 3d da 3d ac a5 38 3d 76 26 b5 3d
       0.010818973 0.10656291 0.045079872 0.088452265

lstm.bias_ih_l1 f4 [256]
000000 9e 96 d0 3d ae 4f 5d bc f7 6e a6 3d 61 7c 3b bd
       0.10184978 -0.013507767 0.081266336 -0.045772914
000010 f8 f8 8d bd d7 26 f5 bc e1 b2 45 3d 11 98 f7 bd
       -0.06932253 -0.029925747 0.048266295 -0.12089551
000020 0e b4 19 3e 63 c0 7d 3d 28 48 ee 3d 07 b2 87 bc
       0.15010092 0.061951052 0.116348565 -0.016564382
000030 68 12 7e 3d 52 8d c7 bd b8 0c 6b bd 4f fb 43 bc
       0.062029272 -0.097437516 -0.057385176 -0.011961772
000040 ba 00 ec bd 2d fd 7e 3a d2 5a 3e 3d 37 cc b2 bb
       -0.11523576 0.0009727057 0.04647333 -0.005456473
000050 75 ae bc 3d 57 61 e5 3c 24 a6 1e bc cf c0 d4 bd
       0.092129625 0.028000517 -0.009683166 -0.10388338
000060 66 15 aa 3e 81 4f d5 bd 4e d8 96 3c fc a7 3f bd
       0.3321945 -0.10415555 0.018413689 -0.04679106
000070 54 d6 ab 3d bf e6 0c 3d af 00 31 3c 6d a5 94 3d
       0.08390489 0.034399744 0.010803386 0.07258115
000080 2e c7 c2 3d cb 22 60 3e 49 10 0b bd fc 3e 1f 3e
       0.09510647 0.21888272 -0.033951078 0.1555137
000090 0a 20 0d 3d 1b e5 82 bd a2 13 73 bd c6 87 be 3d
       0.034454383 -0.06391355 -0.059344895 0.093032405
0000a0 96 42 c1 bc dc 57 f2 3d 6b fd 51 3d 02 c7 9a 3d
       -0.023591321 0.11833164 0.05126707 0.07557489
0000b0 83 83 8d 3a 16 37 b1 3d bc 51 c9 3d cd 97 70 bd
       0.001079664 0.08653085 0.09830043 -0.05873852
0000c0 34 cf e9 3d b7 41 f7 bd 55 83 23 bd 49 96 7e 3d
       0.11416474 -0.12073081 -0.03992017 0.06215504
0000d0 df bc 11 3d 0b 88 b8 3d 15 5a 61 3d d3 b1 b1 3d
       0.035580512 0.09010323 0.05501755 0.086764954
0000e0 44 85 44 3d a2 07 96 3c 8c 62 c3 bd f2 47 8f 3c
       0.047978655 0.018314186 -0.09540281 0.01749036
0000f0 3c 77 e0 bd 94 77 58 3d 27 cc 01 bb 58 4a 84 3e
       -0.10960242 0.052848414 -0.0019805522 0.2583797
000100 18 c9 e6 3d 78 19 b2 3d c8 08 25 bd a0 e4 02 3d
       0.11268824 0.08696264 -0.040291578 0.031956315
000110 e8 a6 0f bd bc 92 be 3d f4 f7 53 3d c6 d6 a5 3d
       -0.035071284 0.09305331 0.05175014 0.080976054
000120 30 5c 9e bc 22 80 bb bd a0 e1 b3 bc d8 d4 eb bd
       -0.019331068 -0.09155299 -0.021958172 -0.11515206
000130 30 85 87 3d 68 0a bf 3c b0 c5 84 bd 48 59 ed 3c
       0.066172004 0.023320392 -0.064830184 0.028973237
000140 3c fb 2b bd c2 07 87 bd c8 c4 df bd 7a ec ea bd
       -0.041987643 -0.065932766 -0.10926205 -0.114708856
000150 84 61 25 bd a0 62 2b 3c f0 eb 9c bd 68 bb f9 3d
       -0.0403762 0.010460526 -0.07662189 0.12193948
000160 9a d6 f8 3d a0 b6 f5 bb aa 0b 8f 3d aa 2c bd bd
       0.12150307 -0.0074985772 0.069846466 -0.092370346
000170 00 50 88 3b 50 1a bb 3c b0 0c 70 bd 2e c3 a0 bd
       0.0041599274 0.022839695 -0.05860585 -0.078497276
000180 56 52 c6 bd ce 07 cf 3d 44 b2 f5 3d e0 90 f2 bc
       -0.09683673 0.101089105 0.11996892 -0.029610097
000190 e8 1f 98 3d c4 58 b5 3d 00 be 34 3d 4c f9 3f 3d
       0.07427961 0.08854821 0.04412651 0.046868607
0001a0 ec a6 e7 bd 58 ed 63 3d f8 4d bd 3d 46 81 8f bd
       -0.11311135 0.05564627 0.09243387 -0.07007079
0001b0 c4 a0 ef 3d 48 28 54 3d d4 5e 87 bd e8 ad 10 3d
       0.117005855 0.051796228 -0.06609884 0.0353221
0001c0 c0 cb d0 bc 30 df f3 bc f4 a1 5f bd 4e 75 ec 3d
       -0.02548778 -0.02976951 -0.05459781 0.115458116
0001d0 18 fd a8 3d 14 db 47 3d 80 4d 7d 3b f8 9a 87 bc
       0.08251399 0.048792914 0.003865093 -0.016553387
0001e0 76 75 bb 3d 00 c5 d6 ba 48 41 d6 3c 9a 41 f2 3d
       0.09153263 -0.0016385615 0.026154175 0.11828919
0001f0 30 08 46 bd d2 a1 85 bd f4 7b f9 bd 3c 91 57 bd
       -0.048347652 -0.065250054 -0.12181845 -0.05262874
000200 1c fa 38 3d 63 d7 ca bd 7f 57 ec 3d ca 93 91 3d
       0.045160398 -0.09904363 0.11540126 0.07108267
000210 6a e1 3f 3d ef 4f a8 bb dc 93 8f bd 33 7e 7a 3d
       0.04684583 -0.005136482 -0.07010624 0.06115551
000220 82 23 86 3d 2b 45 14 bd 32 9e e1 bd 65 9c 75 b9
       0.06549741 -0.036198776 -0.110165015 -0.00023423282
000230 6d 8e bf 3c c4 5e ec 3c d3 55 32 bd 84 44 d0 3d
       0.023383344 0.028853782 -0.04353888 0.10169318
000240 32 d2 88 3d d1 1c a3 bd fe 13 a9 bd 36 58 98 3d
       0.066807166 -0.07964481 -0.08255766 0.074387
000250 31 dd 9b bc f3 dc 64 3c 5b 3d bd bd 19 e0 03 3d
       -0.01902637 0.013968694 -0.09240218 0.032196138
000260 7b 6a 8b 3d da cf 8c 3d 1f d6 26 3d 21 70 67 bd
       0.06807419 0.06875582 0.040731546 -0.05650342
000270 2a 86 ae bd 65 0c 0f 3d d2 1e 9f 3c aa ca d3 bd
       -0.085216835 0.03492393 0.019423876 -0.103413895
000280 d8 0d b7 3d de e3 8b 3d ad 2b f6 bd 3c 12 be bd
       0.08938187 0.068305716 -0.12020049 -0.09280822
000290 b2 4c 5e 3d 27 6a 8c bc 60 fc bf 3d 0b 9f ba bd
       0.05427236 -0.017140461 0.093743086 -0.09112366
0002a0 22 26 97 bd f9 2d 8a bc 35 6f b2 bd 0b 1e e0 3d
       -0.0738032 -0.016867625 -0.08712617 0.1094323
0002b0 29 81 d5 bd a8 fb 63 bc 71 6c 02 3d c5 57 05 3d
       -0.10425026 -0.01391498 0.0318417 0.032554407
0002c0 c8 b2 f1 bd 15 ab fb bc a3 6e 85 3d 73 84 93 bd
       -0.11801678 -0.030721227 0.06515243 -0.07202997
0002d0 44 78 9b bd ab 10 de bd ec 43 82 3d 51 fe 23 3c
       -0.07591298 -0.10843023 0.06360611 0.010009364
0002e0 f7 c6 5e 3b 69 88 1b bd 88 7e c7 3d c3 ee d8 bd
       0.0033993104 -0.037971888 0.09740931 -0.10592415
0002f0 33 5b 3e 3d 01 7e f0 3c 70 0b cd bc 23 4e a4 3d
       0.046473693 0.029356958 -0.025029868 0.08022716
000300 c2 54 0f bd 6a b7 80 3d 29 6a dc 3d 41 7f 46 bd
       -0.03499294 0.062849835 0.10762436 -0.048461203
000310 52 43 f3 bd a5 5f 28 3c b3 5b 96 3d 50 db cc 3c
       -0.11878075 0.01027671 0.07341709 0.02500692
000320 e6 a2 90 3d 42 3f 66 3c a5 15 c8 3d 88 fb 3b 3e
       0.070623204 0.014053168 0.09769753 0.1835767
000330 4e 4f c9 bd 28 83 af bd ec 36 0d 3e 44 c3 e2 3d
       -0.09829579 -0.08569938 0.13790482 0.110724
000340 d0 7f 8a bd a1 f3 79 bc df af 87 3d ea 13 36 3d
       -0.067626595 -0.01525584 0.066253416 0.044452585
000350 3b cf b9 3a 5f 65 99 bd 7d 7a cf bd 69 76 cb bd
       0.0014176139 -0.07490038 -0.10130785 -0.09934694
000360 ad 3f 86 3e 59 3d c0 3d 50 25 39 3d 6c 2b 2d 3c
       0.26220456 0.09386701 0.0452016 0.010569435
000370 ee f1 00 be 6d 34 3c 3c 4a 2d 4a 3d a4 63 b0 bd
       -0.12592289 0.011487109 0.049359597 -0.08612755
000380 86 12 bc 3d 51 44 0b 3e 42 70 09 3e c3 c3 15 3e
       0.091832206 0.1360028 0.13421729 0.14625458
000390 79 1f 8c bd ad 74 a9 bc aa f2 05 3e fa cc 58 bd
       -0.068419404 -0.020685518 0.1308085 -0.052929856
0003a0 79 82 81 3a 83 4e 04 3e f5 a6 1e 3d 2d 3f 57 bd
       0.0009880803 0.12920575 0.03873344 -0.052550483
0003b0 e1 53 30 bb 0e 5c 6b bd 5f d9 e5 bc fd 3d d4 3d
       -0.0026905464 -0.057460837 -0.028057752 0.10363386
0003c0 85 48 01 3e 97 fc e5 bd 3c 52 dd bd 22 b6 b1 3d
       0.1262532 -0.11229818 -0.108067006 0.08677317
0003d0 12 45 a1 bd 45 f0 9d 3d da 8f d9 3c b2 67 82 bc
       -0.07874502 0.077118434 0.026557852 -0.015918586
0003e0 4b 2e 29 3d 25 fe 02 3d 09 66 65 bd 77 bd 96 bd
       0.041303914 0.031980652 -0.05600551 -0.07360356
0003f0 26 8c c9 bd 9f 25 99 3d 7d 5f 96 bd df 6c fb 3c
       -0.09841184 0.07477879 -0.07342432 0.030691562
