LSTM_for_PDE/codes/models/LSTM_NS2d.pth (torch, 130213 bytes, 10 tensors)

rnn.weight_ih_l0 f4 [200, 3]
000000 9c dc bd bd ac 6e 43 bd 02 da a9 3d c5 91 2c 3e
       -0.092705935 -0.047712967 0.08293535 0.16852482
000010 76 05 9e 3e da bc 27 3f 43 0f 0b be f6 3c 03 bd
       0.3086354 0.6552254 -0.1358004 -0.03204056
000020 73 21 1d be 4d 78 44 be 2f 0c e5 3d 18 ca f5 bc
       -0.15344791 -0.19186516 0.111839645 -0.030003592
000030 08 30 6f 3d 91 70 1e be ea cf a1 3b 0d e2 af be
       0.058395416 -0.15472628 0.0049381154 -0.3435215
000040 01 85 d9 bd 17 00 76 be 90 4e a3 bd 9e fc 09 be
       -0.106210716 -0.24023472 -0.07973969 -0.13475272
000050 73 8d d0 3e 68 b9 5a bd 44 ab 55 3e 5f 76 89 be
       0.40732917 -0.053399473 0.20866114 -0.26848122
000060 e3 f7 ca 3d 1b dd 68 be 2c 2c b8 3e 2f 9a 60 bd
       0.09910562 -0.22740595 0.359712 -0.05483454
000070 0a 27 70 3d ee c6 87 be ac a3 e0 bc b7 40 93 bc
       0.05863098 -0.2651896 -0.027421795 -0.017975194
000080 b3 fc f2 3e a5 5b 89 be 79 02 24 bd 0c 50 d9 be
       0.4745842 -0.26827732 -0.04004142 -0.42443883
000090 af 39 ef 3d 6c 8d 3b 3e 1b ce 2e 3e f9 66 ea 3d
       0.11680924 0.18315667 0.1707081 0.11445422
0000a0 e3 f8 0e 3e 91 e3 c1 3b 4b e6 33 bd 6b 1a 54 3d
       0.1396213 0.0059170206 -0.043920796 0.051783007
0000b0 ee 5e ab 3e 97 e4 97 3e a1 10 69 be 55 f7 27 3e
       0.33470863 0.29666588 -0.2276025 0.16402943
0000c0 bc 69 56 3d 39 ba c5 3d c5 43 6b be 20 7a 99 3c
       0.05234693 0.0965466 -0.22975071 0.018734992
0000d0 6a 47 6d bd 61 49 0e 3e a5 2a 87 3e 4b b2 18 3e
       -0.057929434 0.1389518 0.26399723 0.14911763
0000e0 90 ea d9 3e b4 ad c2 3d e3 fc 60 be 15 3b 38 3e
       0.4256177 0.095057875 -0.21971469 0.17991288
0000f0 f8 90 e7 bd 90 65 4b bd 4d dc d0 3d 35 7e 3d be
       -0.113069475 -0.049657404 0.10198269 -0.18505175
000100 e6 72 dc bd 8d b6 af 3e 55 f4 2a be 11 16 44 3c
       -0.10764103 0.34318963 -0.16694768 0.011968152
000110 be aa f2 bc c3 2a cc be aa 8b 92 bc da 1b d3 be
       -0.029622432 -0.39876375 -0.017888863 -0.41232187
000120 b9 06 9d 3b 64 0f ac be 19 92 c6 bc 8c 14 f4 3e
       0.004792061 -0.33605492 -0.024239587 0.47671926
000130 b1 71 3e be 67 88 7e be fa f9 ec bd 92 8c c3 be
       -0.18598057 -0.24856721 -0.11571117 -0.38193184
000140 4f 7f ac bd 7b e1 5e 3b f0 8f ca 3d 4f 58 ba 3d
       -0.0842272 0.0034008909 0.09890735 0.09098875
000150 6c d2 62 be 8a 8e 44 3e fc 44 b3 be 62 ef 26 3d
       -0.22150582 0.19195 -0.35013568 0.040755637
000160 34 b0 fe 3e 16 09 e0 3e 3d af 59 be ee ec 85 bd
       0.49743807 0.43756932 -0.21258254 -0.065393314
000170 49 53 c9 3d 12 52 b3 bd 89 02 d9 bd f5 80 5c 3e
       0.098303385 -0.08755888 -0.10596187 0.21533568
000180 ad c0 c9 bd 63 25 55 bd 19 01 a2 bc ca 0b 1e 3d
       -0.09851203 -0.052037608 -0.019775914 0.03858546
000190 bf d4 4e bd 74 c4 d2 3e 66 3c 09 3c 5c 07 0e 3d
       -0.05049586 0.41165507 0.0083762165 0.034674987
0001a0 b9 6d 80 3e 62 04 12 3e f2 37 73 3d d2 15 f7 3e
       0.25083712 0.14259484 0.059379525 0.48258835
0001b0 67 19 36 3e 7a 9b d6 3e da 0f b9 3e 3c 22 cc be
       0.17783128 0.41915494 0.36144906 -0.3986987
0001c0 3c 73 83 3e 6f ec 25 be 3c e4 71 bd c8 1c a4 3d
       0.25673854 -0.16203474 -0.059055552 0.08013302
0001d0 bd 13 8c 3e e5 4a f0 bd b8 0b 0c 3e ea 9e d0 3e
       0.2735881 -0.11733035 0.13676345 0.40746242
0001e0 7c 50 92 3d 62 96 1c be a6 68 b4 3e 7f 7e 20 3e
       0.071442574 -0.15291741 0.3523609 0.15673254
0001f0 a5 03 15 3e b8 93 a0 3d 81 d3 99 bd e2 86 10 be
       0.14552172 0.07840675 -0.07511044 -0.14113954
000200 38 f3 26 be 54 ff bd be ff bb fd bd 44 ec ca bd
       -0.16303718 -0.37108862 -0.12389373 -0.09908345
000210 09 65 9b bd 3f a7 9d 3d 5d d5 97 3c d0 f7 d8 bd
       -0.0758763 0.07697915 0.018534357 -0.105941415
000220 94 a5 4d be 41 74 b7 bd b3 6f 1d 3e 2f 6e ab 3e
       -0.20082694 -0.089577205 0.15374641 0.334825
000230 ab 9d b2 bd dd 0d 16 bd f4 99 80 bc 9c 83 7e 3e
       -0.08721479 -0.036634315 -0.01569841 0.24854892
000240 32 a8 83 3c 7b f6 c7 3d 4b 82 ff 3d 34 41 cc bc
       0.016071413 0.09763809 0.12476023 -0.024933435
000250 32 8d 99 bc 95 8c 00 3e 1d ed 05 3e 4a f6 ea bd
       -0.018744085 0.12553628 0.13078733 -0.11472757
000260 6a da f2 bd 38 90 59 3d f2 84 31 bd 40 22 f1 3c
       -0.118580654 0.053116053 -0.043339677 0.029435277
000270 50 fb cb 3c fa f4 b6 bd e2 d2 fc 3d 78 17 ef bd
       0.024900109 -0.08933444 0.1234491 -0.11674398
000280 82 a3 f9 3d 04 56 88 3d c6 89 da 3d ad ad f8 bd
       0.1218939 0.06657031 0.106708094 -0.12142501
000290 23 e1 02 be a0 11 c1 3b f9 b8 ca bd 28 89 b0 bd
       -0.12781195 0.0058919936 -0.09898562 -0.086199105
0002a0 a0 5d 6f 3d e8 0d 68 3d 54 58 1d 3d 2b af c3 bd
       0.058438897 0.056653887 0.038414314 -0.09554895
0002b0 10 2c 54 bc 4b f4 0b be 19 4b 94 bd 46 7f 78 bd
       -0.012949958 -0.13667409 -0.07240886 -0.060668252
0002c0 bc b2 3a 3d 46 a2 b7 bd 4e f5 f4 3d d0 1d 07 bd
       0.04558061 -0.08966498 0.11960851 -0.032987416
0002d0 5b 55 cf bd 0c 54 ee bc e2 4b 97 bd 27 8f ee bd
       -0.10123702 -0.029092811 -0.073875204 -0.11648398
0002e0 d3 ff cb bd 87 ed 97 bd 68 ed fd bd 9c 70 7f 3d
       -0.09960904 -0.074183516 -0.12398797 0.062363252
0002f0 46 6a 93 3d b4 97 60 3d d5 3c 05 3e 26 e0 70 bd
       0.071980044 0.054832175 0.13011487 -0.058807515
000300 30 fb bc bd 7a f9 76 bd 40 8a 17 3d 17 1e b4 bd
       -0.09227598 -0.060296513 0.03699708 -0.08794802
000310 cd b8 00 3e 21 49 e7 bd e4 61 0a be 5c 33 24 3d
       0.12570496 -0.11293245 -0.13513905 0.040088043
000320 26 ef 14 bd f4 e8 5f 3d ad 82 0f be 1e d3 ce bd
       -0.036360882 0.05466552 -0.14014693 -0.10098861
000330 c0 d7 33 3b 42 fe e1 3d d5 43 10 3e 80 15 dd 3c
       0.002744183 0.11034824 0.14088376 0.026987791
000340 38 d6 7f 3d 00 ff 09 ba 2c f2 07 be 7e ab b3 bd
       0.062460154 -0.0005264133 -0.13275975 -0.08772944
000350 80 76 d5 bb 7d 0a fc bd 8c 8d 6c bd e4 4b 6a bd
       -0.0065143704 -0.12306688 -0.057752177 -0.05720128
000360 20 23 48 3d da 99 cb 3d c5 27 0b 3e b2 ed 09 be
       0.048861623 0.09941454 0.1358939 -0.1346958
000370 2a 40 aa bd a0 24 bb bd 80 1b 6c bb 28 87 ca bc
       -0.083130196 -0.09137845 -0.0036027133 -0.02472265
000380 2a 75 02 bd 7c 54 ea bd 80 2a c5 3c 1e 23 cf bd
       -0.031850018 -0.11441895 0.024068117 -0.1011412
000390 c3 6b 9b bd c0 3f 5d 3c 48 f0 c6 3c d4 cb c8 3d
       -0.07588913 0.013503969 0.024284497 0.09804502
0003a0 80 33 da 3d a2 aa db 3d 80 d9 13 bd 2c f1 f9 bc
       0.10654354 0.10725905 -0.036096096 -0.030510508
0003b0 ea 32 2e bd d6 dc 91 bd 4d 28 0e 3e 7a 65 99 3d
       -0.042529024 -0.07122199 0.13882561 0.07490058
0003c0 2a 0e dd bd be 75 26 bd 8c eb 3a 3d 73 68 81 bd
       -0.10793717 -0.04063963 0.04563479 -0.0631875
0003d0 d4 d2 cf bc 46 97 b0 3d 14 76 c2 bd 80 40 51 bd
       -0.025369085 0.08622603 -0.09495178 -0.051086903
0003e0 ae 3b 2c bd f0 20 7f bc 08 0c fa 3c 96 f2 bc 3d
       -0.042049102 -0.015571818 0.030523315 0.09225957
0003f0 f0 9f 04 3c c0 e5 c2 3c 7c 11 d0 3d 10 60 4b bc
       0.008094773 0.023791194 0.10159585 -0.01241304

rnn.weight_hh_l0 f4 [200, 50]
000000 20 89 ab 3c b2 86 d0 bd 58 4e 4f 3d bd e2 09 be
       0.02093941 -0.10181941 0.050611824 -0.134654
000010 34 44 07 be e0 56 06 bc e8 7f 8b bd 76 02 a6 bd
       -0.13209611 -0.008199424 -0.068115056 -0.08105938
000020 40 68 5a bc 15 2f 0f 3e 00 3a c9 3b d0 49 e9 bc
       -0.013330519 0.13982804 0.0061409473 -0.02847758
000030 70 1d 2a bd fb b7 83 bd 4e cf 4d bd e4 f6 42 bd
       -0.04153198 -0.06431576 -0.05024653 -0.047598734
000040 88 de 8a 3c 5f c5 8c bd 24 fc 85 3d 04 2f d8 bd
       0.016951814 -0.06873583 0.06542233 -0.105558425
000050 80 2c d2 3b c8 04 85 3c 40 4f 6d bc bd 7b 89 bd
       0.006413996 0.016237631 -0.014484227 -0.06713054
000060 b6 04 1e bd f8 df 94 3d 18 4f bd 3c 4a 25 86 bd
       -0.03857871 0.07269281 0.023109004 -0.06550081
000070 de 31 95 3d a0 55 5c bc 4a 92 66 bd 88 79 b6 3c
       0.07284902 -0.013448149 -0.056291856 0.022274747
000080 88 fa 86 3d 1a 7a c0 bd 52 52 c9 3d f6 cf ad 3d
       0.06590754 -0.09398289 0.098301545 0.08486931
000090 d1 c8 86 bd 38 e6 e9 bd 3c 55 13 bd c0 c6 8f bd
       -0.065812714 -0.11420864 -0.035969958 -0.070203304
0000a0 6c ff 08 bd 46 c5 71 bd 5f 17 05 be fe 50 ff 3d
       -0.033446714 -0.059026025 -0.12997197 0.1246662
0000b0 7d da 0e 3e 40 b0 f9 3c ec 22 5b 3d 0e 4a e0 3d
       0.13950534 0.03047955 0.0535001 0.10951625
0000c0 7e 46 ed 3d 53 1f 83 bd 80 0f a5 3d a0 1e cf 3d
       0.11585711 -0.06402459 0.08059597 0.10113263
0000d0 1c 48 5f 3d 58 8c 0b 3d 2c c4 02 bd 3f 6c fc bd
       0.05451213 0.03406939 -0.031925365 -0.12325334
0000e0 be d2 5d bd b2 d3 3c bd c7 b8 05 be a0 f4 ad bc
       -0.054156058 -0.046100326 -0.13058768 -0.02123481
0000f0 a7 0a 07 3e a8 76 8b 3c a0 da dd 3b 3c a0 07 be
       0.13187657 0.017024353 0.006770447 -0.13244718
000100 a0 39 26 bc 2b d4 08 3e 78 12 08 3d b0 d1 1c bd
       -0.010145575 0.13362186 0.03322074 -0.03828591
000110 30 09 b6 bd 48 1e a9 bc d7 2a ef bd ea 8e bd 3d
       -0.08888471 -0.020644322 -0.11678093 0.09255774
000120 e0 cb 1c bd d6 04 87 3d 9c 9c ab bd c8 58 fd 3c
       -0.038280368 0.06592719 -0.0837948 0.030926123
000130 72 2e d1 3d 5a 64 de bd 96 7b df 3d 78 ac e1 bc
       0.10213937 -0.10858984 0.10912244 -0.02754806
000140 3a 30 35 bd 32 ac eb 3d f2 88 9d bd 26 35 d5 bd
       -0.044235446 0.11507453 -0.07692136 -0.10410528
000150 e6 ed 82 3d 24 5c 4f 3d 5e 86 2e bd 1c dc 61 3d
       0.06393032 0.05062498 -0.04260861 0.055141553
000160 94 1e e5 bc 9e 28 bd bd e8 d6 74 3d af 01 86 bd
       -0.027968682 -0.09236263 0.059775263 -0.0654329
000170 c0 ee dc bc 00 b5 7f 3b 46 a8 9f 3d e0 33 1c 3c
       -0.026969314 0.0039017797 0.077957675 0.009533852
000180 02 df ef 3d 5e 4e ad 3d 20 0b 7c 3c 26 10 d9 3d
       0.11712457 0.08462213 0.015383512 0.10598783
000190 20 16 6f 3d 18 58 c4 bd 40 4a c9 bb 68 a6 8c bc
       0.05837071 -0.09587115 -0.0061428845 -0.017169192
0001a0 f4 59 1c 3d d6 b3 e2 3d 2c c0 81 3d 3a 30 ab bd
       0.038171723 0.11069457 0.06335482 -0.08358808
0001b0 43 7e 05 3e 4c df 4e 3d fa a9 d3 bd 4e 4f 08 be
       0.13036446 0.05050592 -0.10335155 -0.13311502
0001c0 7a df a5 3d 62 90 5b bd 44 6e 2f 3d b0 0b 75 3c
       0.080992654 -0.05360449 0.042829767 0.0149564
0001d0 68 b8 e6 3c 44 71 52 3d b8 43 01 3d e0 ad e0 bb
       0.028164104 0.05137755 0.031558722 -0.006856665
0001e0 c4 f3 4c bd a4 9d 27 3d cc bc 7d bd 78 c6 93 bc
       -0.05003716 0.040921822 -0.06194763 -0.018038973
0001f0 48 b5 1a 3d 5a 0e dd bd bc 84 34 bd 86 27 9c bd
       0.03777054 -0.10793753 -0.044071898 -0.07624726
000200 7e 58 06 bd ac d3 c3 bd 4c aa fe bc 0c 3c 26 3d
       -0.032799236 -0.095618576 -0.031087063 0.04058461
000210 70 b6 79 3c a8 4c b9 bc bc cc 8c 3d f6 db 48 bd
       0.01524125 -0.02261956 0.068749875 -0.049037896
000220 60 94 5e 3d a0 58 bc 3c 10 18 32 bc 22 53 f3 3d
       0.05434072 0.022991478 -0.010869995 0.11881091
000230 4f 8f 87 bd 18 db 63 bd 0c d7 28 3d 70 35 a4 3c
       -0.06619131 -0.055628866 0.04122071 0.020045012
000240 00 7f 2e bb 1c 61 a3 bd c0 04 b3 3d ee f8 ed bd
       -0.002662599 -0.079775065 0.0874114 -0.11619745
000250 b2 8d c3 3d 70 18 c4 3c 10 ef 1a 3c 5a 1c 46 bd
       0.095485106 0.023937434 0.009456411 -0.048366882
000260 06 1c df 3d fc 74 0b be 7a af d8 bd e0 f7 4c 3c
       0.10894017 -0.13618845 -0.105803445 0.01251027
000270 70 44 c6 bd c1 9f 02 be f4 8a 75 bd 0c d9 f6 bc
       -0.09681022 -0.12756254 -0.05994697 -0.030132793
000280 a1 c0 fd bd 0a 62 b6 bd bc ca 52 3d c0 16 f8 3b
       -0.12390257 -0.08905418 0.051462874 0.0075710714
000290 72 d5 af 3d 59 28 c4 bd d0 8f dd 3d f0 d7 f0 3c
       0.08585633 -0.09578008 0.10818446 0.029399842
0002a0 98 5a 80 3c 3b 0e 07 3e 30 2a df 3c 90 23 3f 3d
       0.015668198 0.13189022 0.027241796 0.046664774
0002b0 72 b5 e6 3d 4c 87 d8 3d ca 2e d1 bd 1a ad 94 3d
       0.11265077 0.10572681 -0.102140024 0.07259579
0002c0 1c 05 96 bd 50 20 12 3d a4 6f a5 3d 4a 50 f0 3d
       -0.07325193 0.035675347 0.080779344 0.11734064
0002d0 ca c9 e2 3d 05 0a 04 3e 88 a4 8c 3c e0 ee 10 bc
       0.110736445 0.12894447 0.017168298 -0.008846015
0002e0 fc b1 34 3d 80 48 e4 ba b4 8a c0 3d b6 05 1d bd
       0.04411505 -0.0017416626 0.094014555 -0.038335524
0002f0 fe 68 be bd f8 21 c0 bc f0 b4 1f 3d e0 66 29 3c
       -0.092973694 -0.023453698 0.038990915 0.010339469
000300 d8 03 f1 bc 26 75 fd 3d 35 f5 8c bd ca ef 57 bd
       -0.029420778 0.1237586 -0.06882707 -0.052718915
000310 0b 26 a1 bd 80 e2 9c bd cc 81 57 bd 46 ee 9d bd
       -0.07868584 -0.07660389 -0.05261402 -0.07711463
000320 cc 32 b5 3d cc dc 79 3d 76 22 a9 3d a2 18 f9 bd
       0.08847579 0.061001584 0.08258526 -0.121629015
000330 4c 05 90 3d 8e 9d 89 3d a4 bd a9 bd ef e6 a1 bd
       0.0703226 0.06719504 -0.08288124 -0.07905375
000340 f8 ae c6 bd 82 fe cd bd c8 7d 91 3d 9c 66 1b 3d
       -0.097013414 -0.10058309 0.07104069 0.037939653
000350 2e f4 32 bd 78 90 54 bd e0 1e 8b bb 2c 53 77 bd
       -0.0436899 -0.05189559 -0.004245624 -0.060382053
000360 3d 17 06 3e 42 d2 af 3d ce 3a 10 be 10 d3 1f bc
       0.13094802 0.08585025 -0.14084932 -0.009754911
000370 18 c7 03 be 8b e8 0c 3e ea 87 b5 3d d8 62 5b 3d
       -0.12868917 0.13760583 0.08863814 0.05356106
000380 00 a2 4b 3a 0c 0e 84 3d 14 84 36 3d 18 88 68 3d
       0.00077679753 0.06447992 0.044559553 0.056770414
000390 b1 0b 98 bd 60 d1 61 bd e0 0e af 3d c0 86 66 3b
       -0.07424105 -0.055131316 0.08547759 0.0035175532
0003a0 d8 46 ce 3d e8 5b c2 3d f8 bb f5 bd 32 99 aa 3d
       0.10072106 0.09490186 -0.11998743 0.08330001
0003b0 d0 ed fb 3c c6 c2 b3 3d 88 01 d5 3c 58 c2 5a bd
       0.030753046 0.087773845 0.026001707 -0.053407997
0003c0 34 02 fe bd b8 49 b3 bd 36 39 a7 3d e6 fa db 3d
       -0.12402764 -0.08754295 0.08165209 0.107412145
0003d0 e1 b5 8c bd 90 ab a1 3d 4e 30 83 bd 10 d2 6c bd
       -0.06870628 0.07894051 -0.06405698 -0.05781752
0003e0 40 aa 6b 3b 7c 09 a9 3d 8a 42 a4 bd a6 a3 b0 bd
       0.0035959631 0.08253762 -0.08020504 -0.086249635
0003f0 b8 da 84 3c 64 5c c7 3d ec 24 1c 3d 3e 24 09 be
       0.016217574 0.09734419 0.03812115 -0.13392732

rnn.bias_ih_l0 f4 [200]
000000 5f 44 f5 3d 5d 7f 2b 3f 33 1f be 3e 68 7d 07 3e
       0.119759314 0.66991216 0.37133178 0.13231432
000010 c3 60 cd 3e 05 2a ba 3e d6 11 d9 3e 7d 4f 10 3e
       0.40112886 0.36360183 0.4239642 0.14092822
000020 22 76 db 3d 2e 8b fa 3e e7 60 03 3f 59 df 0a 3f
       0.107158914 0.4893431 0.51319736 0.5424705
000030 79 f9 a7 3e 7d 38 a6 3e e5 a5 74 3d dd a5 cf 3e
       0.3280752 0.32464972 0.05972852 0.4055623
000040 ca 93 1e 3f c7 ce 9f 3b 39 c6 d8 3e c8 b4 6a 3e
       0.6194426 0.0048769447 0.42338732 0.22920525
000050 80 47 b2 3e c3 70 83 3e 58 d3 c8 3e f0 e1 c9 3e
       0.34820175 0.25671968 0.39223742 0.3943019
000060 c9 b3 bb 3e a2 1a da 3e d4 99 8b 3e 51 10 12 3a
       0.36660603 0.42598444 0.272658 0.00055718893
000070 61 a1 28 3e 18 e3 fd 3e a8 e4 98 3e de d7 bc 3e
       0.16467811 0.4958732 0.2986195 0.36883444
000080 82 84 a0 3e 67 af a4 3e 9e 2f bc 3e 01 40 0a 3f
       0.31351095 0.3216507 0.3675508 0.5400391
000090 3a 7c 0e 3f 71 31 b8 3e f1 a6 ef 3e eb 81 88 3e
       0.55658305 0.3597522 0.46807054 0.2666162
0000a0 71 9e b4 3e df 09 e8 3e 70 01 e6 3e 74 97 9a 3e
       0.3527713 0.4532003 0.44922972 0.30193675
0000b0 51 d3 1b 3e 05 3c d3 3d a2 bb 96 3e 17 ab c0 3e
       0.1521733 0.10314182 0.29440027 0.3763053
0000c0 98 7f 70 3e 8e 6f 44 3d e6 9e e8 bd 9c 2a a3 bd
       0.23486173 0.04795795 -0.113584325 -0.079671115
0000d0 7b de 07 3e a0 65 b3 bd 40 f2 95 3b c0 27 08 bd
       0.13268463 -0.08759618 0.0045759976 -0.033241034
0000e0 bc 1b 8f bc e7 f2 06 3e 0a 8a f0 3d 15 01 02 be
       -0.01746928 0.13178597 0.11745079 -0.12695725
0000f0 40 8c 33 bc cc 15 5c bd 79 8d c5 bd 06 e0 cd 3d
       -0.010958731 -0.053731725 -0.096461244 0.10052495
000100 61 a2 05 3e d0 b9 8e 3c de b0 ba 3d 3e e9 02 bd
       0.13050224 0.017422587 0.09115766 -0.03196072
000110 e4 bd 91 bc 9c 1e bd bc 30 de fa 3c 8a 24 81 3d
       -0.017790742 -0.023085885 0.030623525 0.063057974
000120 ac 13 38 3d 8e 35 b4 3d ed 86 06 3e 02 d8 7a bd
       0.044940636 0.08799277 0.13137408 -0.061241157
000130 90 3d 09 be d4 c2 bb 3d e2 aa ac bd c1 05 e3 bd
       -0.1340239 0.0916802 -0.08431031 -0.11085082
000140 b6 6b e8 3d a5 64 fc bd 78 13 53 3d 48 81 da bc
       0.11348669 -0.12323884 0.05153224 -0.026672974
000150 a1 8f 05 be 90 50 03 bd 22 3c d4 3d 1d 7b 10 be
       -0.13043071 -0.032059252 0.10363032 -0.14109464
000160 7e 21 cf 3d d4 fe c0 bc 28 33 92 bd 24 59 bb bc
       0.1011381 -0.023559012 -0.071386635 -0.022869654
000170 da 99 05 be 30 13 cd 3d 7b 6c f6 bd d8 9c b9 3c
       -0.13046971 0.10013425 -0.1203241 0.022657797
000180 6f 1f 80 bd 17 13 f2 bd 58 1e 0c bd ab 50 10 3e
       -0.062559955 -0.11820047 -0.034208626 0.14093272
000190 3d 83 47 bd fd 70 8e 3c 83 01 00 be c4 09 45 3e
       -0.048709143 0.017387861 -0.12500577 0.19242007
0001a0 dc 59 e1 3c e5 c2 c2 3d 5d 98 62 bc ab 34 67 bd
       0.027508669 0.095098294 -0.013830272 -0.056446712
0001b0 7e 50 a9 3d 03 a7 d5 3c 99 67 c7 3d 43 92 9a bd
       0.08267306 0.026080614 0.097365566 -0.075474285
0001c0 80 24 95 3c 9f 02 05 be 22 69 75 bd bd c7 41 3d
       0.018205881 -0.12989281 -0.059914716 0.047309626
0001d0 9b 73 87 3d f4 05 af 3d 89 e3 fb ba 63 a5 34 3d
       0.06613847 0.08546057 -0.0019217591 0.044103038
0001e0 2a c9 3c bd a8 99 fe 3d b0 04 9a bc c9 fd ac 3d
       -0.046090282 0.12431651 -0.018801063 0.08446843
0001f0 c5 90 5e 3d d2 4f 1a 3d 8f 48 d5 3d 3c 85 35 bd
       0.05433728 0.03767378 0.1041423 -0.044316515
000200 bc 64 d9 bd 13 69 e4 3b 06 fc bb bd 29 c4 a4 3d
       -0.10614917 0.0069705336 -0.09178929 0.08045227
000210 50 08 dd bd 54 46 8d bd c4 58 c2 3d 60 6a 9c bd
       -0.10792601 -0.0689818 0.09489587 -0.07637477
000220 ab c8 33 be 86 61 2e 3c c2 dd f1 bc 20 a6 06 be
       -0.17557018 0.010643369 -0.029524688 -0.13149309
000230 0c df c3 bc 5c 59 3f 3b c6 d8 d0 bd 07 6a 9c 3d
       -0.023910068 0.002919755 -0.10197596 0.076374106
000240 ec 51 d9 bd 76 00 8f bc 66 22 a3 3d 03 fd 9f 3d
       -0.106113285 -0.017456274 0.07965545 0.0781193
000250 95 43 b8 3d 35 70 81 bd e0 2f 3d 3e b2 57 0e 3f
       0.08997265 -0.0632023 0.18475294 0.5560256
000260 7c 91 3b 3e 6f a1 68 3e fc 8a b5 3e 68 21 4d 3e
       0.18317217 0.22717832 0.354576 0.20032275
000270 87 24 ee 3e 25 06 d3 3e 5f bf 58 bb 16 a2 de 3e
       0.46512243 0.41215625 -0.003307305 0.43483037
000280 3f 4b cd 3e bf 1d 19 3f 9f e0 29 3e 36 8b 91 3e
       0.4009647 0.59811014 0.16589592 0.28426522
000290 0c b9 29 3e be 0b df 3e bd 71 03 3f a9 0b 7a 3d
       0.16574496 0.43563646 0.51345426 0.061046276
0002a0 06 ee 95 3e 80 0b e0 3d 32 08 e1 3e f5 42 40 3e
       0.2928316 0.109396935 0.43951565 0.18775542
0002b0 93 06 3f 3e e3 20 d5 3e 32 2d 12 3f 92 c0 a9 3e
       0.18654852 0.41626653 0.5710021 0.33154732
0002c0 ac d7 37 3e bd b0 df 3c f1 31 b6 3e bc 09 b9 3e
       0.17953366 0.027305955 0.35584977 0.3614024
0002d0 0c ff cc 3e 51 24 b3 3e 76 4a cf 3e 23 1b 06 3f
       0.40038335 0.34988645 0.40486497 0.5238516
0002e0 f2 32 0a 3f 33 b9 e4 3e 0b 36 a0 3e e4 33 63 3e
       0.53983986 0.44672546 0.31291232 0.22187763
0002f0 6d 5d 92 3e 76 4c ae 3e da f9 fd 3e e1 5f c9 3e
       0.28586903 0.3404271 0.49604684 0.39330962
000300 b3 b2 c9 3e dd 76 b6 3e e3 0d fb 3d d6 08 1e 3d
       0.3939415 0.3563756 0.12258508 0.038582645
000310 5d eb b5 3d e3 a0 86 3e f2 8e 04 3e b4 0f 96 3e
       0.088827826 0.26294622 0.12945154 0.29308856

rnn.bias_hh_l0 f4 [200]
000000 0a 3c 9a 3e f2 de 26 3f 37 49 a9 3e 7e a3 5e 3e
       0.3012393 0.6518394 0.3306367 0.21742055
000010 7a a8 87 3e c7 a4 2a 3e 99 13 09 3f 7b dd cf 3e
       0.26495725 0.1666442 0.5354553 0.40598664
000020 32 36 ab 3b c8 bb e9 3e 1b 33 b7 3e 49 d2 ab 3e
       0.0052249664 0.45651078 0.35781178 0.33558872
000030 2f 50 99 3e 1f cd 89 3e 3f 63 ea 3d fc 31 ad 3e
       0.29943988 0.26914307 0.11444711 0.33827198
000040 bd 75 16 3f ee 24 47 3d 57 5e 9a 3e 26 64 90 3e
       0.58773404 0.048619203 0.301501 0.28201407
000050 0c 00 d5 3e b1 be 4d 3e 56 0c a2 3e 21 a8 a1 3e
       0.41601598 0.20092274 0.31650037 0.31573585
000060 3a f7 c7 3e 31 2e 91 3e 60 f8 de 3d a1 96 57 3e
       0.39055806 0.28355554 0.108872175 0.21053554
000070 de 94 bb 3e 7e 83 da 3e 8d 3b d9 3e b0 80 02 3f
       0.36637014 0.42678446 0.42428246 0.5097761
000080 6a 11 bf 3e bc 60 09 3f 4e 66 cb 3e e5 6c fb 3e
       0.37317973 0.5366323 0.3972649 0.49106517
000090 8f 44 f3 3e af 72 f6 3e 00 e9 bf 3e 83 a2 d4 3e
       0.47513244 0.48134372 0.37482452 0.41530237
0000a0 93 b3 db 3e be 3c 09 3f 68 28 81 3e 61 8a c9 3e
       0.42910442 0.5360831 0.2522614 0.39363387
0000b0 05 3e c2 bc dc 2c 96 3e 09 66 44 3e 91 7b 8e 3e
       -0.023711214 0.293311 0.19179548 0.2782865
0000c0 ba 06 0c 3e e6 7d bf 3d ee 73 b6 3d 86 96 ce 3d
       0.13674441 0.09350185 0.089088306 0.10087304
0000d0 6a 10 62 bd ce fe fb 3d c0 16 3d bc 18 aa ad 3c
       -0.055191435 0.123044595 -0.011541069 0.021199271
0000e0 e0 86 0a bd e0 ea 12 bc 00 74 d2 3d ca 19 ec 3d
       -0.033820033 -0.008967131 0.102760315 0.115283564
0000f0 88 ee 10 3d 18 9a 8b 3d 9a c3 84 3d 20 64 37 3c
       0.03538373 0.068165004 0.064826205 0.011193305
000100 00 4f fd bd 54 6e 7c 3d 15 52 02 be 45 4f df bd
       -0.12368584 0.061628655 -0.12726624 -0.10903791
000110 b8 c0 5f 3d b0 2f d6 bd 10 f3 9d 3c 90 3f d2 3d
       0.05462715 -0.104583144 0.01928094 0.1026603
000120 34 42 93 3d 84 1b 57 bd 00 b9 02 bd 70 45 c1 bc
       0.071903616 -0.052516475 -0.03191471 -0.02359268
000130 f3 8c fc bd 60 d8 0d be ec c2 7c 3d 1c 4e 28 3d
       -0.123315714 -0.13852072 0.06170933 0.041090116
000140 5c 1d b7 bc ba ae f9 bd 3c 2b 7f 3d e0 4d 81 3b
       -0.022352867 -0.121915296 0.06229709 0.003946051
000150 20 43 53 3c 61 f5 e9 bd e6 04 07 bd bf 71 09 be
       0.012894422 -0.114237554 -0.032963656 -0.13422297
000160 d0 47 dd 3d 0c a6 fa bd c6 52 c7 3d 29 a7 ef bd
       0.10804713 -0.12238702 0.09732585 -0.11701805
000170 ee 40 dc 3d 00 f6 08 bd ae 2e 82 bd 00 7a a0 3a
       0.10754572 -0.03343773 -0.0635656 0.001224339
000180 ca 8a c0 3d 90 3d fa bd 3a 80 34 bd 5c d7 70 3d
       0.09401472 -0.12218773 -0.0440676 0.058799133
000190 78 37 d6 bd 00 95 df bd dd 63 b0 bd de 5b 38 3e
       -0.104597986 -0.10917091 -0.086127974 0.18003795
0001a0 63 0e 8e 3d 2c 91 08 be 84 92 6e 3d fc 1c 80 3d
       0.06936338 -0.13336629 0.058245197 0.06255528
0001b0 96 11 b1 3c e3 f1 54 bd f6 7b 96 3a cb 14 86 bc
       0.021614831 -0.051988494 0.0011481035 -0.016367337
0001c0 7f 53 d2 bd d2 dd fb bd 4c 66 ef bd b6 0c 8d bd
       -0.10269832 -0.12298168 -0.116894335 -0.0688719
0001d0 90 2d 0a be f8 37 a8 3d f6 90 67 bd 6f 08 22 3e
       -0.13493943 0.082138 -0.05653473 0.1582353
0001e0 25 8e 1e 3d a0 dd 31 bd ed 9b 0e be 52 96 9f bc
       0.03870978 -0.04342425 -0.13926668 -0.019480858
0001f0 13 de 7d bd 86 74 7c bb 6a 34 62 bd e2 02 6f bd
       -0.061979365 -0.0038521602 -0.055225767 -0.05835236
000200 61 ba 44 be 3f 0e d1 3d 77 1d 9e bd ee 3f 3e 3c
       -0.19211723 0.10207795 -0.07720464 0.011611922
000210 5e 52 83 bd 78 bd 50 3d 57 ff 41 bd 66 c1 73 3b
       -0.06412195 0.05096194 -0.04736265 0.0037194132
000220 32 a3 5a 3d 35 24 eb bc 67 7f 4b 3d f7 0a c5 3d
       0.05337829 -0.028703788 0.049682047 0.09621232
000230 c3 6c 7d 3d 10 38 34 bd b6 86 cc bb cc 8a 40 3e
       0.0618713 -0.043998778 -0.0062416447 0.18802947
000240 c2 59 55 bd 3d 72 5b 3e 0e aa b2 3d c6 6f 2c be
       -0.052087553 0.21430297 0.087238416 -0.16839513
000250 9e 80 c0 3c ec 42 e5 3d 39 be a4 3e 1c 1d ea 3e
       0.02349883 0.11194405 0.32176378 0.45725334
000260 10 a5 b9 3e 7d 02 50 3e 32 f5 d6 3e b0 63 9c 3e
       0.36258745 0.20313449 0.41983944 0.30544806
000270 5c c6 d4 3e a1 b8 d1 3e d6 63 3b 3d 05 c2 c4 3e
       0.41557586 0.40961173 0.045749508 0.38429275
000280 2c f0 ce 3e f4 64 00 3f 2c dc f1 3d 60 2c a5 3e
       0.40417612 0.5015404 0.118095726 0.32260418
000290 05 b1 82 3e b9 48 d6 3e 50 16 c6 3e 15 33 d7 3c
       0.2552568 0.41852358 0.38688898 0.026269475
0002a0 5a 1b c3 3e 8b 84 7a 3e bb 29 e8 3e 14 ea ea 3e
       0.38106805 0.24464624 0.45344338 0.45881712
0002b0 34 e4 aa 3d 5c 1b 88 3e 77 3f 18 3f 4d 78 a2 3e
       0.083443075 0.26583374 0.5947184 0.31732407
0002c0 fe 44 d0 3e 8f 6f 44 3c 10 e9 4b 3e 17 7d f1 3e
       0.40677637 0.011989488 0.19913125 0.47165748
0002d0 90 fc c5 3e b6 33 07 3f 49 9c ad 3e 96 e0 b5 3e
       0.38669252 0.5281328 0.339083 0.35522908
0002e0 0f 03 05 3f 1b 23 a3 3e 26 43 7f 3e f5 ae c4 3e
       0.5195779 0.3186272 0.24927959 0.38414732
0002f0 fe ff 8c 3e 69 5a c1 3e 9b 76 a7 3e 2a e2 9f 3e
       0.27539057 0.3776429 0.32707676 0.31227237
000300 60 4f a7 3e 51 dc d8 3e 94 ce 1d bd 30 ca aa 3d
       0.32677746 0.42355588 -0.038527086 0.083393455
000310 eb d5 6b 3e 33 ab 81 3e fe 74 12 3e 55 db 9a 3e
       0.23030822 0.25325927 0.14302441 0.30245462

rnn.weight_ih_l1 f4 [200, 50]
000000 6e 68 f3 3d af 2c 8f be 5c 5d b9 be 8d 5f a4 3d
       0.11885153 -0.27963778 -0.3620404 0.08026037
000010 a6 0a 59 3e 19 6a d7 bd 44 bd d1 be c1 a1 ca 3d
       0.21195468 -0.105182834 -0.4096471 0.09894133
000020 a1 b5 55 3e 51 f3 ba be d5 78 89 bc ff dd c0 be
       0.20870067 -0.3651376 -0.01678125 -0.3766937
000030 df 9a 01 be c9 32 6c be c5 62 3e bd cb 18 a6 be
       -0.12656735 -0.23066248 -0.046480913 -0.3244079
000040 52 6c a1 be e6 a4 f8 3d 89 e6 92 be 5f 11 66 3c
       -0.31527954 0.12140827 -0.2869151 0.0140422275
000050 b8 b1 bc bd 48 dc c8 3d fd 1d 10 3e d3 c5 27 be
       -0.09213585 0.0980764 0.1407394 -0.16384058
000060 75 e2 89 be be 60 8b 3d 8d 60 ce 3b f6 de ed bd
       -0.26930586 0.068055615 0.006298131 -0.11614792
000070 f6 24 31 be 27 8d 8b 3e d5 e1 7c 3e 5c ef 3f 3e
       -0.17299256 0.27256128 0.24695523 0.18743652
000080 ea 47 d1 bd fa dc 1e be 8e 95 37 be c4 e2 24 be
       -0.10218795 -0.15513983 -0.17928144 -0.16102129
000090 13 35 bb 3d 79 97 83 bc 18 ee 41 3e 5f 5d 06 3f
       0.091409825 -0.016063439 0.18938482 0.52486223
0000a0 58 3d 00 be 58 6f a9 be cd 85 9d be 5a 92 bd 3d
       -0.12523401 -0.3309276 -0.30766144 0.0925643
0000b0 1d 7d 82 bd d5 59 ab 3b de 97 27 be 80 f6 95 be
       -0.0637152 0.0052292147 -0.16366526 -0.29289627
0000c0 98 9c 0b 3d 05 4b 05 3c 84 dc ce 3e d2 3a f9 bc
       0.034084886 0.008135562 0.40402615 -0.030423556
0000d0 6e cc d9 be 0f 6e ed 3e 0d 76 90 be 30 de 07 bf
       -0.4253878 0.4637303 -0.28215066 -0.53073406
0000e0 76 a8 24 bf 08 26 0d 3f 00 64 48 3e b0 e7 cf be
       -0.6431955 0.55136156 0.19569397 -0.4060645
0000f0 1d 60 96 be 08 16 0b bf cf 08 5a be 84 f9 b7 3d
       -0.29370204 -0.5433049 -0.21292423 0.08983138
000100 fa f5 97 3d 89 df 84 be f2 ab 1c bf 78 cd c3 bc
       0.07419963 -0.25951794 -0.6119987 -0.023901686
000110 fa 25 02 be 89 fe 7a be 6d 7d e9 3e 8f bb bc 3e
       -0.127098 -0.2451116 0.45603505 0.36861846
000120 36 f5 0d 3f 68 2a 1a bf 7b 1e d0 be 90 29 1b 3f
       0.5545229 -0.60220957 -0.40648255 0.60610294
000130 a8 ff 1c 3f 48 82 b3 3e b9 a9 31 bf 21 46 61 be
       0.613276 0.35060334 -0.693996 -0.21999408
000140 c7 53 dc 3e 38 fa 09 3f 59 46 d6 3e 5f 81 a2 be
       0.43032667 0.5389743 0.41850546 -0.31739327
000150 9b c4 0e bf 6c 59 da be 0e 6f f1 3e 2d bf 05 bf
       -0.55768746 -0.42646348 0.4715504 -0.52244836
000160 35 f5 38 3e c9 07 49 3c 61 1b 66 bd 1f 1a e1 be
       0.18062289 0.0122699225 -0.056178454 -0.4396524
000170 4b 94 0a bf 23 9b 0d 3f f8 a5 5e 3e 65 28 9a 3e
       -0.5413253 0.55314845 0.21743 0.30108944
000180 6f 45 ec be b7 1b 99 be 51 e4 0a 3f 40 37 af be
       -0.46146724 -0.29903957 0.54254633 -0.3422184
000190 b1 83 43 bd dd 98 18 be 00 de 53 be 0b 67 2b 3d
       -0.047733013 -0.14902063 -0.20690155 0.041846316
0001a0 d5 eb 9f bd bd cd 99 be 95 c3 bf bd 36 75 13 3e
       -0.07808653 -0.30039778 -0.09363476 0.14400181
0001b0 34 a9 bc 3d ae 5f a7 3b c3 11 a9 3c 6c 60 84 bd
       0.092119604 0.0051078415 0.020638352 -0.064637035
0001c0 49 fe 84 3c b9 53 ab bd 0b 38 87 3b 20 75 22 be
       0.016234534 -0.08365578 0.004126554 -0.15864992
0001d0 be 38 af bd 3e de 77 3d 93 75 88 be aa b6 ac bd
       -0.085557446 0.06051468 -0.26652202 -0.08433278
0001e0 92 98 56 bd 57 c4 cc 3d 3b 5b 22 3d 3e 54 ed bc
       -0.052391596 0.09998386 0.039637785 -0.028970834
0001f0 43 c3 25 bd d1 64 dd 3d ae 57 21 3e d4 a5 15 3e
       -0.04046942 0.10810245 0.15756103 0.1461404
000200 dd 59 76 3b c3 c4 a5 3e cb de 9e bd 4f e6 88 bc
       0.0037590184 0.3237668 -0.07757338 -0.016711382
000210 35 24 1f 3e cd 97 fc 3d 22 24 73 3d ba 1f 91 bd
       0.15541156 0.12333641 0.05936063 -0.070861295
000220 6d c8 28 be b6 88 1f bd fe bd da 3d 18 62 57 3e
       -0.16482706 -0.038948737 0.106807694 0.21033514
000230 bf 4a 2d be e8 f1 4d be e0 c6 f5 bc 5c 6e 1c 3e
       -0.16923045 -0.20111811 -0.030002058 0.15276474
000240 3a 13 8c bc 54 01 12 bd 70 6c 65 3c 92 6d 5e be
       -0.017099012 -0.035645798 0.014002904 -0.21721485
000250 21 47 d8 3d 64 e6 09 be eb 89 65 bd 86 67 7b 3e
       0.10560442 -0.13466793 -0.056039732 0.2455121
000260 d7 7e 44 bc 6a cf ae bd 13 4d 23 bc 2f 4c 07 be
       -0.011993132 -0.08535655 -0.009967106 -0.13212655
000270 45 d6 33 bc 15 45 0e 3e e2 72 83 3d d0 e3 a2 bd
       -0.010976379 0.1389354 0.064183965 -0.07953608
000280 42 c0 02 3e 5b 87 17 be e1 d8 aa 3c 40 e4 83 bc
       0.12768653 -0.14797728 0.020855369 -0.016100049
000290 3b f8 b9 bd cb dd d2 3d 4f a4 fe bd b0 71 29 3d
       -0.09080549 0.1029621 -0.12433683 0.041368186
0002a0 00 f3 34 3e 3b c4 27 bd c7 b2 e9 bc c8 95 4e 3e
       0.17670822 -0.040958624 -0.02852763 0.20174325
0002b0 9b 6d 5c 3d 5d 66 b7 bd d3 d1 95 3d b4 0c a5 3d
       0.053815465 -0.08955071 0.073154114 0.080590636
0002c0 f9 6a ec 3d 50 65 72 bd 9e 72 56 3d 85 8e c5 bd
       0.11543841 -0.05917865 0.0523554 -0.09646324
0002d0 20 7e 07 3e 8f 53 2c 3c 27 81 e7 3d 04 23 89 bd
       0.13231707 0.010517969 0.11303931 -0.06696132
0002e0 6c ba f3 bd 1e 59 a6 3d 71 13 31 be 28 bf ee bc
       -0.119007915 0.081224665 -0.17292573 -0.029143885
0002f0 f6 e9 08 be 18 1a 61 be 8b 89 dc bb af 52 0f be
       -0.13370499 -0.2198261 -0.0067302636 -0.13996385
000300 43 57 a4 3c 67 57 ec bc 8b 12 94 3c 08 f8 55 3e
       0.02006114 -0.02885027 0.018075248 0.20895398
000310 75 c6 7f bd af c0 9b bc 88 99 48 3e d9 56 a0 3d
       -0.062445123 -0.019012777 0.19589818 0.07829065
000320 a3 b3 02 be b0 3b 79 3e ea df b3 be a2 a6 22 3e
       -0.12763838 0.24339175 -0.3513177 0.15883878
000330 8b e8 f0 bd da fa 9a be de d1 84 3e 1e c0 f3 3e
       -0.11763104 -0.3026951 0.25941366 0.4760751
000340 8b bf c5 3e da 36 b8 be c6 97 8e 3e 10 fd 46 be
       0.38622698 -0.35979348 0.2785017 -0.19432473
000350 d2 c1 4b be 5c 9e 5e 3e 33 d8 8f bc 91 8b 83 3d
       -0.19898155 0.21740097 -0.017559147 0.064231046
000360 73 55 9d 3e 81 31 61 3e d9 f5 48 3e f8 82 f2 3c
       0.30729255 0.2199154 0.19625033 0.029603466
000370 06 7a a2 3e a2 26 c0 3e 5d d8 b5 3e ce da f3 be
       0.31733721 0.37529474 0.35516635 -0.47627872
000380 59 bf e2 be 87 bf 39 be 60 d2 8c 3e e4 bf 63 be
       -0.44286612 -0.18139468 0.27504253 -0.22241169
000390 4d 96 b0 be e7 85 e6 bd d2 12 9a be 77 76 28 3e
       -0.3448967 -0.112560086 -0.30092484 0.16451441
0003a0 fd 76 cd bd 49 af d6 3d 53 42 44 3d 91 6d fb 3d
       -0.10032461 0.10482652 0.047914814 0.122767575
0003b0 df f0 36 3c bf b1 d0 be b7 e8 ef bd 6c 11 30 bd
       0.011165827 -0.4076061 -0.11714309 -0.042985365
0003c0 95 70 83 3d 8a 95 f1 3d b3 ed 9a 3c e8 10 19 3e
       0.06417958 0.117961004 0.018912172 0.14947855
0003d0 6d f5 f1 bd 83 c8 9f 3d c8 52 c3 bd 04 39 ca bd
       -0.118143894 0.078019165 -0.09537274 -0.09874156
0003e0 ed 4d b8 bd e1 23 1f 3e f9 52 c8 be d4 dd 38 be
       -0.08999238 0.1554103 -0.39125803 -0.1805337
0003f0 f7 a9 2b be 2c a7 8b 3e 60 a9 85 3e e3 5c 97 3e
       -0.16764055 0.2727598 0.26105785 0.29563054

rnn.weight_hh_l1 f4 [200, 50]
000000 8c c9 31 3d e9 af 02 3e f8 42 07 3d 58 8e 2c 3d
       0.0434051 0.12762417 0.03302285 0.042127937
000010 16 3d b4 bd 13 1e de bd 00 28 9e ba f7 4c 0d 3e
       -0.08800714 -0.1084558 -0.0012066364 0.13798891
000020 c4 ca 3e bd de ea ad bd a8 b9 60 3d 3c 37 ab 3d
       -0.04658009 -0.08492063 0.054864556 0.083601445
000030 6c 3e a9 bc 0a a9 b2 3d 5a 1a ed 3d 63 1d 01 3e
       -0.020659648 0.08723648 0.11577292 0.12608866
000040 a6 f5 df 3d 4c 7e a6 3d e2 22 f1 3d 58 d4 81 3c
       0.109355256 0.08129558 0.117742315 0.015848324
000050 f8 24 09 be c4 07 d2 bd bc de 1e 3d 9e b3 c7 bd
       -0.13393009 -0.102553874 0.038786635 -0.09751056
000060 40 48 a4 bd 25 18 e8 bd ea 81 a2 3d 62 dd 97 3d
       -0.08021593 -0.1133273 0.079349354 0.07415272
000070 96 48 f0 3d b0 cf 0b be d0 7a cc 3c f8 10 b2 3c
       0.11732595 -0.13653445 0.024960905 0.021736607
000080 90 ee b7 bc 00 8d bd bd 30 0b e7 bd c0 be 37 bb
       -0.022452623 -0.09255409 -0.11281431 -0.002803728
000090 40 b1 5a 3d a0 77 d6 bb 6a 5c 07 be cc a3 b1 3d
       0.053391695 -0.006545022 -0.13218847 0.0867382
0000a0 56 b0 df 3d 74 64 cc bd 1c b8 66 3d 90 f5 39 bc
       0.10922305 -0.099800974 0.056327924 -0.011350051
0000b0 07 56 01 3e 64 02 80 3d e4 ee db 3d 40 09 ac 3c
       0.12630473 0.06250456 0.10738924 0.021000504
0000c0 25 c2 0a 3e 28 3f a9 bc 88 75 c0 3d 40 e1 6b 3c
       0.13550623 -0.020659998 0.09397417 0.0143969655
0000d0 40 d3 d5 bb 9a f4 df 3d d0 2c b5 3d 00 ec b8 ba
       -0.006525427 0.10935326 0.08846438 -0.001410842
0000e0 0b 6f a2 bd 67 88 89 bd 42 c6 a2 bd 48 8a 80 3d
       -0.07931336 -0.0671547 -0.07947971 0.06276375
0000f0 e8 e6 95 3c fa 5d 3e bd f2 45 34 bd b0 51 2c bd
       0.018298581 -0.04647634 -0.044012018 -0.04207009
000100 2c ed 83 bd 60 aa 4b 3c ca 73 c0 bd cc ee e6 bd
       -0.06441721 0.012430757 -0.09397085 -0.11276016
000110 69 6f fc bd e2 db a3 3d c0 7c dd 3b 70 9e f9 3c
       -0.12325937 0.08000924 0.006759256 0.030471057
000120 a0 44 df bb d4 eb d1 bc 80 63 6d 3b f6 de da bd
       -0.0068136007 -0.025625147 0.0036222637 -0.10687058
000130 22 a5 c5 bd a0 b2 da 3c 36 c3 fd bd 1e 1c f3 3d
       -0.09650637 0.026696503 -0.12390749 0.11870597
000140 ae 70 b3 bd 58 00 84 bd f0 76 dc 3c 03 f2 09 be
       -0.08761726 -0.06445378 0.026912183 -0.13471226
000150 9c e4 7a 3d 7a bf f1 3d 50 de e0 bc d8 ad 58 3d
       0.061253175 0.118040994 -0.027449757 0.052900165
000160 b8 94 6f 3d b8 ac 8b 3c d0 28 44 bc e1 d5 87 bd
       0.05849144 0.017050132 -0.011972621 -0.06632591
000170 00 4b 7b 3c 74 66 f8 bd 10 25 71 3d fd f3 c2 bd
       0.015337706 -0.121289164 0.058873236 -0.09519193
000180 e4 b4 db 3d 80 39 98 bb 32 b4 fe 3d 78 90 54 3d
       0.107278615 -0.0046455264 0.12436713 0.05189559
000190 f0 5c 6a 3d 64 3e c7 3d d8 1d 47 3d 30 a9 57 bd
       0.05721754 0.09728697 0.048612446 -0.052651584
0001a0 b4 6b 8f 3d ad 17 07 be cd b1 b9 bd 10 ed 6c 3c
       0.070029646 -0.13192625 -0.09067116 0.014460817
0001b0 10 25 85 3c a3 b4 e8 bd db 00 0e 3e ac 25 d6 bd
       0.016253024 -0.11362579 0.13867514 -0.10456404
0001c0 d8 f4 ef bd f6 26 c2 3d 00 3f 12 3c 97 1b 93 bd
       -0.11716622 0.094800875 0.008926153 -0.07182997
0001d0 af be 0f 3e da 13 79 bd 98 aa e9 3c 71 e5 02 be
       0.14037584 -0.060809948 0.028523728 -0.12782837
0001e0 0f 88 06 3e 58 f1 d5 3c 4d ee 0f 3e 00 9f d7 bb
       0.1313784 0.026116058 0.14055748 -0.0065802336
0001f0 3a 11 66 bd c4 fa b7 3d d0 d6 01 bc 40 1d 95 bd
       -0.056168772 0.089833766 -0.00792475 -0.072809696
000200 fc 4c 76 3d 4a f3 3f bd 22 41 2f bd d6 36 c1 3d
       0.06013201 -0.046862878 -0.042786725 0.09434287
000210 55 5d 00 3e 9c bb 6e bd bc 2a 1d 3d 70 29 b0 bc
       0.12535603 -0.058284387 0.038370833 -0.021504134
000220 9c b9 d6 3d e5 7a 98 bd 86 16 65 bd 87 91 0e 3e
       0.10484621 -0.07445315 -0.055929683 0.13922702
000230 fb 6e 05 be e0 11 c2 3c 64 30 d9 3d 10 b1 97 bc
       -0.13030617 0.023690164 0.10604933 -0.018517047
000240 dc 86 1a bd 4d e8 06 3e 90 b2 c0 3c 00 ec b1 b9
       -0.03772627 0.13174553 0.023522645 -0.00033935905
000250 e2 8d 5a bd 26 3f 00 bd b8 4d c9 3c 40 09 20 3b
       -0.053357966 -0.031310223 0.024573192 0.0024419576
000260 ea 25 bb 3d 10 63 3a 3d f8 a4 94 3d 94 b3 ef bd
       0.09138091 0.04550463 0.07258028 -0.11704174
000270 1c b6 31 3d 4a 54 f5 3d b7 68 b7 bd 41 b8 cf bd
       0.043386564 0.119789675 -0.0895552 -0.101425655
000280 40 95 25 bb 80 d9 2a bc 46 b8 93 3d 7c 56 50 bd
       -0.0025265962 -0.010427833 0.07212882 -0.050863728
000290 48 6a c5 3c f4 47 bb 3d 48 a7 11 3d d0 f9 0c 3d
       0.02409853 0.09144583 0.035559922 0.034417927
0002a0 06 ae f3 bd e6 61 8d bd 80 1c e1 3b 40 91 53 bd
       -0.11898427 -0.06903438 0.0068698525 -0.051652193
0002b0 80 63 5b 3b e8 14 41 bd fa 86 9a 3d 94 40 b6 bd
       0.0033476055 -0.04713908 0.07545276 -0.08899036
0002c0 a4 27 f2 bd 40 14 9e bc ea b1 b1 3d 6d 2f c7 bd
       -0.11823967 -0.019296765 0.086765125 -0.097258426
0002d0 4d 6d 8d bd ae 19 0d be 00 8c 5d 3b 76 9a ae 3d
       -0.06905613 -0.13779327 0.003380537 0.08525555
0002e0 a0 36 e2 3b ea 8b 46 bd 90 08 f0 bd a6 c2 b7 3d
       0.0069034845 -0.048473276 -0.11720383 0.08972673
0002f0 04 6f ca bc d1 ac 10 3e d4 b9 65 3d 12 64 bb bd
       -0.02471114 0.14128424 0.056085423 -0.09149946
000300 40 40 6a 3b 54 f9 33 3d 80 3f b9 ba 60 e2 60 bc
       0.0035743862 0.04393895 -0.0014133304 -0.013725847
000310 b1 56 a0 bd 00 9c ad 3d b8 03 52 3d 88 a2 00 bd
       -0.07829035 0.0847702 0.051273078 -0.031405002
000320 20 52 06 be d9 c6 06 3e 6b ca f0 bd 9e 37 6e bd
       -0.13117266 0.13161792 -0.11757358 -0.05815851
000330 65 46 eb bd c0 e9 04 bd 7c 45 88 3d 44 94 bf bd
       -0.11488036 -0.032449484 0.06653878 -0.09354451
000340 e8 29 62 3d 28 eb 3f 3d 18 3a 20 3d a0 5f 88 3c
       0.055215746 0.04685512 0.039117903 0.01664716
000350 40 76 f5 bd 40 48 de 3d 80 b2 f6 3a f0 6a a2 3d
       -0.11985445 0.10853624 0.0018821508 0.07930553
000360 88 43 cb 3c a5 a2 b7 bd f6 76 26 bd 80 e1 5a bb
       0.024812475 -0.08966569 -0.040640794 -0.0033398569
000370 90 f1 12 3d 70 81 76 3c 8e 1d 2c bd 20 71 f5 bc
       0.035874903 0.015045509 -0.042020373 -0.029961169
000380 d8 ac 66 3d 0e a2 01 be 5e c2 87 3d 12 0c 0f be
       0.05631718 -0.12659475 0.066288695 -0.13969448
000390 6a e0 ef 3d 0f d7 ab bd 38 0c 8c bc e0 41 0a be
       0.117127255 -0.083906285 -0.01709567 -0.13501692
0003a0 10 b8 0e be 72 ae 1f bd 20 7c 67 3d 14 f4 f5 bc
       -0.13937402 -0.038984723 0.05651486 -0.030023612
0003b0 00 14 8c ba 83 90 04 be 03 5c 8c bd 54 6a 79 3d
       -0.0010687113 -0.12945752 -0.06853487 0.060892418
0003c0 c4 d0 a0 bd 0c a4 14 3d d0 5c 7d bc fc f3 27 3d
       -0.07852319 0.03628926 -0.015464023 0.041004166
0003d0 3c 14 b9 3d 7c 94 7a 3d 38 fc 7b 3d c6 33 ea 3d
       0.090370625 0.061176762 0.06151983 0.11435656
0003e0 24 a3 23 3d a1 b2 f3 bd 71 13 b3 bd 8f 44 c8 bd
       0.039950505 -0.11899305 -0.087439425 -0.097787015
0003f0 58 1d 70 3d 08 45 a0 bc 20 3e 31 bc b9 72 0f be
       0.058621734 -0.019564167 -0.010818034 -0.14008607

rnn.bias_ih_l1 f4 [200]
000000 ea ea 00 3d e1 10 90 3e a2 23 8b bc 66 4c 00 bc
       0.03147403 0.28137878 -0.016984764 -0.007830715
000010 0d 91 b8 bc 3b 2a 08 3f bc d2 f6 3d 47 89 e2 bb
       -0.022530103 0.5318944 0.12051913 -0.0069133374
000020 07 56 c3 3c 64 e6 93 bd 30 e8 ff 3d b2 e2 27 bd
       0.023844732 -0.07221678 0.12495458 -0.040987678
000030 c3 4a 20 3e 05 6a 20 ba f4 b0 0c bd c4 c9 21 3e
       0.1565352 -0.0006119314 -0.034348443 0.15799624
000040 c3 75 81 3d 01 17 3c 3e d5 78 f5 bd 21 13 6b 3e
       0.063212894 0.1836815 -0.119859375 0.22956516
000050 6d aa 0e be 7e 99 b8 3c 81 9e b7 3d 77 0d b5 3b
       -0.139322 0.022534128 0.08965779 0.005525287
000060 97 53 f6 bc 87 72 bf 3d 54 4a 27 3e 3d 01 49 3d
       -0.030069156 0.09348016 0.16336948 0.049073447
000070 de d4 da bd 61 d0 c7 3d 4b 47 ea bc 86 c9 5b bd
       -0.106851324 0.09756542 -0.028598448 -0.053658985
000080 92 b9 3d 3e 3a 56 8c 3d 84 34 25 3e 5c b6 ca bd
       0.1852782 0.06852384 0.16133314 -0.098980635
000090 05 25 2d 3d 67 7a ca bd 23 1a 37 bd cc 60 12 3e
       0.042271633 -0.09886628 -0.04470266 0.14294738
0000a0 66 bb 1e 3e 4e ee 84 3d 85 99 47 bd 05 3b db 3c
       0.15501174 0.064907655 -0.048730392 0.026761541
0000b0 ce 32 0d 3c 91 2c eb 3d db c6 10 3e 18 1d a1 3d
       0.00861807 0.1148311 0.14138357 0.07866877
0000c0 f7 05 bc bd 0c ae 38 3c 3a e7 d3 bd 12 c9 c7 3d
       -0.09180825 0.011271965 -0.10346837 0.09755148
0000d0 54 75 6b 3d 3a 60 7a bd 80 c8 c1 bb cc b2 9d 3d
       0.05748494 -0.061126925 -0.005913794 0.077001184
0000e0 03 df 0a be 3a 1e fc 3d 48 f9 04 3d dc 6f 7f 3d
       -0.13561635 0.12310453 0.032464296 0.062362537
0000f0 d2 cf f1 3d 5c 97 d8 bc 60 2a ad 3c 26 bc a0 3d
       0.11807217 -0.026439361 0.02113837 0.078483865
000100 a0 b7 53 3c b0 d1 b1 3d 10 54 6f bc a0 f8 c1 3c
       0.012922198 0.08682573 -0.014607444 0.023678124
000110 30 a8 56 3c 00 60 ec 3c 90 0b c4 3d 2d c1 01 3e
       0.013101622 0.02885437 0.09572518 0.12671347
000120 24 2f bf bd 4e 78 f8 3d 48 4d f2 bd 63 d1 09 be
       -0.09335163 0.12132321 -0.118311465 -0.13458781
000130 d6 cd ed 3d a1 bf 02 be 50 59 b9 3c ba 44 72 bd
       0.11611526 -0.12768413 0.022625595 -0.059147574
000140 d8 52 b9 3c e0 39 a1 3c 30 5e 50 bc 0b c6 0a 3e
       0.02262251 0.019680917 -0.012717769 0.1355211
000150 00 ef 4b 3a 17 34 08 3e 85 f6 01 be 74 eb 7b 3d
       0.0007779449 0.1330112 -0.12691696 0.061503842
000160 0c 3c 06 bd 52 de ae 3d bd 86 84 bd da 75 48 bd
       -0.03277211 0.08538498 -0.06471012 -0.048940517
000170 60 8d 3c bc bd 39 01 3e da 19 5b bd 38 60 aa 3c
       -0.011508316 0.12619682 -0.05349145 0.020797834
000180 00 9b ff 3c 40 7e bf 3d 41 fe 9c bd 00 59 b4 3b
       0.03120184 0.09350252 -0.076656826 0.0055037737
000190 93 93 41 3d e4 6a 53 bc 44 98 c9 3d 1b 2e e0 bd
       0.04725988 -0.012903903 0.098434955 -0.10946294
0001a0 52 62 e4 3d 30 04 28 3e 03 67 20 be e6 56 01 be
       0.111515656 0.16407847 -0.15664296 -0.12630805
0001b0 67 db 4f bd da eb 0f be 8a 33 86 bd a8 48 e0 3d
       -0.050746348 -0.14054814 -0.06552799 0.10951358
0001c0 a9 ae c9 bc fa c9 37 bd 70 b4 ba bd 41 f5 8f 3b
       -0.024619417 -0.044870354 -0.09116447 0.00439325
0001d0 00 7f dc 3d 80 e2 4b bb c3 cc b1 bd f6 7e cf 3d
       0.10766411 -0.0031110346 -0.08681633 0.10131638
0001e0 8c 1a 02 3e 97 a9 ad 3d 14 72 ad 3c 5a 14 60 3c
       0.1270544 0.08479612 0.02117256 0.013676727
0001f0 4b 16 df 3c 45 86 d5 3d 1d 72 84 3d 99 fa 07 3e
       0.02723231 0.104260005 0.06467078 0.13279189
000200 53 39 26 bc 24 79 c4 3d d2 dc 1a 3d fd 2e db bd
       -0.010145503 0.09593418 0.037808247 -0.10702322
000210 81 bf 16 be 13 96 da bd 8d 53 48 bd 57 3c c3 3d
       -0.1472149 -0.10673156 -0.048907805 0.09532993
000220 d7 a5 92 bd b1 98 d6 bd 10 90 b3 3d 91 d9 c8 bd
       -0.07160538 -0.10478342 0.08767712 -0.098071225
000230 40 4c fe 3c 80 e6 60 3d 28 e7 f8 bd c2 44 c2 bd
       0.031042218 0.054907322 -0.121534646 -0.09485771
000240 34 5b 8d bc 44 b0 62 3d d1 b9 8e bd 68 89 1e be
       -0.017255403 0.05534388 -0.069690354 -0.15482104
000250 28 9b 83 bd d9 0f 59 3d 6a f4 e4 3d ee e7 a8 3e
       -0.06426078 0.05299363 0.11179431 0.32989448
000260 78 06 8e bd e7 6a 17 3d bb 05 ec 3d ed ef ab 3e
       -0.069348276 0.036967184 0.115245305 0.33581486
000270 f9 f8 0a bd 18 ca 19 bd 5a b4 6f 3c ad cd 19 3e
       -0.033928845 -0.037546247 0.0146304015 0.15019865
000280 68 db b2 3d 22 47 ca bd 49 a7 96 3d 89 6c d2 bd
       0.08733255 -0.09876849 0.07356126 -0.10274608
000290 f9 ad ba 3d ba 83 f4 bc 74 3f e2 bc 64 69 46 3e
       0.09115214 -0.029847968 -0.027618147 0.19376141
0002a0 1e 11 c8 bd 05 62 00 3e a8 96 b2 3d 52 d8 ed 3c
       -0.0976889 0.12537391 0.08720142 0.029033814
0002b0 64 68 d0 3d 1b 48 24 3d 9a f7 d4 bc f9 ba 1e 3e
       0.10176161 0.040107828 -0.025996972 0.15501012
0002c0 c6 4d ca 3d d8 40 99 3d 6d 6b ee bc 28 da 9c 3d
       0.09878115 0.07483071 -0.029103959 0.076587975
0002d0 3a ec 6f 3d f5 8c bb 3d 00 8b 41 3e bc 36 ba bd
       0.058574893 0.09157745 0.1890068 -0.09092471
0002e0 c2 43 37 3d 68 6d 81 bd e9 3a 94 3d a5 21 7a bd
       0.044742353 -0.06319696 0.07237799 -0.061067242
0002f0 cb d5 df bd 93 ab 4b 3e d6 7e 14 3e d6 74 10 3d
       -0.1092945 0.19889669 0.14501509 0.035267673
000300 31 59 3e bd dd 90 d1 bd 08 c1 e9 3b df a7 16 3c
       -0.04647178 -0.102327086 0.007133607 0.009195297
000310 b8 6f b2 bc 15 83 cc 3d 7b 2a b1 bc 58 32 3f bd
       -0.021781787 0.099859394 -0.021626702 -0.04667887

rnn.bias_hh_l1 f4 [200]
000000 80 eb b6 3d 7c 1b 58 3e 01 2f 83 bb 82 07 ab 3b
       0.08931637 0.21104234 -0.004003406 0.005219401
000010 c4 d3 a1 3c 4e 3c be 3e ed 8c 5a 3d f9 80 ec bd
       0.019754298 0.37155384 0.053357054 -0.11548037
000020 34 27 4a 3d 41 7b b0 3c 16 18 4f 3e aa 71 44 3d
       0.049353793 0.021543147 0.20224032 0.04795996
000030 08 c0 25 3e be 44 70 3d ba b2 dc bd e1 6c 0e bd
       0.16186535 0.058659308 -0.10776277 -0.034771804
000040 19 9b fc 3d 30 f4 1f 3d 64 8d 0b 3e 4d 33 37 3e
       0.1233427 0.039051235 0.13628155 0.17890663
000050 00 e0 f9 bd ff be e8 3d a2 41 cd 3b 17 c3 b4 bd
       -0.12200928 0.113645546 0.0062639276 -0.08826273
000060 da 0c f4 3d 79 1a 57 3b 71 ec a6 3e dc 7a 17 3e
       0.11916514 0.0032822175 0.32602265 0.14792961
000070 85 58 e6 bc 43 e0 24 3e df 7c ee 3d 29 6d 95 3d
       -0.028118381 0.16101174 0.11644911 0.07296211
000080 02 0d 33 3e 04 52 15 3e a2 d1 52 3e d1 f9 27 3e
       0.17485431 0.14582068 0.20587781 0.16403891
000090 77 86 59 3e 9f 1c 17 be 3c f8 8c 3c 1a d0 6e 3e
       0.212427 -0.14757012 0.017208211 0.23321572
0000a0 44 88 1c 3c f4 ed 0f 3e 2f ff 3d 3e 0e a9 1e bd
       0.009553973 0.14055616 0.18554376 -0.038735442
0000b0 03 bf 95 3d a7 70 73 bd d1 ae 48 3e f6 eb 11 3e
       0.07311823 -0.059433606 0.19597937 0.14250168
0000c0 2e d7 f5 3d e7 c3 68 3e 22 28 75 bd e2 03 fb 3d
       0.12003933 0.22730981 -0.059852727 0.122566
0000d0 93 64 10 3e 6e 9f e5 3d 80 7b 8a 3d b0 78 b9 bd
       0.14100866 0.112120494 0.06761837 -0.090562224
0000e0 c1 43 88 bd 37 3e e6 bd e4 c3 1b 3d d6 e3 5f bd
       -0.06653548 -0.11242335 0.038028613 -0.05466064
0000f0 b2 68 e1 bd ee 57 ca bd 30 fc 81 3d 23 dc f1 bd
       -0.11006297 -0.098800525 0.06346929 -0.11809566
000100 1b c9 dd bd 6a ac 52 bd 64 c0 72 3d 40 1f e5 bc
       -0.108293734 -0.051433958 0.05926551 -0.027969003
000110 68 6b c3 3d 1e 8e 2d bd fc 1b b1 3d ec 90 d4 3d
       0.095419705 -0.04237186 0.08647916 0.10379204
000120 e0 fe 22 3c c0 74 14 3d 78 75 be 3d e2 de 3e bd
       0.009948462 0.036244154 0.09299749 -0.046599276
000130 96 38 39 bd 22 d6 d2 bd a6 23 78 bd 6e 4c 47 bd
       -0.04521998 -0.10294749 -0.060580872 -0.048656873
000140 84 55 ec bd c1 55 e3 bd 92 ab fb bd 70 98 4c 3c
       -0.11539748 -0.11100341 -0.12288584 0.012487516
000150 2a ff df 3d c6 d2 ef 3d 97 1a d6 bd a6 a0 c0 3d
       0.109373406 0.11710124 -0.1045429 0.09405641
000160 2d c4 0c 3e 6b dd 08 3e 20 9b 89 3b 50 f5 d8 bd
       0.1374671 0.13365714 0.0041994005 -0.10593665
000170 74 4e 0e be 1e a9 e0 3d a2 1c b5 3d 00 82 c6 ba
       -0.13897115 0.109697565 0.08843352 -0.0015144944
000180 38 a2 96 bc 72 af 81 3d b4 d4 80 3d 00 5d 42 bd
       -0.018387899 0.06332292 0.0629057 -0.047451973
000190 af dd 97 bd 2b 1d f5 3d 20 6b dc 3d ea d5 0c bd
       -0.0741533 0.11968454 0.1076262 -0.03438369
0001a0 7e 6c ae bd 3b 13 b2 3c 1a ec 1f 3c 11 e6 00 be
       -0.08516787 0.021737685 0.009760881 -0.12587763
0001b0 65 48 18 3e c6 94 f7 3c 49 dc 30 3d 3d b3 73 3d
       0.14871366 0.030222308 0.04317883 0.059497107
0001c0 9b d6 cb bd 05 ca d5 3d b6 18 c8 bd 21 8f 1c be
       -0.09953042 0.10438923 -0.09770338 -0.15288974
0001d0 ce 48 a6 3d ea 7b 12 3e cf a0 b1 3c 19 8a 2e 3d
       0.08119355 0.14305082 0.021683125 0.04261217
0001e0 96 17 81 3d 81 8f 7a 3d aa cc 56 3c 05 9e dd bd
       0.06303327 0.061172012 0.013110319 -0.108211555
0001f0 e1 ac d6 bb a9 4a ec bd 80 54 03 bb 77 4c ce 3d
       -0.0065513705 -0.11537678 -0.002003938 0.10073178
000200 94 8f d8 bd 0d cd 29 bd 04 40 3e bd 63 50 5a 3c
       -0.1057426 -0.041455317 -0.04644777 0.01332483
000210 92 45 e5 bc f7 6b 4a 3d 8b 0f 0f 3e 09 0a bd bb
       -0.027987275 0.04941937 0.13970773 -0.0057690185
000220 ac 17 0a be 02 a2 b1 bc 44 0a bf bc 07 f1 8f 3d
       -0.13485593 -0.021683697 -0.023320325 0.07028394
000230 44 3a 12 3e dd 45 b6 3d 1e 63 a8 3d 17 5d b8 3c
       0.14280039 0.08900044 0.0822203 0.022505326
000240 dc 1e 05 be 0b 92 12 3e a3 81 82 bd c2 03 d8 3d
       -0.13000053 0.14313523 -0.063723825 0.10547592
000250 44 71 ae bc d5 1c c0 3d a3 11 52 3e c3 a5 50 3e
       -0.021294244 0.09380499 0.2051454 0.20375733
000260 a7 02 7e bd 42 12 6b 3d ed c6 4c 3e 15 6f 78 3e
       -0.06201425 0.05739046 0.19997759 0.24261124
000270 16 7c 29 3e 87 a3 a8 3d 94 12 84 bd 4c bd d9 bd
       0.16551241 0.08234315 -0.06448856 -0.10631809
000280 14 5a f3 3c f9 cf 36 3d 08 3c 1b 3d 41 ac 18 3e
       0.029706039 0.044631932 0.037899047 0.1490946
000290 28 08 fe bd 5f cc fb 3c 18 58 21 3e f8 a7 4b 3e
       -0.124038994 0.0307371 0.15756261 0.19888294
0002a0 4b 69 1b bc c4 66 6e 3d 48 b0 a4 3d 16 78 39 bd
       -0.009485553 0.058203474 0.080414355 -0.04528054
0002b0 62 7f 92 3e 49 19 89 bd b3 43 5d bb 78 e7 69 3d
       0.2861281 -0.06694276 -0.0033762276 0.05710551
0002c0 c9 aa a1 3d 52 bd 0a 3e be 0f 28 3d bb 0d ea 3d
       0.07893903 0.13548782 0.041030638 0.114284
0002d0 55 dd 12 bd 79 66 0b bd c8 89 63 3e c9 95 a2 3d
       -0.03585561 -0.034033272 0.22220528 0.079387255
0002e0 23 f2 1a 3e 67 51 f4 3d a7 76 63 3e ec 0d a7 3c
       0.1513143 0.11929589 0.22213231 0.02039238
0002f0 a7 30 08 be 6b 4f 61 bc b6 2b 05 3e 11 c9 be bd
       -0.1329981 -0.013751845 0.13004956 -0.09315694
000300 88 06 d7 3d 10 62 9c bd 63 66 ce 3c 32 b5 31 3e
       0.104992926 -0.076358914 0.025195306 0.17354277
000310 5f d2 4f 3d 9d c3 13 3c 6a a7 27 bd 6a c7 3c bd
       0.050737735 0.009018806 -0.040931143 -0.046088614
