LSTM_for_PDE/codes/models/LSTM_NS.pth (torch, 130949 bytes, 10 tensors)

rnn.weight_ih_l0 f4 [200, 4]
000000 cc 41 9f 3e a4 ca 3a be 7d 39 8f 3d ba 56 56 3e
       0.31104887 -0.18241364 0.06993387 0.20931521
000010 49 f9 af be c0 47 e3 bd c1 53 6d 3d 0f 44 6f 3c
       -0.34369877 -0.110976696 0.057941202 0.014603629
000020 cd 0a e1 3e 2c 3f fd bd f1 f1 c0 bd e1 d3 b7 bc
       0.43953553 -0.12365565 -0.09421147 -0.022439899
000030 63 fd c2 be 43 8c 1b be 1f 1e 99 3d 67 3b 39 3e
       -0.38083944 -0.15190224 0.07476448 0.18089066
000040 03 5b c9 3e 59 85 3f 3d 8c a8 91 3e 0a b2 18 3f
       0.3932725 0.04675803 0.28448904 0.59646666
000050 fa e3 86 be 0b 5c c2 bd 6e f1 36 3d 8f 16 85 3d
       -0.26345807 -0.09490212 0.04466384 0.06498443
000060 3c 0b cf 3e d9 c0 83 3c 48 38 4c bd 24 a5 fc bc
       0.4043826 0.016083168 -0.04985836 -0.030840464
000070 86 4d 84 3b 94 db 8c bc be f2 18 bd 36 3c d3 bb
       0.004037562 -0.017194547 -0.037340872 -0.0064463867
000080 ce b7 72 be 5b 3b 13 3e b9 71 1c bd 48 b7 2f 3e
       -0.23702928 0.14378111 -0.038194392 0.1715976
000090 88 7f c8 bd 8c 91 04 3e 28 61 13 be 95 b2 96 3e
       -0.0978995 0.12946147 -0.14392531 0.29433122
0000a0 b0 b9 fb bd f4 83 89 be ea 08 10 3e 31 c4 29 3e
       -0.122912765 -0.26858485 0.140659 0.16578747
0000b0 66 4a 90 3e 6d 04 72 3d 55 49 fb 3b 3d 2e a5 3c
       0.28181762 0.059086252 0.007668654 0.02016365
0000c0 37 8f 9f 3d 4c 13 1d 3d 5f b1 bb 3d d1 7f ea 3d
       0.07790988 0.03834848 0.0916469 0.1145016
0000d0 a3 ee 2e bf de 6a d5 3d 18 73 01 bf 43 f1 76 3f
       -0.6833288 0.10420774 -0.50566244 0.96461886
0000e0 2b 78 93 be 94 08 34 3e 88 d5 27 3d 85 ad 35 3e
       -0.28802618 0.17581397 0.040975124 0.17741974
0000f0 11 86 8f be 8b 91 17 be e6 8e c7 bc 55 1b fd 3d
       -0.28031972 -0.14801614 -0.024360131 0.12358729
000100 32 d0 d7 3e f7 11 e4 bd 1b 65 ef bd c5 96 81 3d
       0.42151028 -0.11136239 -0.11689206 0.06327585
000110 b3 fb a3 3e 2e fe 8b bd 04 58 1d be 83 c7 6b 3e
       0.3202797 -0.0683559 -0.15365607 0.23025326
000120 c9 c5 0b be 60 f9 38 3d 9b 11 3b 3b 83 82 0b 3e
       -0.13649668 0.045159698 0.002854443 0.13624005
000130 71 81 4d 3e bd 30 85 ba b7 7c 5f be 24 66 29 3e
       0.20068909 -0.001016162 -0.21824919 0.1654287
000140 f6 80 9b 3e 11 ab 0d be f7 1c f7 3d c7 d5 e9 3d
       0.30371827 -0.13834788 0.120660715 0.11417728
000150 51 35 4e be ae 2c bc bb f7 ec a2 3d 18 2b 68 3e
       -0.20137526 -0.005742631 0.07955354 0.22672689
000160 18 06 85 be 1c 26 74 bc f1 09 99 bd d1 6a e2 3d
       -0.25981212 -0.014901664 -0.07472599 0.1105553
000170 ab c5 73 3e f0 b6 a3 be e7 cb d4 3d 1d 19 e3 3d
       0.23805873 -0.31975508 0.10390454 0.11088774
000180 29 8b 13 be 46 19 20 3e 26 b0 20 bd 86 01 7a 3a
       -0.14408554 0.15634641 -0.03923049 0.000953697
000190 84 59 b9 be 18 dd 17 3c 00 75 0a bd 60 29 cc 3c
       -0.36201108 0.009269021 -0.033802986 0.024922073
0001a0 44 3f 95 3e 99 5d 6a bd e0 5b 14 be f5 c2 74 3e
       0.2914983 -0.057218168 -0.14488173 0.23902495
0001b0 b7 b5 93 3e 67 71 07 be a6 58 15 3d fb b6 0a bd
       0.28849575 -0.13226853 0.036461495 -0.03386591
0001c0 8d 2b 1d be 03 62 59 3d 66 98 2f 3e 7a ff fb 3c
       -0.15348645 0.053071987 0.17147979 0.03076147
0001d0 86 7b b2 be fe c4 47 3c 94 0d 27 3e 59 9d 9b bd
       -0.34859866 0.012192963 0.16313773 -0.07598371
0001e0 5f 94 97 be b3 10 b8 3d fe c5 9a 3d 32 c1 64 3e
       -0.29605386 0.0898756 0.07557295 0.22339323
0001f0 c8 84 fa be 3e 6b 3f bd 1a 16 59 3d 1c f9 cf 3d
       -0.4892943 -0.046733133 0.052999593 0.10154936
000200 da ae 01 3f b9 75 d2 3d c1 43 e7 bc 7b a1 8b bd
       0.5065743 0.1027636 -0.02823055 -0.06817909
000210 bb 2b 5f 3f cc ca 16 be 05 09 80 be 17 a3 44 3f
       0.871761 -0.14725798 -0.2500688 0.76811355
000220 77 29 b6 be eb 4c db bd 42 eb af bd a0 b8 67 3d
       -0.3557851 -0.1070803 -0.08589794 0.056572556
000230 02 ba ac be ce 87 86 3d 4a e7 b5 bd 40 19 93 3d
       -0.33735663 0.065688714 -0.088820055 0.071825504
000240 fa 47 34 be 21 e1 25 be 90 21 41 3d 78 05 45 bb
       -0.17605582 -0.16199161 0.04715115 -0.0030063074
000250 41 00 60 be c5 1e 0f 3e 13 f3 8c 3d 81 27 d5 bc
       -0.21875097 0.13976581 0.068823 -0.026019813
000260 83 99 7d 3d c3 1d 27 bd 6f 8c 13 be ed 4b 53 3d
       0.06191398 -0.040799867 -0.1440904 0.05158608
000270 10 8d 28 be ed cd d7 bd 27 2c 49 be b9 d2 16 3e
       -0.16460061 -0.10537324 -0.19645749 0.14728822
000280 2c 8b af be 00 4a 1a bd aa e2 54 3e 6c 36 b6 3e
       -0.34285867 -0.03766823 0.2078959 0.35588396
000290 11 2e 86 3e 56 c5 26 3d b7 83 0f be 47 f7 90 3d
       0.2620702 0.040715538 -0.14015089 0.070784144
0002a0 ec 9b ff 3d e1 87 04 3e 6e ef 8f 3d c0 5c 54 3d
       0.124809116 0.12942459 0.070280895 0.051846266
0002b0 f0 29 43 3e a4 6a 3d 3d 01 02 10 be 2c 5a ab 3d
       0.19058967 0.04624428 -0.14063264 0.08366808
0002c0 ea cf 89 be 71 e7 ff 3d 7e 33 63 3d 01 f5 24 3d
       -0.26916438 0.12495316 0.05546903 0.040272716
0002d0 8b a6 a6 be d2 af 40 3d a4 89 95 3d e2 c0 b1 3c
       -0.32548937 0.047042675 0.073016435 0.021698419
0002e0 26 29 e7 be 08 ab f3 be c6 ee 28 bd 95 28 ea 3e
       -0.4514858 -0.47591424 -0.041243337 0.45734087
0002f0 31 c7 98 3e a8 4a 18 3e 7b 4d 54 bd 36 c2 2b bd
       0.2983947 0.14872229 -0.051831704 -0.04193326
000300 a5 54 06 3d fe 12 4b 3c 45 88 e5 bd 4c 01 32 bd
       0.032795567 0.012394665 -0.11207632 -0.043458268
000310 47 00 19 bf b0 62 ad be fc ea da bd 64 14 65 3f
       -0.5976605 -0.33864355 -0.10689351 0.8948424
000320 35 88 ac bd f4 88 e8 bc 6c ed eb bd 42 36 fc 3d
       -0.08424417 -0.028385617 -0.11519894 0.12315036
000330 d0 c2 03 3d e8 be a4 3c e0 ac 9c 3b 62 53 e8 3d
       0.03216821 0.020110562 0.0047813505 0.11344029
000340 6c 0c bb 3d bd f6 b6 bd be 21 86 bd 8e e7 bd bd
       0.09133229 -0.0893378 -0.065494046 -0.09272681
000350 6c f3 b8 bd 48 91 a2 bd a0 f7 55 bd 86 f0 c5 bd
       -0.09030804 -0.079378664 -0.052238107 -0.09665017
000360 d0 5d 9a 3d c0 ce ab bb 4c 80 40 3d 24 e8 c2 bc
       0.075374246 -0.0052431524 0.046997353 -0.023792334
000370 de e2 e0 bd 6c 13 00 3d d8 91 ad 3c fa ee c9 3d
       -0.109807715 0.031268522 0.021187708 0.09860034
000380 c2 e0 77 bd 25 3c 00 3e c8 e9 9b 3d a4 bb bf bc
       -0.06051708 0.12522943 0.076129496 -0.023404904
000390 af 66 09 be fd 9c 07 3e 0d 88 8a bd fc 97 98 bd
       -0.13418077 0.1324348 -0.06764231 -0.07450864
0003a0 80 64 53 bb f7 ea d6 bd 36 a9 e6 3d 45 d1 01 3e
       -0.0032255948 -0.10494035 0.11262743 0.12677486
0003b0 00 10 14 bb 5d f6 05 3e 60 ce 9e 3d e8 05 02 3d
       -0.0022592545 0.13082261 0.07754207 0.031743914
0003c0 f6 a0 b3 3d 42 49 d0 3d aa eb ee 3d 0c 71 c4 bd
       0.08770935 0.10170223 0.11666043 -0.095918745
0003d0 52 7c cf 3d 86 5f 86 3d 44 59 1d 3d 50 15 ff bc
       0.10131134 0.065611884 0.03841521 -0.031138092
0003e0 cc 5a 1d 3d 28 0e db bd 20 3c 54 3d 4e 7b e5 3d
       0.03841667 -0.106960595 0.051815152 0.11205159
0003f0 b9 4a 90 bd 34 be 60 bd 98 a3 88 3c 3e 11 d7 3d
       -0.07045502 -0.05486889 0.01667957 0.105013356

rnn.weight_hh_l0 f4 [200, 50]
000000 b0 54 74 3c 85 25 c4 bd d4 50 e5 bd 3a d1 86 3d
       0.014912769 -0.09577469 -0.11197057 0.065828755
000010 c0 49 f3 bc 02 0b c8 3d 98 32 dd 3c 50 79 74 3d
       -0.029698253 0.097677246 0.027001664 0.059686005
000020 32 c8 18 bd 44 80 22 3d 20 6c 98 3d 16 e9 ad 3d
       -0.037300296 0.039673105 0.07442498 0.08491723
000030 d0 bf 97 bc 98 ce 9d 3d 78 42 a9 3d e0 5f fe 3b
       -0.01852408 0.0770542 0.08264631 0.007762894
000040 00 79 cf bd e7 3b 09 3e dc ce 3d 3d d0 40 5e 3c
       -0.10130501 0.13401757 0.046339855 0.013565257
000050 5a ef cf 3d e0 94 be 3b bc 85 07 3d 88 dd aa 3c
       0.101530746 0.005816087 0.033086523 0.020857587
000060 51 84 07 3e af 03 85 bd d2 fb e8 3d 78 ef f4 3c
       0.13234068 -0.06494843 0.11376156 0.029899344
000070 90 c2 00 3c ac 0f 03 bd a0 a9 4f 3c 27 b7 09 3e
       0.007858887 -0.031997368 0.012674719 0.13448773
000080 6e c9 f5 3d b0 a7 c6 bd 94 55 fe bc 20 46 d9 bd
       0.1200131 -0.096999526 -0.031046666 -0.106090784
000090 00 44 b7 39 81 7b ee bd c0 58 c3 3c 9e 13 a6 bd
       0.00034955144 -0.1164465 0.02384603 -0.081092104
0000a0 56 92 8c 3d 60 3d e6 bd e0 55 80 3b 4a c9 2f bd
       0.06863849 -0.11242175 0.003916487 -0.042916574
0000b0 78 a5 01 3d 54 45 df bd c0 41 32 3b b6 d8 e5 3d
       0.031651944 -0.10901895 0.0027199835 0.11222975
0000c0 00 23 89 3b 20 c3 a3 bc 9c a8 37 bd fe 9b ca 3d
       0.0041850805 -0.019990504 -0.044838533 0.098930344
0000d0 38 79 9b 3d ea 10 94 3d d1 17 02 3e ba 61 95 3d
       0.0759148 0.072297886 0.12704398 0.072940305
0000e0 93 ca 9d bd dd 9b 06 3e 7e e4 c2 3d 20 b8 72 bd
       -0.077046536 0.13145395 0.09516238 -0.059257627
0000f0 53 e7 0b 3e db 70 0a 3e 59 be 01 be 30 fa 78 3c
       0.13662462 0.13519613 -0.12670268 0.015196368
000100 34 ad 07 3d 60 15 49 3c 35 98 a1 bd 7a 72 07 be
       0.033124164 0.012273163 -0.07890359 -0.13227263
000110 b4 44 03 be 30 d4 c5 3c ac 87 9f 3d 0f ba e3 bd
       -0.12819177 0.02414903 0.07789549 -0.11119472
000120 38 a2 49 3d c2 f9 f8 3d 58 9d 65 bd 70 94 94 bc
       0.04922697 0.121570125 -0.056058258 -0.018137187
000130 b8 e7 ab bc e8 95 a9 3d a8 bd 35 3d be e5 a0 3d
       -0.020984516 0.082805455 0.044370323 0.0785632
000140 08 52 e5 3c 40 54 4d 3c 29 33 0a be 5e b7 cb 3d
       0.027993217 0.012532294 -0.13496079 0.09947084
000150 c6 4e 33 bd bc 1c 81 3d dc ee 51 3d 38 73 c2 bc
       -0.043776296 0.06304309 0.051253185 -0.023736581
000160 2a be 47 bd e5 80 02 3e d0 a6 40 bd 96 12 ea 3d
       -0.04876534 0.12744482 -0.047034085 0.11429326
000170 fc d8 d4 bc d0 f5 39 3d a5 2a 08 3e de 9d fd 3d
       -0.025982372 0.04540044 0.13297518 0.123836264
000180 4a 3a 3e bd ed 8c 04 3e 9e 70 92 3d bc 60 9e 3d
       -0.046442308 0.12944384 0.07150386 0.07733294
000190 24 35 1e 3d 02 6a 02 be f5 05 f0 bd 38 3f 03 3d
       0.038624898 -0.12735751 -0.11719886 0.032042712
0001a0 00 81 df 3a a4 e1 cc 3d 96 c0 87 3d 30 d0 39 bd
       0.0017051995 0.10003975 0.0662853 -0.04536456
0001b0 60 d8 18 3c 90 77 da bd 12 4f ad bd 28 75 ad 3d
       0.009328932 -0.10667336 -0.08462347 0.084696114
0001c0 1c 97 23 bd bb 5f 0b be 66 e3 ea 3d 1e 19 f6 3d
       -0.03993903 -0.13610737 0.11469154 0.120165095
0001d0 6c 48 24 3d 8f 35 f3 bd 22 d5 cc 3d ea 15 cb bd
       0.04010813 -0.1187545 0.10001589 -0.09916289
0001e0 80 8c 4a bc c2 26 03 bd 65 81 88 bd 89 88 d7 bd
       -0.012362599 -0.032019384 -0.06665305 -0.10524089
0001f0 c0 e8 01 bb cc d5 8d 3d 8c d0 89 bd 17 0a 08 3e
       -0.0019822568 0.06925544 -0.0672923 0.13285099
000200 18 6e 60 bd 78 e2 e3 3c f2 2b 8d bd 02 04 38 bd
       -0.054792494 0.02781795 -0.068931475 -0.044925697
000210 f0 5e ef bd 94 43 c7 bd ce 40 f3 3d c5 98 01 3e
       -0.1168803 -0.097296864 0.11877595 0.12655933
000220 2f a3 10 3e 47 f2 0b 3e 55 4d ed bd 5d a9 f7 bd
       0.1412475 0.1366664 -0.115870155 -0.1209285
000230 38 60 d7 3c 3a 49 a4 3d d9 6a 04 be f3 a9 de bd
       0.026290998 0.08021779 -0.12931384 -0.10872259
000240 0b 06 c5 bd 32 9d d6 3d 6c 9c bf bc 4c 4e 28 bd
       -0.09620293 0.104792014 -0.023390017 -0.041090295
000250 20 da b7 3c 9d 8a 0c 3e 4a 16 9a bd 88 a2 f7 bc
       0.022442877 0.13724752 -0.075237826 -0.030228868
000260 28 4b 4a bd 18 75 0a be 00 85 6a bc d8 37 04 3d
       -0.04938808 -0.1352123 -0.014313936 0.03227982
000270 d0 95 fb 3c 06 23 c2 3d 78 14 7f 3d a0 e2 fd bd
       0.030711085 0.094793364 0.06227538 -0.12396741
000280 72 a4 10 bd d8 81 97 3c 94 09 7a 3d 7c 68 c7 bc
       -0.035313077 0.018494532 0.06104429 -0.024341814
000290 39 97 05 3e 84 e3 04 be e2 d2 14 bd d8 cd 1f 3d
       0.13045968 -0.12977415 -0.036333926 0.039014667
0002a0 63 ca be bd b4 26 37 3d 8e e5 be bd 8a 96 b2 3d
       -0.09315946 0.044714645 -0.09321128 0.08720119
0002b0 3e c7 bb bd be 3a b2 3d 76 ca cf bd c3 78 02 3e
       -0.09168862 0.087026104 -0.10146038 0.1274138
0002c0 ac f6 1c 3d aa fa 4a bd 48 cf ce bd 19 74 0e 3e
       0.038321182 -0.049555458 -0.100981295 0.13911475
0002d0 a8 2c c2 3c 1d 3e 05 be 94 41 1e 3d 90 40 30 3c
       0.023702934 -0.13011976 0.03863676 0.01075758
0002e0 00 24 8e bb 9c 72 88 bc 6c dd c1 3d 0a 7b ab bd
       -0.0043377876 -0.016656213 0.09466061 -0.08373077
0002f0 50 48 64 bd d0 21 b2 bd 88 b8 fc bc 52 d2 8a bd
       -0.055733025 -0.086978555 -0.03084971 -0.06778397
000300 7d a4 06 3e 00 43 d2 ba c3 1a 0a be 16 60 de 3d
       0.13148685 -0.0016041696 -0.13486771 0.10858171
000310 bc 2a 90 bd f2 2b a1 3d b4 0c c2 bd 30 16 e8 bc
       -0.07039401 0.0786971 -0.09475079 -0.028330892
000320 e1 24 0f be 76 69 69 bd f9 fc 0b 3e 40 1b af 3c
       -0.13978912 -0.05698534 0.1367072 0.021375299
000330 2c 83 c8 3d 71 dd 09 be d8 7b 53 bd f1 b1 db bd
       0.09790644 -0.1346338 -0.05163178 -0.10727299
000340 31 68 04 3e 9f 30 0d 3e 38 80 9c 3d e2 9d a8 3d
       0.12930371 0.13788079 0.07641643 0.08233239
000350 e2 17 ab 3d 50 69 54 bc 57 11 0e 3e 57 8e 05 3e
       0.08354165 -0.012964562 0.13873802 0.1304258
000360 4e fa bd bd 28 8c a0 bc f4 e3 44 3d a0 3c 4e 3d
       -0.092762575 -0.019598082 0.048068956 0.050350785
000370 80 6b 55 bb be f3 cd 3d 50 27 e5 bc 58 cf 75 3d
       -0.0032565296 0.10056256 -0.027972847 0.06001219
000380 c0 46 1f bc 8a 3d d6 3d f1 f5 08 3e 7b a6 a1 bd
       -0.009721458 0.104609564 0.13375069 -0.07893082
000390 80 61 9d bb a2 d3 dd 3d 4b 1d ed bd 30 0e 43 3d
       -0.0048028827 0.108313814 -0.11577853 0.047620952
0003a0 af ed 85 bd be ac 85 bd 20 2c fc bc 8f f8 0f 3e
       -0.06539475 -0.065270886 -0.03078276 0.14059661
0003b0 72 68 dd bd 20 80 05 bc c0 ef 4b 3c 00 e8 c4 ba
       -0.10810937 -0.008148223 0.012447298 -0.0015022755
0003c0 58 9f 27 3d 20 b7 b7 3d 9e 9c 69 bd ec 55 e7 bc
       0.040923446 0.08970475 -0.057034127 -0.028239213
0003d0 da 40 ea 3d d4 72 43 3d 74 57 0c 3d 66 66 af bd
       0.11438151 0.04771693 0.03426309 -0.08564453
0003e0 1c 96 31 3d 10 b3 0b bc a2 d8 b9 3d b4 5b 9a bc
       0.043356046 -0.008526579 0.090745226 -0.018842556
0003f0 cc 86 4c 3d 19 48 10 3e 14 57 4e 3d 46 fc e3 3d
       0.04993324 0.14090003 0.050376013 0.11132102

rnn.bias_ih_l0 f4 [200]
000000 99 3e 55 3e 65 f6 88 3d cf 93 a1 3e 4b df 07 bc
       0.2082466 0.06687621 0.31558082 -0.008292983
000010 22 38 c9 3e 4d 2c de 3d 8e 75 8b 3d bd 9a 6c 3e
       0.39300638 0.108482935 0.06809531 0.23105903
000020 a6 57 89 3e 77 d3 01 3d 78 bb e2 3d fc c5 c1 bc
       0.26824683 0.03169581 0.11070913 -0.023653977
000030 96 80 82 3e 4b 5f 18 3f 51 03 fd 3d 08 96 7a 3e
       0.25488728 0.59520406 0.12354148 0.24471295
000040 08 8d 8b 3e 53 a0 01 3e 4f 26 c6 3d 6f 66 6c 3e
       0.27256036 0.12658815 0.096752755 0.2308595
000050 43 5f e3 bc c5 43 69 3d 1f 8f cf 3d 46 d0 8f 3b
       -0.027755385 0.056949396 0.1013472 0.004388842
000060 6a 3a 04 3d 81 ba 4c 3e 51 6d 03 3e 7b a8 36 bd
       0.03228227 0.1999302 0.1283467 -0.04459427
000070 4f 72 ff 3d 92 a4 5c 3d 66 f2 7e 3e e9 04 63 3e
       0.124729745 0.053867884 0.24897155 0.22169842
000080 3d 80 66 3e 75 21 4d 3f bd fd 1f 3e a2 14 8c 3d
       0.22509857 0.80129176 0.15624137 0.06839873
000090 65 53 57 3e 59 00 32 3e 5e 1f 0a 3e 55 5b b3 bc
       0.21027906 0.17382945 0.13488528 -0.021894136
0000a0 56 d9 45 bd 9e d4 dd 3d 86 2e 33 3e e8 a0 0c 3e
       -0.04830297 0.10831569 0.17498216 0.13733256
0000b0 7a 5c d7 3d 5c 8b c8 3d 24 e3 2c 3f 74 68 0c 3e
       0.105156854 0.09792206 0.6753409 0.1371172
0000c0 b3 58 81 3c 0a 10 2d 3f 7c d8 92 bc 73 1a 02 3e
       0.015789365 0.676026 -0.017925493 0.12705402
0000d0 fb d9 dd bd 80 ab 75 3b 76 f2 9d bd bc bc d4 bc
       -0.10832592 0.0037486255 -0.077122614 -0.025968902
0000e0 60 76 0f bc b0 18 e6 3c 88 97 db bd a4 b8 85 3d
       -0.00875625 0.028087944 -0.10722262 0.06529358
0000f0 f4 51 46 bd 11 ce 0a be c4 0c 0d 3d d2 9a f9 3d
       -0.048418 -0.1355517 0.034436002 0.12187733
000100 a6 1c ac bd 7b 5d 95 bd ca 4e 21 bd 18 9b 46 3d
       -0.08403902 -0.072932206 -0.03938178 0.048487753
000110 5e 1a d5 3d 96 74 c2 3d 60 6d 18 3d 10 24 b5 bd
       0.1040542 0.09494893 0.037213683 -0.08844769
000120 b4 9c 54 3d 21 e9 03 be 18 a3 d0 bc f6 e9 ec 3d
       0.051907256 -0.128819 -0.025468394 0.11568062
000130 3a 98 a6 bd d8 c3 5a 3d 50 0e a2 bd 00 e2 d3 39
       -0.08134504 0.053409427 -0.07912886 0.0004041344
000140 fc 9b 04 bd 20 bc 86 3b 4a 07 8a 3d e0 d9 a2 3d
       -0.03237532 0.0041117817 0.067396715 0.079517126
000150 b6 5c 60 bd a0 51 a5 3b 20 5f 3a bc 13 68 06 3e
       -0.054775916 0.005045131 -0.011375219 0.13125639
000160 de 3d 67 bd 48 f3 d8 bd e5 3e d1 bd d0 f7 05 3c
       -0.056455486 -0.10593277 -0.10217074 0.008176759
000170 c0 7f 68 3d 00 a0 05 be f2 c1 07 be 70 54 0c be
       0.056762457 -0.13049316 -0.13257578 -0.13704085
000180 10 40 cd bd 12 fd b9 3d e5 25 0d 3e 9a e2 e4 3d
       -0.100219846 0.090814725 0.13783987 0.11176033
000190 5f 96 ce bd 18 01 c7 3c 1e b3 4b 3d f7 28 cb bd
       -0.10087275 0.024292514 0.049731366 -0.09919923
0001a0 39 a8 00 3e de 37 4c 3c df bf a8 3d ab 99 3f 3e
       0.12564172 0.012464492 0.082397215 0.18710963
0001b0 7c 9d 2b be e0 02 06 be 8e 86 9a 3d 7a c8 16 3e
       -0.16759294 -0.13087034 0.075451955 0.14724913
0001c0 c9 58 7b 3d 7b 08 91 bd a1 4a 93 3c 8d 93 94 3d
       0.06136397 -0.07081696 0.017979922 0.072547056
0001d0 83 c1 d5 3d 5c 7a c3 3d e4 bd de 3d 31 ee 00 be
       0.104373 0.095448226 0.108760625 -0.12590863
0001e0 16 44 eb bd 06 90 67 3d e6 32 df bd e3 71 cb 3d
       -0.11487596 0.056533836 -0.1089838 0.099338315
0001f0 a8 19 25 be 98 a4 a9 bb 17 e4 d1 3d c1 db d7 bd
       -0.16123068 -0.005177092 0.10248583 -0.105399616
000200 06 e8 4a 3d 28 55 f5 bb 01 82 f3 bd a0 03 96 bd
       0.04953768 -0.007486958 -0.11890031 -0.0732491
000210 c7 59 99 3d 04 51 e6 bb e4 ce a1 bd 26 1e df bd
       0.07487827 -0.007028701 -0.079007894 -0.10894422
000220 a6 fb 2e be 00 d6 7e bd 7c 5f 2f 3e 54 e3 43 3e
       -0.17088184 -0.062215805 0.17126268 0.19129688
000230 ad 6a 3d 3e ee 20 46 be 8e a3 d2 3d 89 ee 44 3e
       0.18497725 -0.19348499 0.10285102 0.19231619
000240 bc 61 39 3e 0c 42 0b 3e 35 37 5e 3d fc c0 ed 3d
       0.18103689 0.13599414 0.05425187 0.116090745
000250 dd 5c 0f 3e eb 44 75 3d cb d5 86 3e 06 1f 67 3e
       0.14000268 0.05988018 0.26334986 0.22570428
000260 1a eb 8b 3e de 1b d5 3d 7d fa ff 3e 64 93 d1 3d
       0.27327806 0.10405706 0.49995795 0.10233191
000270 ae 00 77 3d f0 04 53 3e dd 04 4d 3e 14 88 21 3d
       0.060303383 0.20607352 0.20021386 0.039436415
000280 1c d9 0d 3d 63 b7 1c 3e cb fd 0a 3d d8 e4 16 3f
       0.03463088 0.15304331 0.033933442 0.5894294
000290 70 34 19 3e 19 2b 01 3e fa d4 71 3d 92 33 dd 3d
       0.1496141 0.12614097 0.059041 0.10800852
0002a0 2b 80 ea 3d f3 22 92 bb 9c 72 50 3e 36 a9 79 3e
       0.11450227 -0.0044597327 0.2035622 0.24380955
0002b0 22 32 34 3e 7e 9d 2b 3e 5e 8c 24 3e db 78 0c bc
       0.17597249 0.16759297 0.16069171 -0.008573736
0002c0 5f 96 34 3e 94 c7 a9 bd 92 4e 05 3e e9 ff 03 3d
       0.17635487 -0.0829002 0.13018253 0.032226477
0002d0 d6 50 60 3e 51 1a 97 3e 06 bd 9f 3c 34 47 57 3f
       0.21905836 0.29512265 0.019499313 0.8409302
0002e0 9b 27 8e 3d 30 10 c3 bc 09 3c 18 3e 01 69 d7 3d
       0.06941148 -0.02381143 0.14866652 0.10518075
0002f0 8a ee 17 3e 02 39 ef 3d ec d8 4c 3d 6c 64 26 3e
       0.14837089 0.11680795 0.05001156 0.16249245
000300 dc 5e d2 3d c0 93 47 3e 65 a9 39 3e 08 26 44 3e
       0.10271999 0.19489956 0.18131025 0.19155133
000310 43 e9 07 3f 6c 65 9e 3d a0 54 0f 3d 66 20 17 3f
       0.53090304 0.077341884 0.034992814 0.5903381

rnn.bias_hh_l0 f4 [200]
000000 52 69 10 3e d2 bb 19 3e 03 b8 96 3e 58 e4 38 3d
       0.14102677 0.15013054 0.29437265 0.04513964
000010 45 05 f2 3e 11 28 50 3e 08 2b 55 3d b1 42 56 3e
       0.47269645 0.20327784 0.05204299 0.20923878
000020 ed 84 fb 3d 7c bc 5b bb 61 56 4f 3d 60 b8 cd 3d
       0.12281213 -0.0033529093 0.050619487 0.10044932
000030 9d 15 07 3b e3 8e 06 3f c4 ec 1d 3e b9 3a 6a 3e
       0.0020612248 0.5256178 0.1542235 0.22873963
000040 02 41 18 3e 0d 42 2f 3e 26 dd dc bc dc 76 8e 3d
       0.14868549 0.1711504 -0.02696092 0.069562644
000050 08 25 28 3e d3 cf 8c 3e 36 41 99 3d ef ae 16 3e
       0.16420376 0.27502307 0.07483141 0.1471517
000060 dd 39 99 3d 71 eb 4a 3d 80 4f 2e 3e d0 17 20 3e
       0.0748174 0.04954094 0.17022514 0.15634084
000070 0e 77 11 3e 9e 97 6c 3e 9b aa 46 3e 77 f4 3c 3e
       0.14205572 0.23104712 0.19401018 0.18452631
000080 05 6b 52 3e cf 16 5e 3f 0c b5 ea 3d 92 31 41 3e
       0.20548637 0.86753553 0.11460313 0.18866566
000090 6f b6 5d 3d 40 cc 17 bd 26 93 ed 3d d2 d8 0b 3d
       0.05412906 -0.037060022 0.11600332 0.034142323
0000a0 53 32 fa 3d 66 f7 5f 3e b6 0b 3d bd 82 19 29 3d
       0.1221663 0.21871719 -0.046153747 0.04128409
0000b0 53 82 38 39 82 55 2a 3d be 49 15 3f 9f 2e 0c 3e
       0.00017596157 0.041585453 0.58315647 0.1368966
0000c0 74 d0 c9 3d 46 b4 1d 3f d8 fc a4 3d ee 60 ab bd
       0.098542124 0.616032 0.080560386 -0.08368097
0000d0 4a 7b f6 3d 68 04 cf 3c 4f b7 0f 3e 50 2c aa 3c
       0.12035234 0.025270656 0.1403477 0.020773083
0000e0 40 f5 81 bb b8 7f 08 3d 20 ae a0 bd f6 94 ff 3d
       -0.0039660037 0.033324927 -0.07845712 0.12479584
0000f0 9d 20 a4 bd de cf 2e bd 24 b2 c4 3d 58 3b c3 3c
       -0.08014033 -0.042678706 0.0960429 0.023832008
000100 ec a9 c2 bc 70 4f 6d 3c 00 c8 94 bb 76 ba 13 bd
       -0.023762666 0.014484271 -0.0045404434 -0.036066495
000110 26 26 ad bd a8 71 94 3c 98 40 6a 3d 90 25 d8 3d
       -0.08454542 0.018120602 0.057190508 0.105540395
000120 86 a5 12 bd 00 2f c1 3d c2 7b 46 bd a4 12 60 bd
       -0.035802387 0.09432793 -0.04845787 -0.054705277
000130 40 ac ab bb 98 2f 1b 3d a0 f7 e9 bd d0 e0 18 bc
       -0.0052390397 0.037887186 -0.11424184 -0.009330943
000140 3a cf 05 be 87 0d 87 bd 0c 6c 2e 3d 70 38 76 3d
       -0.13067332 -0.06594377 0.04258351 0.060112417
000150 04 eb a4 bc d4 e3 ae bd bc dc 20 3d d0 01 41 3d
       -0.020131595 -0.085395485 0.03927301 0.04712087
000160 d0 57 91 3c d8 1b 08 be 2b 47 f0 bd 58 18 23 bd
       0.017742068 -0.13291872 -0.11732324 -0.039818138
000170 61 ae 04 be dc cf a0 bc 82 15 96 bd e2 51 21 bd
       -0.12957145 -0.019630365 -0.07328321 -0.03938473
000180 28 0f 90 bc 0b 69 c1 bd a0 8a 55 bc c0 9d 95 3b
       -0.017585352 -0.094438635 -0.013033539 0.0045659244
000190 85 73 08 bd dd a3 dc bd 49 3c 3d 3d 5e 17 b8 bd
       -0.033313293 -0.10773442 0.04620007 -0.08988832
0001a0 64 95 da bc da 86 38 be 9b 29 12 3d 45 2c 96 3d
       -0.026682563 -0.18020192 0.03568421 0.073326625
0001b0 48 85 2b 3d dd b5 f0 bc 0e 32 82 3d db 69 98 3d
       0.041875154 -0.029383594 0.063572034 0.07442065
0001c0 da f0 07 3e 6f f5 9c bd 85 27 4c 3e d5 f6 e6 bc
       0.13275471 -0.07664 0.1993695 -0.02819387
0001d0 56 19 72 bd 8a 15 f2 3d 34 d1 c8 3d ef 50 2b be
       -0.059106193 0.118205145 0.09805527 -0.16730092
0001e0 99 aa 0a be 68 37 37 3e 8f 22 c8 bd 0d bc e0 3d
       -0.1354164 0.1789223 -0.097722165 0.10973368
0001f0 e3 93 af 3c 8b 58 33 be eb 26 f3 3d 9c 69 0c be
       0.021432823 -0.17514245 0.118726574 -0.13712162
000200 83 44 3d 3d b5 b6 e6 bd ae b4 3a bd 17 05 9f bb
       0.046207916 -0.11265317 -0.045582466 -0.0048529017
000210 46 64 e2 bd 21 7a 2e be c0 56 22 be 65 ce aa bc
       -0.11054282 -0.17038776 -0.15853405 -0.02085037
000220 6d 19 6d 3b 08 06 2e 3e ba 2c c3 3d c3 f0 f4 3d
       0.0036178485 0.16994488 0.09530015 0.11959984
000230 b1 46 a0 3c 46 a8 ab 3d 41 d2 c1 3d 42 e3 0b 3d
       0.019564958 0.08381705 0.09463931 0.034152277
000240 38 ab a1 3d 83 77 3b 3e b1 ad 09 be f4 00 b4 3d
       0.078939855 0.18307309 -0.13445164 0.08789244
000250 3b f2 3d 3e 15 06 9b 3d a0 f8 ac bb 5d fb 0e 3e
       0.18549435 0.075695194 -0.005278662 0.13963075
000260 ca 0d e4 3d 2c 4a 6d 3c 8a 22 eb 3e cb 8a c4 3c
       0.111354426 0.014483016 0.4592479 0.023991963
000270 92 34 b3 3d a4 c6 f9 bc f7 8b 5c 3b 99 89 35 3e
       0.08750261 -0.030490227 0.0033652761 0.1772827
000280 26 8e 6d 3d eb 31 d2 3d 39 d7 04 3d 6d ae 10 3f
       0.05799689 0.10263427 0.032431815 0.5651615
000290 d0 d1 82 bb 4d 12 43 3e 20 dd 25 3e 62 7c 61 3c
       -0.0039922968 0.1904995 0.16197634 0.013762565
0002a0 be 5f 14 3e 56 53 ae 3d 1a 9d 1f bd e9 d3 f8 3d
       0.14489648 0.08511989 -0.038968183 0.12149794
0002b0 77 6a 25 3e 63 e4 ba bc 97 1e fe bb 76 2b 05 3e
       0.16153894 -0.022813981 -0.0077551114 0.1300486
0002c0 85 61 8c 3d d4 51 2c 3e e9 1e ff 3d be f2 5c 3d
       0.06854538 0.1682809 0.124570675 0.053942434
0002d0 23 18 bf 3b 64 40 64 3e 38 0f 46 3e 72 1b 5d 3f
       0.0058317347 0.22290188 0.19341743 0.86370003
0002e0 2c bb d4 3d 9a 84 01 3e 56 fd 8e 3d 26 c9 33 3e
       0.10387263 0.1264824 0.06981914 0.17557201
0002f0 37 32 03 3e 33 1f 5b 3e 11 3f 38 bd f2 b2 a6 ba
       0.12812124 0.2139862 -0.04498202 -0.0012718125
000300 c3 24 4d bd f6 0a 98 3d a9 8d 61 3e 06 0a 34 3d
       -0.050083887 0.07423966 0.22026695 0.04395487
000310 8e 4e 24 3f d2 cc 8b 3d df be 8a bc e8 f6 18 3f
       0.64182365 0.06826176 -0.016936718 0.5975175

rnn.weight_ih_l1 f4 [200, 50]
000000 ff bc 6c 3e c9 ab 65 bd 18 c8 96 3c 11 e1 23 3e
       0.23118971 -0.05607203 0.018405959 0.16003825
000010 89 86 14 be 6a 93 dc bd 5b 03 d0 bd e3 e2 fd 3d
       -0.14504446 -0.107703045 -0.1015689 0.12396791
000020 09 8f ac bb ee 95 77 be 6a 59 a9 3d a4 c4 5a bd
       -0.0052660746 -0.24178287 0.082690075 -0.053410187
000030 00 58 de 3d 42 0e 22 bf 51 b4 83 3e e8 32 b5 3d
       0.108566284 -0.63303006 0.25723508 0.088476
000040 5b b2 09 be 06 84 eb bd 12 7f 9a 3e 51 f0 7c 3c
       -0.13446943 -0.11499791 0.30175072 0.015438155
000050 89 92 7b 3b dd 17 96 3e b9 51 f3 3b 32 a3 8c bd
       0.0038386902 0.2931508 0.0074255136 -0.068670645
000060 ab b2 71 be df 10 e3 bd 46 0b 2c bc 32 04 21 be
       -0.23603313 -0.11087202 -0.010500735 -0.15724257
000070 fe 9b 68 3e 1f d2 0d 3d 0c e2 90 be 03 e6 8f be
       0.22715756 0.034624215 -0.2829746 -0.28105173
000080 de 0c b8 3c f2 16 40 bf f4 15 3d be e7 f0 c1 bd
       0.022467073 -0.7503501 -0.18465406 -0.094697766
000090 78 fa d6 bd 1a 7e 39 3e 90 ad b9 3d 13 22 01 3e
       -0.10496992 0.1811451 0.090663075 0.12610655
0000a0 61 d5 14 bd d2 d1 b5 3d 11 13 c5 3d b0 54 12 3e
       -0.036336306 0.08877911 0.09622777 0.14290118
0000b0 65 54 2c 3d 3f 50 21 3e c3 db cd be 8d 8b 73 bd
       0.042072672 0.15753268 -0.40206727 -0.059459258
0000c0 10 d1 e9 3c d6 bf cb 3e e0 35 af 3d ad 6f 8c bd
       0.028542072 0.39794797 0.08555198 -0.06857238
0000d0 cb 0e 54 3e 3e 06 f1 bb 45 7c b8 3d 36 34 54 bd
       0.20708768 -0.0073554805 0.090080775 -0.051807605
0000e0 10 81 0b 3e f2 e6 9b 3d a9 db 01 be 87 e0 ed bd
       0.13623452 0.07612409 -0.1268145 -0.11615091
0000f0 4c 0e ce 3d 10 80 8a 3d 96 c2 f3 3d ca 90 4d bf
       0.10061321 0.06762707 0.11902349 -0.80299056
000100 de 10 48 3e 90 fb 82 bd 0e 55 09 3d aa f9 58 3c
       0.19537684 -0.06395638 0.03352838 0.013243118
000110 7b bd 6d 3e 63 ab 2e be de 12 90 bd 94 c8 ba 3e
       0.23216812 -0.17057566 -0.07034849 0.36481154
000120 c9 d3 39 be b6 61 de 3c 45 23 84 be 7b 0a ac be
       -0.18147196 0.027146202 -0.2580816 -0.33601746
000130 32 2d 0d 3d 77 af 4d 3d 51 de c9 3d 43 23 d2 bc
       0.03446693 0.050216164 0.098568566 -0.02565158
000140 55 fc b9 be a9 b7 b8 be f7 5c 35 be 64 3d e5 be
       -0.36325327 -0.36077622 -0.17711245 -0.447734
000150 f0 a2 19 bd 38 da c8 bd 49 0e c2 bd c3 d9 f7 3d
       -0.037508905 -0.09807247 -0.09475381 0.121020816
000160 ce 8f 61 3d 3f db 27 3e 37 44 43 3b f1 21 87 3d
       0.055068783 0.1639223 0.0029795298 0.06598271
000170 3d 54 fe 3c 22 29 9d 3d a5 be 42 3d 68 f8 12 3e
       0.031046027 0.07673861 0.047545094 0.14352572
000180 6d fa 01 bf f5 35 5c bc 1b 05 c8 3d 2e eb fd 3e
       -0.50772744 -0.013440599 0.09766599 0.4959349
000190 0a c4 4d be 1e e7 98 be e4 86 19 3f c0 8c 27 3e
       -0.20094314 -0.29863828 0.5997145 0.16362286
0001a0 3f 10 aa 3e 3b 58 ac be d8 08 84 3e be 7f fb bd
       0.3321552 -0.33661065 0.25787997 -0.12280224
0001b0 f0 8c 5b be ef c9 87 be 97 fc 29 3c ac e1 2a 3d
       -0.21440482 -0.2652125 0.0103751635 0.041719124
0001c0 e5 34 7e 3e c3 b4 4a bf dc ea 7e 3b 42 b7 f9 bc
       0.24824865 -0.7918207 0.0038897311 -0.030482892
0001d0 e0 9e eb 3e 10 5e 9f 3e 81 53 54 3d fd 2c 42 be
       0.4601965 0.31126451 0.051837448 -0.18962474
0001e0 ff 88 78 be 9f 16 b8 3e b1 73 77 be bd eb 27 bd
       -0.2427101 0.3595476 -0.24165227 -0.040996302
0001f0 88 30 32 be 9c 8a ae be 2b 2f a1 3d 54 46 e6 bd
       -0.17401326 -0.34090126 0.07870325 -0.11243883
000200 6d 8c d7 3d 7d 9f 0c be ab 8f ca be 0a 51 93 be
       0.10524831 -0.13732715 -0.39562735 -0.28772765
000210 d8 8b be be 18 22 70 bf cc e2 2e be 73 c0 03 be
       -0.37216067 -0.9380202 -0.17078704 -0.12866382
000220 75 0d b5 be b7 24 02 3d 6a 70 bf 3e e4 f4 b9 3e
       -0.3536183 0.031773295 0.37390453 0.3631965
000230 ef 89 7c be b6 c9 2e be 4c 7f ec 3d 3e 34 27 3e
       -0.24661992 -0.17069134 0.115477175 0.16328523
000240 3a d2 0d 3d 7c 2f ad 3e b6 ef 01 bf 05 0f 95 3d
       0.034624316 0.3382529 -0.50756395 0.072782554
000250 87 fa a8 3d 70 90 25 3f 84 7c 9f be 95 66 04 be
       0.08250909 0.6467352 -0.31149685 -0.12929757
000260 93 f8 15 3e 49 c9 8f bd 72 ec 9a 3e c6 9e e1 bd
       0.14645605 -0.07020814 0.30258518 -0.11016612
000270 16 aa 65 3e 37 e0 ae 3d f7 46 fe 3c 63 19 62 bd
       0.22428164 0.08538859 0.031039698 -0.055199992
000280 6e 4a 2f 3e b4 42 76 3d ee 86 98 bc dd 46 e4 be
       0.17118236 0.060122207 -0.018619027 -0.44585314
000290 ad 22 c2 3a 55 2d 09 be d6 0e cf 3c 07 6c 37 3e
       0.001481136 -0.13396199 0.025275629 0.17912303
0002a0 df 90 7c 3e 35 0f 10 be d4 6a de bd 77 5d 5a 3e
       0.24664639 -0.14068301 -0.108602196 0.21324717
0002b0 bb d6 8d be 4b 01 69 3e 88 7a 47 be f4 bb 0f be
       -0.2770289 0.227544 -0.19480336 -0.14036542
0002c0 6e b0 11 3e 5a dc 05 be f8 a6 39 3e bd 05 40 bd
       0.14227459 -0.13072339 0.181301 -0.046880472
0002d0 48 71 4b be 6b 44 9d be 53 ff 33 be 5b 62 0f bf
       -0.19867432 -0.3071626 -0.17577867 -0.56009454
0002e0 10 8a cc bd ae 63 c1 bc 33 87 48 be 51 13 98 3d
       -0.09987271 -0.023607101 -0.19582824 0.07425559
0002f0 a8 cc 27 3c 62 4b 39 3e 32 67 b1 bd bb 48 f7 3a
       0.010241665 0.18095163 -0.08662261 0.001886628
000300 f1 1e e3 3d c0 72 6b 3e a0 b4 fe 3d 9a 0d c4 3d
       0.11089886 0.22992992 0.12436795 0.09572907
000310 0d aa 06 bf 25 23 b7 3c 42 23 1c 3e 88 ba cc 3e
       -0.52603227 0.022355625 0.15247825 0.39986062
000320 5c de ca 3c c8 88 b4 bd 5a f2 96 3e f4 bb 0e 3e
       0.024764232 -0.088151515 0.29481775 0.13938886
000330 1e b3 8c bd 6e 65 e8 bd 94 e4 82 bd b9 01 c3 bb
       -0.068701014 -0.11347471 -0.06391254 -0.005951133
000340 c3 31 8d bd f6 ec 7a 3d ca d3 b4 3d 5d d8 b4 3d
       -0.06894257 0.06126114 0.08829458 0.088303305
000350 39 08 e8 bd 02 ab 53 bd db ad 9b bd 0b f3 80 bc
       -0.11329693 -0.051676758 -0.0760152 -0.015740892
000360 32 34 6f bd 1b e1 c1 bc 5f dc 3f 3c cc 4c 91 3d
       -0.058399387 -0.023666909 0.011710255 0.07094726
000370 7f c5 dd 3d f8 0d ea 3c 2a 82 23 3e 2b 9f 93 bd
       0.10828685 0.028571114 0.15967622 -0.07208093
000380 88 29 42 3e 1f 5b 5d bd 75 43 ab 3d 49 21 13 3d
       0.18961155 -0.054041978 0.08362476 0.035920415
000390 f0 4c 59 bd 88 6f 6d 3d 76 c3 2d bc df 3c 8d 3c
       -0.05305189 0.057967693 -0.010605684 0.01724094
0003a0 d1 0b 39 be 1e 2f 70 be 87 30 93 bd 13 12 2d 3c
       -0.18070914 -0.23455474 -0.0718699 0.010563391
0003b0 dd ab 3c bd 75 ba 2b be 24 95 8c bd f5 68 00 3d
       -0.04606234 -0.16770346 -0.06864384 0.031350095
0003c0 65 f5 61 be 85 6f 84 3d 79 22 4e bd d8 9a ab 3c
       -0.22066267 0.06466583 -0.050325844 0.020947859
0003d0 76 09 35 bb 63 45 af 3c 98 2a 00 be 01 61 a6 3c
       -0.0027624047 0.02139539 -0.12516248 0.020309927
0003e0 1f 18 23 be 67 06 dd bc 2f ef 1b bf 9e 92 8e be
       -0.1592717 -0.026980592 -0.6091184 -0.27846235
0003f0 26 66 7a 3e 91 ca a5 ba 9c 6c 84 3e a1 ed 70 be
       0.24453029 -0.001264887 0.25864112 -0.23528148

rnn.weight_hh_l1 f4 [200, 50]
000000 2d 47 dc bd 38 f4 d4 3d fc 37 09 3d c0 14 09 bc
       -0.10755763 0.103981435 0.033500656 -0.008366764
000010 78 6e 96 bd 50 f7 06 3d 80 63 17 3b 1a 12 e2 bd
       -0.07345289 0.0329507 0.0023100078 -0.11038609
000020 5b 6c 05 be 92 7a 69 bd 5d 1a 07 be 76 95 70 bd
       -0.13029616 -0.057001658 -0.1319365 -0.058736287
000030 c2 45 e4 3d 18 bf 0d 3d 60 60 a6 bd d0 44 6b bd
       0.11146118 0.03460607 -0.08123851 -0.05743867
000040 86 5d 97 bd 80 dc 6a bd b1 b8 b4 bd 1c 59 fd bd
       -0.07390885 -0.05733919 -0.088242896 -0.12370512
000050 58 21 68 bd 6d d1 c4 bd 4a 38 e1 3d da 86 ed 3d
       -0.056672424 -0.09610257 0.109970644 0.115979865
000060 50 99 d6 3d 1a fe ef 3d 1e 2f 86 3d 7a 68 d9 bd
       0.10478461 0.11718388 0.06551956 -0.106156304
000070 aa 61 df bd c1 cb ee bd 28 7d f7 bc 88 21 62 3d
       -0.109073 -0.11659957 -0.030211046 0.05520776
000080 f0 50 0a 3c d8 db ad 3c c8 04 c2 3c 20 89 0b bd
       0.008442149 0.021222994 0.02368392 -0.03406632
000090 1c 02 c7 3d a8 0f 16 3d ce d8 e0 3d c0 7f 3d bd
       0.09717199 0.036636025 0.10978852 -0.04626441
0000a0 34 ff 73 3d cf 04 ed bd ab 37 d7 bd 7d f1 cb bd
       0.059569553 -0.11573183 -0.10508665 -0.099581696
0000b0 da 21 32 bd 20 90 22 3c 55 48 92 bd 13 cd 0e 3e
       -0.043489315 0.009922057 -0.071427025 0.13945417
0000c0 01 b9 8d bd 2c d1 4c bd da fd ac bd ba aa d4 3d
       -0.06920052 -0.05000417 -0.08446856 0.10384126
0000d0 3a b3 6f bd 20 3e a5 3c 19 35 09 3e 74 6c e7 bc
       -0.058520533 0.020171225 0.13399161 -0.028249957
0000e0 9b ba 03 3e 9c 2b 8e 3d 42 3b e1 3d b0 31 d1 3d
       0.12864153 0.069419116 0.10997631 0.10214555
0000f0 85 3a 0a 3e 90 46 dc 3c e9 d1 0d be f0 4a 86 3c
       0.13498886 0.026889116 -0.13849606 0.016393155
000100 3c 57 00 be 40 61 c3 3d b0 39 be 3d 00 9b 5b 3d
       -0.12533277 0.09540033 0.09288347 0.053614616
000110 02 6e e6 bd b2 1c 3e bd fe 8c dd bd 62 10 bb bd
       -0.11251451 -0.046414085 -0.10817908 -0.09133984
000120 5a 87 76 bd 96 16 ac bd 83 e6 c9 bd 0a 40 af 3d
       -0.060187675 -0.084027454 -0.0985842 0.08557136
000130 f0 4e 73 3d e8 5e 0f bd 96 5f c6 3d ea a8 e4 3d
       0.059401453 -0.03500262 0.096862 0.1116503
000140 e0 3f d2 bc c2 2c ce 3d 2e 5e cb bd 40 6d 9c 3b
       -0.025665224 0.100671306 -0.09930073 0.004773766
000150 aa 8e a9 bd 4c 14 1b 3d 78 a6 0b 3d 00 84 31 39
       -0.08279164 0.037861153 0.034094304 0.00016929209
000160 b4 6b c5 3d 18 30 1d 3d 99 a9 08 3e d7 46 0a be
       0.09639683 0.038375944 0.13345946 -0.13503586
000170 c0 36 dd bb c8 d3 9f bc 5e 08 fc 3d e2 57 0d be
       -0.0067509115 -0.019510165 0.123062834 -0.13803056
000180 30 66 02 be 50 f7 ba 3d 20 7b 0d bd c8 03 cd 3d
       -0.12734294 0.09129202 -0.03454125 0.10010487
000190 dd d7 d8 bd 5c 7a d7 bd 68 cd 14 3d c4 e1 fd bd
       -0.10588048 -0.10521385 0.036328703 -0.12396577
0001a0 4e 6a c4 bd 70 92 92 bd 81 ba dd bd 1b 76 8a bd
       -0.095905885 -0.07156837 -0.108265884 -0.06760808
0001b0 4c cd ba 3d e0 d9 14 3d 08 60 14 bd 61 4f a6 bd
       0.091211885 0.036340594 -0.036224395 -0.08120609
0001c0 cc 24 0e bd 26 84 c5 3d c6 5c a0 bd 50 b2 2e bc
       -0.03470306 0.09644346 -0.07830195 -0.01066263
0001d0 59 8a ab bd 04 ed a3 bd e3 9f 95 bd 62 84 9f bd
       -0.08375997 -0.080041915 -0.073058866 -0.07788922
0001e0 00 5a 87 39 2d ba 0f be 38 16 d9 3c 15 dc e9 bd
       0.00025816262 -0.14035864 0.026499853 -0.114189304
0001f0 00 9d 0e 3d 5a 3e b2 bd da 61 8a 3d c4 4a 5d bd
       0.034817696 -0.08703299 0.06756945 -0.05402638
000200 0f 49 0c 3e ae 5a 4a bd 4a 51 de 3d b0 0a 63 3d
       0.13699745 -0.049402885 0.108553484 0.055430114
000210 c0 cb 1a 3b e3 ab 05 3e 48 02 02 3d 80 c0 ad ba
       0.002361998 0.13053851 0.031740457 -0.0013256222
000220 7c bf 85 3d fe ce 1f bd 38 ec 8d 3c 34 4f da 3d
       0.06530663 -0.039015763 0.017324552 0.10659638
000230 6a 13 9f bd b0 c7 62 3c 38 bd c5 bc e8 d5 86 3c
       -0.07767375 0.0138415545 -0.024138078 0.01645942
000240 86 94 8f 3d 40 b5 72 3b d4 42 be bd ee 77 dc bd
       0.070107505 0.0037034303 -0.0929009 -0.10765062
000250 00 c6 c8 39 92 d5 d2 3d 3a 8c 38 bd b2 bd 86 bd
       0.00038294494 0.102946416 -0.045055605 -0.0657915
000260 c0 97 1e bb 04 d4 5c 3d d8 3a 92 bd 4e 54 99 bd
       -0.0024199337 0.05391313 -0.0714013 -0.07486783
000270 c4 04 1b 3d fa 97 f5 3d da 56 79 bd d6 c9 b4 3d
       0.03784634 0.11991878 -0.060873844 0.0882756
000280 f0 41 32 3d 16 cb ae 3d f1 ec 07 3e 10 ec 13 bc
       0.043519914 0.08534829 0.1327398 -0.00902845
000290 dc 17 48 3d c6 42 d1 bd 0e 27 ba bd d0 ad 0f 3c
       0.04885088 -0.10217814 -0.0908948 0.0087694675
0002a0 46 f1 ee bd c0 e3 52 3c e0 77 5c bc a8 61 05 be
       -0.11667113 0.012871683 -0.013456315 -0.13025534
0002b0 32 bc 8f bd c2 1b 86 3d 6c 28 74 3d 9a 8f ee 3d
       -0.07018317 0.06548263 0.05960886 0.116484836
0002c0 e6 39 d4 3d 78 7e 0d 3d 9a 5d 63 bd 84 7e 02 bd
       0.10362606 0.034544438 -0.055509187 -0.031858936
0002d0 34 55 ad 3d fc 8a c6 3d 18 22 1b 3d 18 0c 30 3d
       0.08463517 0.09694478 0.03787431 0.042980283
0002e0 d0 3a 05 3c 2f 92 0d be f4 b8 c3 bd 9c 17 c2 bd
       0.008131698 -0.13825296 -0.095567614 -0.094771594
0002f0 a6 21 f3 3d f4 01 17 bd 80 98 5c 3d b5 4c 0a 3e
       0.11871652 -0.036867097 0.053856373 0.13505824
000300 00 9b 32 3b 94 3e 8b 3d 18 01 82 bc 0c 49 ca bd
       0.0027253032 0.06799045 -0.015869662 -0.09877214
000310 00 e0 3c bb ee dd 00 be b2 57 69 bd 44 12 e8 bc
       -0.0028820038 -0.1258466 -0.0569684 -0.028329022
000320 e0 00 47 3d 05 9b f5 bd 94 f0 6e 3d 6e 08 0b be
       0.04858482 -0.11992458 0.058334902 -0.13577434
000330 e5 6b 05 be 09 6f 0b be ea 84 e1 3d 66 12 5e bd
       -0.1302944 -0.13616575 0.110116795 -0.054216765
000340 09 2f 00 3e a9 49 91 bd 0e 08 f8 bd 1a e6 01 be
       0.12517942 -0.07094128 -0.12110911 -0.12685433
000350 ed 4b 03 3e 66 98 86 3d ae 8c e8 3d 7a a9 9d 3d
       0.12821932 0.065720364 0.113549575 0.07698341
000360 fc 52 00 3d 42 6f a1 3d e0 b2 55 bd cc 9d 5a 3d
       0.03132914 0.07882549 -0.05217254 0.053373143
000370 2c 74 11 3d 38 3a b9 3d 93 94 01 be 84 82 81 3d
       0.03551118 0.090443075 -0.12654333 0.06323722
000380 50 32 66 3d a4 c4 d7 3d e5 40 01 3e e8 e6 6c bd
       0.056200325 0.10535553 0.12622412 -0.057837397
000390 b7 43 01 be 70 ff 93 3d 50 57 94 bc ea ad af 3d
       -0.12623487 0.07226455 -0.01810804 0.08578093
0003a0 20 c0 c6 3b b4 69 43 bd 16 2c db bd 8e 9a db bd
       0.0060653836 -0.04770823 -0.10701768 -0.10722838
0003b0 00 ce ba ba bd eb 0f 3e ec fc 20 3d 97 2d b8 bd
       -0.0014252067 0.14054771 0.039303705 -0.089930706
0003c0 40 2c 7d bb 1b dd 05 3e ea b5 6f bd aa d1 dc 3d
       -0.0038631111 0.13072626 -0.058523096 0.10782178
0003d0 64 0a 0a be d0 eb d6 bd 2c d4 00 3d 2c 4e 26 3d
       -0.13480526 -0.104941964 0.031452343 0.040601894
0003e0 70 45 05 3c e4 ce da 3d 78 b6 84 3c 5d 24 03 3e
       0.008134231 0.106839925 0.01620029 0.1280684
0003f0 f6 82 c4 3d 32 37 dc 3d 16 76 c6 3d a0 97 95 bc
       0.09595291 0.10752715 0.09690492 -0.018260777

rnn.bias_ih_l1 f4 [200]
000000 6a e3 fe 3d 51 ad 3c 3e cd 30 19 3e b2 b6 1b 3d
       0.124457195 0.1842549 0.14960022 0.03801603
000010 4e 69 d9 bd 4b 04 00 bd c2 30 1f 3e c3 18 9d 3d
       -0.106157884 -0.031254094 0.15545943 0.076707385
000020 ee 36 a1 3d 7a 73 1b bd b7 48 d4 3b 50 0e 83 bc
       0.07871805 -0.037951924 0.006478395 -0.015998036
000030 fc 1c b5 3d 9d 40 28 bd 2e c5 cc bb bd 7e d5 3d
       0.08843419 -0.041077245 -0.0062490916 0.10424564
000040 55 a7 b2 bd 44 b4 2d 3e 34 ef 1c be d4 dd 96 3d
       -0.08723322 0.16963297 -0.15325624 0.07366529
000050 aa 40 97 bd 88 dc 45 3e fc a9 c9 3d aa 3c 40 bd
       -0.073853806 0.19322407 0.09846875 -0.046932854
000060 b6 c4 c3 3d 2c b1 f8 bc 03 d5 3f bc 62 a9 6f bd
       0.09559004 -0.03035792 -0.011708501 -0.058511145
000070 2e c8 93 bc f3 22 c4 3c 78 f2 0a 3e 49 cc 9c bd
       -0.018039789 0.023942446 0.13569057 -0.07656152
000080 e3 a4 ae ba 2a c3 ba ba d6 b9 80 3d 6a b8 9e bd
       -0.0013324287 -0.0014248837 0.062854454 -0.07750018
000090 16 a0 b6 bd 2e 3b 51 3e 89 37 ea 3d e6 0a 72 bd
       -0.08917253 0.20432732 0.11436374 -0.059092425
0000a0 20 8b e3 3d 90 a9 0a 3c 70 98 07 be 92 24 a0 3c
       0.1111052 0.008463278 -0.13241744 0.019548688
0000b0 6b aa 0b 3e 88 1f 35 3e cc ae e8 bc 78 ea 0d 3e
       0.13639228 0.1768781 -0.028403662 0.13858974
0000c0 c5 66 5c 3e e1 40 50 3e 2e 81 7c bd 08 5c 05 be
       0.21523578 0.2033725 -0.061646633 -0.13023388
0000d0 a9 1c 93 bd da 59 07 be e5 cf 0b be 5d db 07 3e
       -0.07183201 -0.1321787 -0.13653524 0.13267274
0000e0 80 48 e4 ba 78 d7 92 bd 7e 9e 1c bd ea 54 f0 bd
       -0.0017416626 -0.07170004 -0.038237087 -0.11734946
0000f0 70 c4 46 bc 40 f1 26 bd b0 a1 f8 bd 60 24 2d 3c
       -0.012131795 -0.040757418 -0.121402144 0.0105677545
000100 86 63 f8 3d 0a 3e ea 3d 90 cc 4d bc 00 2b be 3c
       0.121283576 0.11437614 -0.0125609785 0.023213863
000110 c3 df 0d 3e 1c 94 6b 3d 05 f5 0d be 64 dd 9c 3d
       0.1385489 0.057514295 -0.13862999 0.076594144
000120 c0 58 28 bc 4a 0b ae bd 54 bb 6c 3d dc 79 34 3d
       -0.010275066 -0.08498247 0.057795838 0.044061527
000130 f0 f6 ae 3c 36 9f 01 be b8 8b 7f bd 10 76 67 3d
       0.021357983 -0.1265839 -0.062389106 0.056509078
000140 8c 48 f0 bd e8 cd 07 be bb 7b 0c 3e 00 85 e0 ba
       -0.11732587 -0.13262141 0.13719074 -0.0017129481
000150 35 c3 c2 bd aa 18 d3 3d 70 70 3a 3d 7a ce 84 3d
       -0.09509889 0.10307439 0.045517385 0.06484695
000160 b6 66 52 bd 44 cd bf 3d 54 e5 e2 bc e0 1c f9 3b
       -0.051367484 0.09365323 -0.027697243 0.007602319
000170 bc 53 50 3d d6 1e 05 be 87 52 05 3e 00 3d ae 3a
       0.050861105 -0.13000044 0.13019763 0.0013293326
000180 8b d2 00 be 66 0c 43 bd 2e b1 b4 bd 6b 15 8d bd
       -0.12580316 -0.047619246 -0.08822857 -0.06888851
000190 57 c8 2b 3e 35 34 9f 3c 59 03 5f bd 3a 73 f3 bd
       0.16775642 0.019434074 -0.054446552 -0.11887212
0001a0 e8 0b f7 3b db b8 57 3d 10 42 74 3c 86 3b c0 bd
       0.007539261 0.052666526 0.014908329 -0.09386353
0001b0 60 f2 37 be 3b 7e 21 be eb d4 d7 bb 9d f4 e2 3d
       -0.17963552 -0.1577081 -0.006586661 0.110818125
0001c0 14 9a 1b 3d 1e ed 28 3d 4c 2b e7 bd de 1c f5 bb
       0.037988737 0.041241758 -0.11287555 -0.007480248
0001d0 48 a8 54 3d 7b 5f 02 be 21 82 9b 3d de 20 65 3d
       0.051918298 -0.12731735 0.075931795 0.055939548
0001e0 2e e3 28 3e c0 ec 20 be 75 64 05 be 4d cf 36 be
       0.16492912 -0.15715313 -0.13026603 -0.17852516
0001f0 5d e5 01 bd 7e d0 3e bd 8e ef 19 be df cc b5 bd
       -0.03171288 -0.046585552 -0.15032789 -0.08876967
000200 08 2a aa 3d de 2e be 3c 33 4e ac 3d d4 81 9b bd
       0.08308798 0.023215707 0.08413353 -0.07593122
000210 d6 e9 42 bd 12 60 2d 3d 0c 05 a6 3d 1f 66 2a bd
       -0.047586285 0.042327948 0.08106431 -0.041601297
000220 da 80 94 39 4b 55 1e 3c 8e 67 0c be 39 35 3f be
       0.00028324762 0.00966389 -0.13711378 -0.18672647
000230 9e 47 e4 bd 78 9e ad 3d 33 ab 2b bd 91 cb 9f bd
       -0.111464724 0.08477491 -0.041911315 -0.07802499
000240 92 4d 0c be ae 6a e3 bd 23 aa 06 be 5f fd bd 3c
       -0.13701466 -0.11104332 -0.1315084 0.023192106
000250 e7 99 0b be 2c a5 3f 3e 4b ef 59 3e dd 2c fa bc
       -0.13632928 0.18715352 0.2128269 -0.03053897
000260 a5 63 44 bd e8 dc 29 3e 5f dc 04 be 91 15 cf 3c
       -0.04794659 0.16588175 -0.1297469 0.025278838
000270 ae 88 de 3d 88 57 d1 3c 7f d7 dc 3d 9c 84 05 3c
       0.10865913 0.025554433 0.1078329 0.008149292
000280 1d 59 10 3e 5b 71 61 3d c0 12 24 3e 57 a7 c0 bc
       0.14096494 0.055039745 0.16022778 -0.023517294
000290 95 ad 61 3d 2c d1 1f be d8 b6 a4 3d 5a 54 1f bd
       0.05509718 -0.15607136 0.08042687 -0.038898803
0002a0 f8 52 66 3d e5 58 1d 3e c0 9a e7 bc 35 3a 2f 3c
       0.05623147 0.15365942 -0.028272033 0.01069503
0002b0 0f 1c d1 bb e2 09 19 3d 4d af b0 3d c0 26 d4 3c
       -0.0063815187 0.03736294 0.08627186 0.025897384
0002c0 62 cb cc 3d 43 f8 a0 3d 76 96 7b bb bd e9 de bc
       0.0999973 0.07859852 -0.0038389242 -0.027211064
0002d0 38 ce 44 bd 0f bd 26 be 91 ae dc bd 3c 15 1a bd
       -0.048048228 -0.16283058 -0.107754834 -0.037617907
0002e0 18 da 13 3e a2 cf 2c 3e dd 97 b4 bd 57 c2 c1 3d
       0.14438665 0.1687608 -0.08818028 0.094608955
0002f0 63 85 56 3e a0 3e 08 3e 43 61 92 3e 73 c7 85 bd
       0.2094932 0.1330514 0.2858983 -0.065321825
000300 31 16 09 be 60 ab 03 3e 8f 03 27 3e c1 ab 25 3e
       -0.13387372 0.12858343 0.16309951 0.161788
000310 93 41 43 3e c8 23 51 3d ec 16 39 3e 53 73 ae 3d
       0.19067983 0.051059514 0.1807515 0.0851809

rnn.bias_hh_l1 f4 [200]
000000 45 18 38 3e d6 ff 89 bc 98 45 bf 3d ae d2 3a 3d
       0.17978008 -0.016845625 0.09339446 0.045611076
000010 cd 59 fe bd 93 c5 52 3e df 58 1b 3e 22 9a 28 3d
       -0.12419472 0.20583181 0.1517062 0.041162618
000020 5d 91 06 3d 87 19 3b 3e b2 aa 06 3e 6e 4e 35 bd
       0.032853473 0.18271457 0.13151053 -0.04426425
000030 6e 55 f2 3d 94 72 3c 3b a4 98 83 3d 6d 49 1f be
       0.11832701 0.0028754817 0.06425598 -0.15555353
000040 3f 03 94 bd 83 3d 24 3e cd 50 de bb 0a a3 ff 3c
       -0.07227182 0.1603909 -0.0067845345 0.031205673
000050 35 f2 ea 3d e6 1e 62 bd 3f 49 15 3d b2 ca 0c 3e
       0.114719786 -0.05520525 0.036446806 0.13749197
000060 c9 fc c1 bc 53 8e d1 bc a3 b5 83 bd 2d 6e c6 3d
       -0.023680108 -0.02558056 -0.06431129 0.09688983
000070 37 42 22 3e 10 28 ef bd 7e d5 3f 3e 97 0c d9 3d
       0.15845571 -0.11677563 0.18733785 0.105981044
000080 1f 45 ec bd 62 b0 34 3e a6 48 bb 3d 9d 5c e4 3b
       -0.11536621 0.1764541 0.09144716 0.006969048
000090 46 ae 54 3d 53 ba 30 bc d9 83 ae 3d f1 e6 82 3c
       0.051924013 -0.010786611 0.08521242 0.015979262
0000a0 6e b2 77 3d 27 41 d3 3d 2b da a6 3c aa 99 17 3e
       0.0604729 0.10315161 0.020367702 0.14804712
0000b0 a6 6b a6 3d 77 dd 33 bd 5b fa 19 3e 4a 98 02 3e
       0.08126001 -0.043912377 0.1503691 0.12753406
0000c0 ae 0b af 3d 02 4e 86 bd 04 4f ba 3d 71 a5 f4 bd
       0.085471496 -0.065578476 0.09097102 -0.11945618
0000d0 e0 1d 65 bc 80 e3 a9 3b fe e2 8a 3d a8 6e 67 3d
       -0.013984174 0.005184591 0.067815766 0.056502014
0000e0 00 0c 3a b9 80 0c 22 3b 26 0f a7 3d 98 55 65 3d
       -0.00017742813 0.002472669 0.08157186 0.05598983
0000f0 80 64 c3 3a 0d c4 0d 3e 44 0f 7f bd b1 8f bb bd
       0.0014907271 0.13844319 -0.062270418 -0.09158266
000100 d2 41 82 3d dc 7b ac bd 38 88 b5 3c ca 88 16 bd
       0.063602105 -0.08422062 0.02215968 -0.036751546
000110 00 d1 bb 3a 4a ee 00 be c4 b7 61 3d 24 57 f1 bd
       0.0014329255 -0.125909 0.055106893 -0.11784199
000120 b0 09 9d 3c 2e ea 88 bd 8e 59 b1 bd 6f 16 f8 bd
       0.019169658 -0.06685291 -0.08659659 -0.12113654
000130 04 79 36 3d d6 d8 fa 3d 82 95 e7 3d 20 58 80 bb
       0.044549003 0.122483894 0.11307813 -0.0039167553
000140 00 cf 5a 3a 4e a7 8b 3d be ca a4 bd 20 43 cf 3b
       0.00083468854 0.0681902 -0.080464825 0.0063251406
000150 3a 40 2a bd f8 15 f9 3c 70 66 c8 bc ac 1b f4 bd
       -0.041565157 0.030405983 -0.024462909 -0.119193405
000160 00 2d 69 3d ed c5 f0 bd 20 a0 15 3c 10 f2 8f 3c
       0.05692768 -0.11756501 0.009132415 0.01757148
000170 78 8c ac bd 50 e5 d2 3d 1e d9 ee bd 00 ae db 3d
       -0.0842523 0.10297644 -0.116625056 0.10726547
000180 e5 71 fb bd 00 f1 86 3b a0 7d 63 3c 80 c6 99 bd
       -0.12277583 0.004118085 0.013884932 -0.07508564
000190 57 52 03 3e ab c7 00 3e d1 81 0b 3d 6f 8b 2b be
       0.12824379 0.12576167 0.03405935 -0.16752408
0001a0 ee b3 8d bd 1a 64 5a bd 9f d1 41 bd 1f c5 06 3e
       -0.069190845 -0.05331812 -0.04731905 0.13161133
0001b0 39 2c 96 bd 21 e3 a1 bc 9b 73 51 3d 94 9e 3c 3e
       -0.073326536 -0.019761624 0.05113564 0.18419868
0001c0 63 59 3f be 6c dd b5 ba 7c d4 c6 3c 14 16 86 bd
       -0.18686442 -0.0013875193 0.024271242 -0.0654718
0001d0 8e 5b a4 3c 0e b1 b0 bd 61 51 87 3d 08 0e 44 be
       0.020063188 -0.086275205 0.06607319 -0.19145977
0001e0 ab 8e 97 bb 3f 9f c7 bd 73 f0 80 bd df 77 40 be
       -0.0046251616 -0.09747171 -0.06295862 -0.18795727
0001f0 63 be 09 be ee 89 cc 39 2c c2 cf bd a5 31 0f be
       -0.13451533 0.00039012678 -0.10144457 -0.13983782
000200 0c c3 cd 3d 48 0e 59 bc 99 b0 54 3d 5b 2c 72 bd
       0.10046968 -0.013248034 0.05192623 -0.059124332
000210 f4 17 9b 3d 46 98 92 bd 5a cc 9e 3d bd a2 da 3d
       0.07572928 -0.0715795 0.07753821 0.10675571
000220 49 c7 9c ba a8 d9 a8 bd 3f d2 fc bd d6 ca 0e be
       -0.0011961247 -0.0824464 -0.12344789 -0.13944563
000230 45 ff cf bc c6 c9 fe 3d b3 27 bc bd 68 83 c1 3c
       -0.025390277 0.12440829 -0.091872595 0.02362223
000240 11 04 9a 3d 5e 35 23 3d fe 68 ad bd 59 21 41 be
       0.07520307 0.039845817 -0.08467291 -0.18860377
000250 6d 2a 4b bd 46 57 6b 3d 5a b7 67 3c c0 21 74 3d
       -0.049601007 0.057456277 0.0141428355 0.0596025
000260 e3 84 2c bd bd 6a 08 bd bb 8d 62 3d 03 70 17 3e
       -0.04211892 -0.03330492 0.055310946 0.14788823
000270 1b 74 25 3e 72 d4 20 3d 05 f8 0a bd cc 97 5c 3c
       0.16157572 0.039265104 -0.033927936 0.013463926
000280 8e e6 c6 3d 3b 5b 48 3d 96 4c 79 bd 61 1d fe 3c
       0.097119436 0.04891513 -0.060864054 0.031019868
000290 72 93 7a bd f1 b5 e9 bd 38 ee 51 bc 2a b5 d4 3d
       -0.06117577 -0.11411656 -0.012813143 0.10386117
0002a0 3b 6d c3 bd 84 e2 ef bc d9 1a 38 3e 3a b8 0f 3e
       -0.095423184 -0.029282816 0.17978992 0.1403512
0002b0 e2 65 1d bd 83 9f b2 bc c4 42 91 3d 8c 9d a9 bc
       -0.03842724 -0.021804577 0.07092813 -0.020705007
0002c0 2d d5 ba 3c 83 ec 4d 3e a9 ff ae 3d d5 d6 75 bd
       0.022806728 0.20109753 0.08544857 -0.060019333
0002d0 8c 81 6e 3d c1 ad 25 3c 1f 8e fb bd 1e de dc 3d
       0.058229014 0.010112227 -0.12282967 0.10784553
0002e0 42 8f d2 bb 39 07 1b bd d0 3f 47 3d 19 42 5c 3d
       -0.006425769 -0.037848685 0.04864484 0.053773973
0002f0 34 f5 0c bd 8b 25 af 3d 07 98 81 3e 2d 4a 3b 3e
       -0.03441353 0.08552083 0.253113 0.18290015
000300 19 c2 2b 3d e4 d2 3a 3e 5b 64 f7 3c 8b 35 4f 3e
       0.041933153 0.18244511 0.03019922 0.20235269
000310 ad b2 18 3d f3 c4 85 3d 7a 87 2c 3e d0 f6 43 3e
       0.037279774 0.06531706 0.16848555 0.1913712
